weights/weight_after_step20_6.pth (torch, 783165 bytes, 30 tensors)

conv1.weight f4 [6, 1, 5, 5]
0	0x3e752369	0.23939289
1	0x3cb9ad21	0.022665562
2	0xbc16a1b8	-0.00919383
3	0x3e3ce0a4	0.18445069
4	0x3e3c89e2	0.18411973
5	0x3e44e116	0.19226488
6	0x3d588d92	0.052869387
7	0xbe075464	-0.13215786
8	0xbd5de5be	-0.054174177
9	0x3e59c8c7	0.21267997
10	0xbc863aa8	-0.016385391
11	0xbd10f3d4	-0.035388783
12	0xbe6dd2e9	-0.23224987
13	0x3d62db86	0.055385135
14	0xbe217ed7	-0.15771042
15	0x3d94a61d	0.07258246
16	0xbe1ae7ad	-0.1512744
17	0xbe4f13eb	-0.20222442
18	0xbe0703f7	-0.13185106
19	0xbc9126ff	-0.01771879
20	0xbe2dfbe8	-0.16990626
21	0xbe50ca8f	-0.2038977
22	0xbe1fcc2f	-0.15605234
23	0xbcb21182	-0.021736864
24	0x3b8318dc	0.004000766
25	0xbc867b55	-0.016416231
26	0xbdf7d091	-0.12100328
27	0xbd97b26a	-0.07407077
28	0xbc965d7a	-0.01835512
29	0x3d84a6ae	0.06477104
30	0xbcdad48f	-0.026712684
31	0xbe74a859	-0.23892345
32	0xbe3d8b71	-0.18510224
33	0xbe29d4f8	-0.16585147
34	0x3d8c265d	0.06843255
35	0xbe4b734d	-0.19868203
36	0xbcf5d7a6	-0.030010056
37	0x3c9b7e81	0.01898122
38	0x3e23ca91	0.15995242
39	0x3dfb0290	0.12256348
40	0xbb41a9dd	-0.002955071
41	0xbe24f8a9	-0.16110481
42	0xbe5dbdbc	-0.21654409
43	0x3d04a9ee	0.03238862
44	0x3da8847b	0.08228394
45	0x3e3ff1cb	0.1874458
46	0x3e3142a7	0.17310582
47	0xbddae160	-0.10687518
48	0x3db16e29	0.086635895
49	0xbcbd2ee7	-0.023093654
50	0x3d14d720	0.03633797
51	0x3e3685ab	0.17824428
52	0x3e4366b6	0.1908215
53	0x3e0381c7	0.12842475
54	0x3db1a23a	0.086735204
55	0xbe6b015d	-0.22949739
56	0x3e376d64	0.17912823
57	0xbd383f35	-0.044982154
58	0x3dc4604a	0.09588678
59	0x3e2243e0	0.15846205
60	0x3daf81f2	0.08569707
61	0xbcc33f99	-0.023834037
62	0x3d8af124	0.06784275
63	0x3e49604b	0.19665639
64	0xbd93edbc	-0.072230786
65	0xbc9b1744	-0.018931992
66	0xbe3fd310	-0.18732858
67	0x3e14590f	0.14487098
68	0x3e1a4bdb	0.15067999
69	0x3df42809	0.119216986
70	0xbe9acd3c	-0.30234706
71	0xbd8e4a52	-0.06947769
72	0x3bcf890c	0.006333476
73	0xbd593f6b	-0.053038996
74	0xbe0fde84	-0.14049727
75	0x3dba3f6b	0.09094127
76	0x3e4f9bc1	0.20274259
77	0xbcd6a080	-0.02619958
78	0x3e6fbc5d	0.23411699
79	0x3d37eba5	0.044902463
80	0x3e92b367	0.28652498
81	0x3df5a1dc	0.11993763
82	0x3e0692e7	0.13141976
83	0xbe143eff	-0.14477156
84	0xbe207ac0	-0.15671825
85	0x3d43e75a	0.047828056
86	0xbd229a78	-0.039698094
87	0xbe5c1ec6	-0.21496114
88	0x3db4649b	0.088082515
89	0xbdb13192	-0.08652033
90	0x3e451021	0.19244434
91	0xbe3e992c	-0.18613118
92	0xbe87810c	-0.26465642
93	0x3d5f7d47	0.054562833
94	0xbe884b3b	-0.26619896
95	0xbe2f5573	-0.1712244
96	0xbca63157	-0.020287199
97	0xbe08b6ba	-0.13350955
98	0xbd42ef5d	-0.047591556
99	0xbd5981de	-0.053102367
100	0x3d5fb3b3	0.054614734
101	0x3df2ae78	0.118496835
102	0xbdc59c54	-0.09648958
103	0x3e308886	0.1723958
104	0xbdbb4b1b	-0.091451846
105	0x3b0653de	0.0020496766
106	0xbe657c8d	-0.22410794
107	0xbe8404f3	-0.25785026
108	0xbd414083	-0.047180664
109	0x3d428046	0.047485612
110	0xbe2713bd	-0.16316123
111	0x3df8986c	0.12138447
112	0xbdebd13f	-0.1151452
113	0x3ce93baa	0.028470833
114	0xbe231eca	-0.15929714
115	0x3e36b449	0.17842211
116	0x3df0145c	0.11722633
117	0x3cab8154	0.020935692
118	0xbdd08bf8	-0.10182947
119	0xbe38340c	-0.17988604
120	0xbe0a2c73	-0.13493519
121	0xbdcefe51	-0.10107101
122	0xbe689e27	-0.2271658
123	0xbcc942ea	-0.02456804
124	0x3e2217fc	0.15829462
125	0xbe7d66a2	-0.24746183
126	0xbe67f668	-0.2265259
127	0xbd28f306	-0.04124739
128	0xbdf0cd06	-0.11757855
129	0xbe88a143	-0.26685533
130	0x3e36b1b7	0.1784123
131	0x3dcd4829	0.10023529
132	0xbd0eca85	-0.034861106
133	0xbd517db0	-0.051145256
134	0x3db72fbc	0.089446515
135	0x3d17ce28	0.03706184
136	0x3dd0327e	0.101658806
137	0xbcd9aef8	-0.02657269
138	0x3d30b625	0.043142457
139	0x3df07f81	0.117430694
140	0x3dbf1af1	0.093313105
141	0x3d886b03	0.06661036
142	0x3e26de76	0.162958
143	0x3e7770c9	0.24164118
144	0x3d428aa8	0.047495514
145	0x3e3bad1b	0.18327753
146	0x3e052c54	0.13005191
147	0xbd000799	-0.031257246
148	0xbd46c682	-0.048529156
149	0xbd070b7b	-0.032969933

conv1.bias f4 [6]
0	0x3d278039	0.040893767
1	0x3e3be1bb	0.18347828
2	0xbd90113d	-0.07034538
3	0x3d0940e9	0.03350917
4	0xbcc39131	-0.023872944
5	0xbe505f24	-0.20348793

conv2.weight f4 [16, 6, 5, 5]
0	0x3ccc1192	0.024910722
1	0x3dc52762	0.09626652
2	0xbc952072	-0.018203948
3	0xbbade710	-0.005307086
4	0xbd4875f6	-0.04894062
5	0x3e17026c	0.14747018
6	0x3db07c4c	0.08617458
7	0xbd1a6da4	-0.037702218
8	0xbd061ccd	-0.03274231
9	0xbca4bee5	-0.020110557
10	0x3d91571d	0.07096694
11	0xbbec5581	-0.0072123413
12	0x3b5d47cc	0.0033764718
13	0xbc979349	-0.018502848
14	0xbcfaebf3	-0.030630087
15	0xbc197611	-0.009366528
16	0x3e0493e0	0.12947035
17	0x3c263264	0.01014385
18	0x3bfd38f9	0.007727739
19	0xbdae2ed5	-0.08505026
20	0xbc29f9fb	-0.010374541
21	0x3dbeeb24	0.09322193
22	0x3d3f6312	0.04672534
23	0x3d4f9b39	0.05068514
24	0xbd324c08	-0.04352954
25	0x3d244ef3	0.040114354
26	0x3df71d4b	0.12066134
27	0x3dfa4e4a	0.12221964
28	0x3d9dc124	0.07702854
29	0x3d3914ab	0.045185726
30	0xba94c7df	-0.001135107
31	0x3d73313b	0.05937312
32	0xbcbd4718	-0.02310519
33	0x3c80be6a	0.015715797
34	0xbda4660c	-0.080272764
35	0x3d9309d0	0.07179606
36	0x3d60dcfe	0.054898255
37	0x3d48051f	0.04883301
38	0xbd4407d3	-0.047859024
39	0xbdbb10f4	-0.09134093
40	0x3dbd8bd3	0.09255185
41	0x3db11935	0.08647386
42	0x3c4a208a	0.0123368595
43	0xbe123284	-0.14277083
44	0xbe0de7ab	-0.13857906
45	0x3e0a149b	0.13484423
46	0x3ddcb0ef	0.10775935
47	0x3cdf2552	0.027239475
48	0xbe056715	-0.13027604
49	0xbd8d40b7	-0.06897109
50	0xbd54a5e5	-0.05191602
51	0x3b76ceed	0.0037659958
52	0xbde2a4b9	-0.110665746
53	0x3c3140d9	0.010818684
54	0xbd801503	-0.06254008
55	0xbd40d97a	-0.0470824
56	0xbd25142b	-0.040302437
57	0xbdb8cb33	-0.09023132
58	0x3d66cb9a	0.056346513
59	0xbd55f7e9	-0.05223838
60	0xbdde1db1	-0.10845507
61	0xbdb64211	-0.0889932
62	0xb9035840	-0.00012526009
63	0x3df3679d	0.11884997
64	0xbd585f6c	-0.052825376
65	0xbd24c2e8	-0.04022494
66	0x3d18d866	0.03731575
67	0x3db983dc	0.09058353
68	0x3e14757f	0.14497946
69	0x3dbbf42c	0.091774315
70	0xbe126b14	-0.1429866
71	0xbdb503d7	-0.08838623
72	0x3e0991ce	0.13434526
73	0x3df7db29	0.12102348
74	0xbd6eb53c	-0.058278307
75	0x3d7bbefe	0.06146144
76	0x3d8db69b	0.06919595
77	0xbd1a38c0	-0.037651777
78	0xbd6a6cc0	-0.05723262
79	0xbd065fc8	-0.032806188
80	0x3d912101	0.07086373
81	0xbdacdcaa	-0.08440526
82	0xbe314840	-0.17312717
83	0xbd9212a8	-0.07132465
84	0xbdbf88ef	-0.0935229
85	0x3d3692a7	0.044573452
86	0xbd5179d2	-0.051141568
87	0xbddd7156	-0.10812633
88	0xbdf82dce	-0.121181116
89	0xbd970a28	-0.07374984
90	0x3dabddd9	0.083919235
91	0xbdc30c26	-0.095238015
92	0xbd48d97e	-0.04903554
93	0xbdd6ec0f	-0.10494243
94	0x3df7b905	0.120958365
95	0x3d59deb3	0.0531909
96	0xbd7daf98	-0.061935037
97	0xbd62c529	-0.055363808
98	0x3d84c3a4	0.06482628
99	0x3b9905cc	0.0046698805
100	0x3c406ffd	0.01174545
101	0x3d4fa6f9	0.050696347
102	0x3d32e1a7	0.04367223
103	0xbd91126a	-0.0708359
104	0xbd48ebff	-0.04905319
105	0x3d9bff8e	0.076171026
106	0x3daf824b	0.08569773
107	0xbd0135e6	-0.031545542
108	0xbdc4b5cf	-0.0960499
109	0xbd9c0cc3	-0.076196216
110	0x3de71a67	0.11284333
111	0xbd0a93fe	-0.033832543
112	0xbdabf81e	-0.08396934
113	0xbd43ac1d	-0.047771562
114	0xbd940bdb	-0.07228824
115	0x3d38b6a5	0.04509606
116	0x3d97b183	0.074069045
117	0xbdaa36ae	-0.083112106
118	0xbd9e6497	-0.0773403
119	0x3d26f4da	0.040760852
120	0xbbe6e164	-0.0070459116
121	0x3a813e74	0.0009860531
122	0xbdd0145a	-0.10160132
123	0xbde37792	-0.111067906
124	0x3d024cee	0.031811647
125	0xbd8092d5	-0.06278006
126	0xbe02a280	-0.12757301
127	0xbd8fa003	-0.07012942
128	0xbd8296f1	-0.06376446
129	0xbd53468f	-0.05158096
130	0xbe05fd92	-0.1308501
131	0xbdc1143c	-0.094276875
132	0x3cc545ee	0.024081197
133	0x3cf0530f	0.02933648
134	0x3e069082	0.13141063
135	0xbc00d04d	-0.007862163
136	0x3c82954a	0.015940327
137	0x3d20ac46	0.039226793
138	0x3c89f75b	0.016841581
139	0x3ced546e	0.028970923
140	0xbc528f3e	-0.012851534
141	0xbcba3d47	-0.022734297
142	0x3ca57a9e	0.02020007
143	0x3bb14663	0.005410002
144	0x3ca668f0	0.02031371
145	0x3aef007b	0.0018234396
146	0xbd9458ba	-0.07243486
147	0xbd30e6e3	-0.04318894
148	0xbd9f09a1	-0.077655084
149	0xbca75c28	-0.020429686
150	0x3dd5cb1a	0.10439129
151	0x3ced28d0	0.028950125
152	0x3dcd448b	0.10022839
153	0x3dde37e4	0.10850504
154	0x3de3400a	0.11096199
155	0xbe0c3540	-0.13692188
156	0xbd1f83be	-0.038944
157	0xbd897e9c	-0.06713602
158	0x3d77bcc1	0.060482744
159	0x3dbbe3fa	0.091743425
160	0xbe0d0401	-0.13771059
161	0xbd88245a	-0.066475585
162	0xbe1afebb	-0.15136234
163	0xbd985514	-0.07438102
164	0xbbaec360	-0.005333349
165	0xbd53f207	-0.051744487
166	0x3d582efe	0.05277919
167	0xbd061ef3	-0.03274436
168	0xbd71ee01	-0.05906487
169	0xbdbcb78c	-0.09214696
170	0x3b81b7a9	0.0039586616
171	0x3dd8c278	0.10583967
172	0x3d30c520	0.043156743
173	0xbd7f10f4	-0.062272027
174	0xbdcb8349	-0.0993715
175	0x3cec9723	0.028880661
176	0x3dda0b77	0.10646718
177	0x3ba6d0b2	0.0050907964
178	0xbc270548	-0.01019413
179	0x3d49bcab	0.049252193
180	0x3cebadfd	0.028769488
181	0x3daaa390	0.08331978
182	0x3da3941b	0.07987233
183	0x3e051b0d	0.129986
184	0x3ce99396	0.028512757
185	0xbdd420cf	-0.1035782
186	0x3b09384b	0.0020938094
187	0x3a4eb0ef	0.00078846415
188	0x3c9d007e	0.019165274
189	0x3d687c91	0.05675942
190	0xbc7a0468	-0.01525984
191	0xbe1fd2ff	-0.15607832
192	0xbd73570a	-0.05940918
193	0xbdc45be4	-0.09587839
194	0xbdad0144	-0.08447507
195	0xbd0de152	-0.03463871
196	0xbd4fd0a4	-0.050736085
197	0xbd24f3d9	-0.040271614
198	0x3c6d4bc1	0.014483393
199	0xbd7a84e8	-0.061161906
200	0xbe070155	-0.13184102
201	0xbc5e9854	-0.013586123
202	0xbddf1eba	-0.108945325
203	0x3cca82f8	0.024720654
204	0xbda76398	-0.08173293
205	0xbdb90acd	-0.09035263
206	0xbdd2b1ec	-0.10287842
207	0xbc848d71	-0.016180726
208	0xbd7868c9	-0.060646806
209	0xbe100195	-0.14063103
210	0x3d6e5baa	0.058192886
211	0x3c94b2c6	0.018151652
212	0xbda92620	-0.08259225
213	0xbe17feaa	-0.1484324
214	0xbe04336d	-0.12910242
215	0x3deee5f8	0.11664957
216	0x3d5facd6	0.05460819
217	0xbd1471ce	-0.036241345
218	0xbd4b08b0	-0.049568832
219	0x3b7f7050	0.0038976856
220	0x3da97ee0	0.082761526
221	0xbca588e1	-0.02020687
222	0x3df7f482	0.12107183
223	0x3cd8fb54	0.02648703
224	0xbc32b8d1	-0.0109083215
225	0xbb343c1d	-0.002750165
226	0x3d2bc944	0.04193999
227	0x3e220649	0.1582271
228	0x3e31154e	0.17293283
229	0x3deac9e2	0.11464287
230	0xbdd021ad	-0.10162673
231	0xbd6c572a	-0.057700314
232	0x3d50caf4	0.0509748
233	0x3db00c61	0.08596111
234	0x3d250b72	0.04029412
235	0xbe1b794a	-0.15182987
236	0xbe263c31	-0.16233899
237	0xbe043bec	-0.12913483
238	0xbdd0a542	-0.101877704
239	0xbd35819d	-0.044313062
240	0x3d3657cd	0.044517327
241	0x3dd0cb38	0.10195011
242	0x3dc1dd36	0.09466021
243	0xbde79b20	-0.113088846
244	0xbd144af7	-0.036204305
245	0x3e08b191	0.13348986
246	0x3dde8331	0.108648665
247	0x3cd13b1e	0.025540885
248	0x3d4d6774	0.05014749
249	0x3d899f54	0.067198426
250	0x3dd22458	0.10260838
251	0x3dfb4b20	0.12270188
252	0x3dcd51da	0.100253776
253	0x3d949264	0.07254484
254	0x3e16337c	0.14668077
255	0xbc820caf	-0.015875189

conv2.bias f4 [16]
0	0x3dc3735c	0.095434874
1	0xbd48336b	-0.04887716
2	0xbcf76c71	-0.030203076
3	0x3e203a80	0.15647316
4	0xbdb04b92	-0.08608164
5	0x3d9ea93f	0.07747125
6	0x3d374e18	0.04475221
7	0x3de21f91	0.11041177
8	0x3da10937	0.07863086
9	0x3cfb0d68	0.030646041
10	0xbd260e63	-0.040541064
11	0x3dbe3369	0.092871495
12	0x3dcd6dea	0.1003073
13	0x3c49f6b9	0.01232689
14	0x3d8499c1	0.06474639
15	0xbdb7fac8	-0.089833796

conv3.weight f4 [120, 16, 5, 5]
0	0xbc5ef1cc	-0.013607454
1	0x3cf6aee2	0.030112687
2	0x3c5ac730	0.013353154
3	0xbd3c49ca	-0.04596881
4	0xbcc02d9a	-0.023459245
5	0x3ccefb0c	0.025266193
6	0x3aab065a	0.0013048158
7	0xbd07a7ac	-0.03311889
8	0xbca7830d	-0.020448232
9	0xbd3cbd02	-0.04607869
10	0x3d922a07	0.07136922
11	0xbd72c62d	-0.059271026
12	0xbdb7ea44	-0.089802295
13	0x3e01e461	0.12684776
14	0xbade83da	-0.0016976551
15	0x3cc0541f	0.023477612
16	0xbdbd535b	-0.092444144
17	0xbda74767	-0.08167916
18	0xbb6db4c2	-0.003627107
19	0x3c7b03b0	0.015320703
20	0x3cab03bc	0.020875804
21	0xbb213d1b	-0.0024603072
22	0x3da6a1fa	0.08136363
23	0xbcb667ab	-0.02226623
24	0x3ce42267	0.027848436
25	0xbd478143	-0.048707258
26	0xbccd8096	-0.025085729
27	0xbcd70e9d	-0.026252085
28	0xbc90b456	-0.017664116
29	0xbc84059e	-0.01611596
30	0x3902ab0a	0.00012461483
31	0xbbf24f3b	-0.007394699
32	0xbd4ccd31	-0.050000373
33	0xbd7b46ce	-0.06134682
34	0xbd2ee945	-0.042702932
35	0x3d8818c0	0.06645346
36	0x3de321a9	0.110904045
37	0x3b2cb613	0.0026353642
38	0xbd3332f8	-0.04374978
39	0x3dc42759	0.095778175
40	0xbd9e4568	-0.07728082
41	0x3d04f632	0.032461353
42	0x3c2b10b9	0.010440999
43	0xbd6e250d	-0.058140803
44	0xbd98ee12	-0.07467283
45	0xbbe0c45f	-0.0068593468
46	0xbbfeba01	-0.0077736382
47	0x3ded6b7d	0.115927674
48	0x3e01303a	0.12616053
49	0x3c99a4c7	0.01875533
50	0x3d78a896	0.06070765
51	0xbb18ee04	-0.0023335228
52	0x3cf9a052	0.030471954
53	0x3d97b90d	0.074083425
54	0x3d8f4233	0.069950484
55	0x3cf0bbea	0.02938648
56	0xbdbf1ffa	-0.09332271
57	0xbc440f74	-0.011966575
58	0x3d33b906	0.043877624
59	0xbdb1844b	-0.08667811
60	0x3cd38bbf	0.025823472
61	0x3d9c14bc	0.07621142
62	0x3cba7c2e	0.022764292
63	0xbca4ba31	-0.020108314
64	0x3d948f31	0.07253874
65	0x3c6a1b18	0.014288686
66	0x3c8888ba	0.016666759
67	0xbc7b08dc	-0.015321936
68	0xbcd3e0d1	-0.025864037
69	0x3d2884c7	0.04114225
70	0xbcdb09a6	-0.026738
71	0xbc006743	-0.0078371195
72	0x3d025d4c	0.031827256
73	0xbd9b4686	-0.07581811
74	0x3c4cb2ab	0.01249377
75	0x3cf236f8	0.029567227
76	0x3d530a77	0.051523652
77	0xbd10b2ba	-0.035326697
78	0xbc16b965	-0.009199475
79	0x3b577f81	0.0032882395
80	0xbd297e08	-0.04137996
81	0x3da2113e	0.07913445
82	0xbc430e3f	-0.011905252
83	0xbd00e53a	-0.031468607
84	0x3d223cda	0.039608814
85	0xbd0e2b43	-0.034709226
86	0xbcaae28a	-0.020859975
87	0x3d325e7d	0.043547142
88	0x3d0bf627	0.034170296
89	0x3cf133db	0.029443672
90	0xbd44e977	-0.048074212
91	0xbdbfa959	-0.093584724
92	0x3ce72948	0.028217927
93	0x3d968aa5	0.07350663
94	0x3c418ff7	0.011814109
95	0x3be7630f	0.0070613693
96	0xbd555957	-0.052087154
97	0x3c88276f	0.016620366
98	0x3ddbfcbc	0.10741565
99	0x3c5f5bb4	0.013632704
100	0xbd22c170	-0.039735258
101	0x3b571bc6	0.003282295
102	0xbcc78889	-0.024357097
103	0xbca41f6e	-0.020034518
104	0xbd6b251c	-0.057408437
105	0xbd0393b7	-0.032123294
106	0xbc2a655b	-0.010400142
107	0xbdd4a916	-0.10383813
108	0x3cb835c7	0.02248658
109	0x3b59debf	0.003324434
110	0x3d417f83	0.047240745
111	0xbd82face	-0.063954934
112	0xbd9bc349	-0.07605607
113	0x3d8eec8b	0.06978711
114	0x3cad9b3a	0.021192182
115	0xbc937f79	-0.01800512
116	0xbd2fe9cc	-0.042947575
117	0x3d4ecb5b	0.050486904
118	0x3d2cf71b	0.042227846
119	0xbd0c088d	-0.034187842
120	0xbbbc2bc6	-0.005742523
121	0x3cc4c236	0.024018388
122	0x3cc1aca6	0.023641896
123	0xbbb65037	-0.0055637616
124	0x3d1fcf7b	0.03901623
125	0x3bc9de0e	0.006160504
126	0x3d27f7ad	0.041007686
127	0x3d79d45b	0.060993534
128	0x3d0c015e	0.03418099
129	0xbcbf823e	-0.023377534
130	0x3c3378d4	0.010954101
131	0x3d4c0a54	0.049814537
132	0xbd830fc1	-0.06399489
133	0xbdbe1bf0	-0.092826724
134	0xbda004ea	-0.07813437
135	0x3d4eda68	0.050501257
136	0xbc69347d	-0.014233706
137	0xbd82016f	-0.0634793
138	0xbc9491ea	-0.018135983
139	0x3d148f47	0.036269452
140	0x3cc955da	0.02457707
141	0xbdba3d31	-0.090937026
142	0xbd4b9972	-0.049706884
143	0x3d55bc3c	0.052181467
144	0xbd84b422	-0.0647967
145	0x3bfa2e02	0.007634879
146	0xbce92d11	-0.028463872
147	0x3cab4a42	0.020909432
148	0x3d81e2a4	0.063420564
149	0x3cf656f5	0.030070761
150	0xbc7257f1	-0.014791475
151	0xbcee8a71	-0.029118748
152	0x3d282ede	0.04106032
153	0x3c8dcb10	0.017308742
154	0x3caa9584	0.020823248
155	0xbd17a49c	-0.037022218
156	0x3da0dea6	0.07854967
157	0xbd76ff4c	-0.060302064
158	0xbd635751	-0.055503193
159	0x3c9a2dbf	0.018820642
160	0x3c8c50f9	0.017128455
161	0x3db76436	0.089546606
162	0xbcc49df2	-0.024001095
163	0xbd6a1d3d	-0.05715679
164	0x3d8aaf25	0.067716874
165	0xbbac2255	-0.005253116
166	0x3c13ec06	0.00902844
167	0xbc8fdf4f	-0.017562537
168	0xbda38625	-0.079845704
169	0xbcc2ee6b	-0.023795327
170	0xbccb73f7	-0.02483557
171	0xbb857f99	-0.0040740487
172	0x3bb0dec6	0.0053976504
173	0x3d342882	0.043983944
174	0x3c3298be	0.010900674
175	0x3b50aef4	0.0031842561
176	0xbc7198ce	-0.014745904
177	0xbc663497	-0.014050624
178	0xbd194147	-0.03741577
179	0xbdb4acd6	-0.08822028
180	0x3cf079bf	0.029354928
181	0xbccbcc49	-0.024877684
182	0xbda0d2b4	-0.078526884
183	0xbb30a773	-0.0026955276
184	0x3d9a1b60	0.075247526
185	0xba98a4cf	-0.0011645796
186	0xbd1d678a	-0.03842882
187	0x3b8bd22d	0.0042669983
188	0x3d87d846	0.06633048
189	0x3d7908b7	0.060799327
190	0x3d2aa8d1	0.041664902
191	0x3d1faec9	0.038985047
192	0x3dac8934	0.08424607
193	0x3d9fb4cf	0.077981584
194	0xbd1bde9b	-0.03805409
195	0xbc39338e	-0.0113037955
196	0xba26c934	-0.0006362379
197	0x3db15082	0.08657934
198	0x3c9921f2	0.018692944
199	0x3b805235	0.00391605
200	0x3a1e56ee	0.0006040175
201	0xbd94fae2	-0.072744146
202	0x3cc4670f	0.023974923
203	0x3bb8ab75	0.0056356736
204	0xbbe4984b	-0.0069761625
205	0x3d149de0	0.036283374
206	0xbdad46b7	-0.084607534
207	0xbda3057e	-0.07960032
208	0xbd2da9b3	-0.042398166
209	0xbd1bf2c6	-0.038073324
210	0x3d6493d6	0.05580505
211	0x3cbcfa7b	0.023068657
212	0x3c942b6f	0.018087117
213	0x3cf24b87	0.02957703
214	0x3d65eb01	0.05613232
215	0xbdbc8e30	-0.092068076
216	0x3d951696	0.072796986
217	0xbcaa01dd	-0.020752842
218	0xbdd0d2e6	-0.10196476
219	0x3cfc941b	0.030832341
220	0xbcd5b340	-0.02608645
221	0x3d48369f	0.048880216
222	0x3d8363fc	0.06415555
223	0x3cdf6180	0.027268171
224	0x3cd38ec3	0.02582491
225	0x3d347caf	0.04406422
226	0x3cc1b95f	0.023647962
227	0x3d22cef8	0.039748162
228	0x3d6e0cae	0.05811756
229	0x3ced75e4	0.028986879
230	0xbbc78714	-0.0060891006
231	0xbd3e8ccb	-0.04652099
232	0x3bbddee3	0.0057943924
233	0xbd793f78	-0.060851544
234	0xbcdce934	-0.026966669
235	0x3d90c6ec	0.07069191
236	0x3d6c779a	0.05773125
237	0xbd67a514	-0.056553915
238	0xbce6cf30	-0.028174967
239	0xbc93745b	-0.017999819
240	0x3cf0312c	0.029320322
241	0x3d044e43	0.0323012
242	0xbc49fb08	-0.012327917
243	0xbca644c7	-0.020296467
244	0xbce7e013	-0.02830509
245	0xbcfdf4ba	-0.031000484
246	0xbcd29dd7	-0.02571003
247	0xbcbdec07	-0.023183836
248	0x3d1358e3	0.03597344
249	0xbc7c92ba	-0.015415842
250	0xbc999422	-0.018747393
251	0x3c013249	0.007885524
252	0x3bba6cc5	0.005689236
253	0xbd7c22f9	-0.06155679
254	0xbca8ec1d	-0.0206204
255	0x3cb66fec	0.022270165

conv3.bias f4 [120]
0	0x3b7fbf2d	0.0039023862
1	0x3d787a45	0.06066348
2	0x3c05d098	0.008167408
3	0xbd097b4e	-0.03356486
4	0x3c9bec77	0.019033654
5	0x3c992ae0	0.018697202
6	0xbb455d17	-0.00301153
7	0xbd320faf	-0.04347199
8	0x3d9a7e18	0.07543582
9	0xbcc895c1	-0.02448547
10	0x3c3cccb9	0.011523419
11	0x3cbe3c47	0.023222102
12	0xbc3613e9	-0.011113145
13	0x3d513097	0.05107173
14	0xbdbc59c3	-0.09196808
15	0x3c9b78fa	0.018978585
16	0x3ce41280	0.027840853
17	0x3b455a4d	0.0030113638
18	0x3b310b78	0.0027014893
19	0xbd144f52	-0.03620846
20	0xbd45c2b8	-0.0482814
21	0x3b429707	0.002969207
22	0xbd15b4c5	-0.03654935
23	0x3bd4bd5d	0.0064923004
24	0x3c4d94db	0.012547697
25	0xbda023a0	-0.07819295
26	0x3d49ebec	0.04929726
27	0xbd0b61ae	-0.0340287
28	0x3d840178	0.06445593
29	0x3c2721fb	0.010200973
30	0x3d03f0a1	0.032211903
31	0xbdb42eda	-0.08797999
32	0xbda36c9e	-0.079797015
33	0xbd3d159f	-0.046163198
34	0xbc5aae31	-0.0133471945
35	0xbcdf2bed	-0.027242625
36	0x3da1707a	0.07882781
37	0xbd274d31	-0.0408451
38	0x3d830912	0.063982144
39	0x3cd05775	0.025432328
40	0xbd7305a3	-0.059331547
41	0x3d26566b	0.04060976
42	0xbcedeb61	-0.029042901
43	0xbd0c0dd1	-0.034192864
44	0x3d1a6dec	0.037702486
45	0x3d2dc19f	0.04242098
46	0x3c895952	0.016766224
47	0x3d1d9b2b	0.038478058
48	0x3be4bc01	0.0069804196
49	0xbcbd0f9f	-0.023078738
50	0xbd503778	-0.05083415
51	0x3c792580	0.015206695
52	0xbc996c82	-0.018728498
53	0xbc82b9e4	-0.01595778
54	0x3d33c0bf	0.04388499
55	0xbd5b78f5	-0.05358215
56	0xbd7cd5c4	-0.0617273
57	0x3be7148f	0.0070520113
58	0xbd124c56	-0.03571733
59	0x3cefc4a9	0.02926858
60	0xbd2566cf	-0.04038125
61	0x3d00823a	0.031374194
62	0xbb34dec4	-0.00275986
63	0xbc9554dd	-0.018228943
64	0x3ce7d30c	0.028298877
65	0xbd95fc21	-0.073234804
66	0xbc92797b	-0.017880192
67	0xbce7a324	-0.028276034
68	0xbd36c728	-0.044623524
69	0xbd840966	-0.06447105
70	0xbd262131	-0.040558998
71	0xbceb572d	-0.028728092
72	0xbc8b52cd	-0.017007256
73	0xbd0bb883	-0.03411151
74	0x3c62f0c9	0.013851353
75	0xbbc29ee7	-0.005939353
76	0x3d98786c	0.07444844
77	0xbcfbd7dc	-0.030742578
78	0x3c93a2ee	0.018022027
79	0xbd7f8f2d	-0.062392402
80	0xbd57de5c	-0.052702293
81	0xbc8798a6	-0.01655228
82	0x3d3924a8	0.045200974
83	0x3c4986ca	0.012300203
84	0x3ced47ad	0.028964842
85	0x3d137ae3	0.036005866
86	0x3bdf3749	0.0068120104
87	0xbccb310d	-0.024803663
88	0x3ce2917a	0.02765726
89	0xbbcc93ea	-0.0062432187
90	0x3d4a195a	0.049340583
91	0x3db272b2	0.08713283
92	0x3b3a3214	0.0028411197
93	0xbd924064	-0.07141188
94	0x3cafd371	0.021463128
95	0xbce2c03a	-0.027679551
96	0xbca7de06	-0.020491611
97	0xbcbbf636	-0.022944551
98	0x3ceefdf2	0.029173825
99	0xbd6df474	-0.058094457
100	0xbd95c6ff	-0.07313346
101	0x3dacc730	0.084364295
102	0x3c9410d1	0.018074425
103	0x3ce8b199	0.028404998
104	0xbd7d45f8	-0.061834306
105	0x3d8572eb	0.065160595
106	0xbcbb722e	-0.022881594
107	0x3c0589e4	0.0081505515
108	0x39edf31a	0.00045385287
109	0xbca1e932	-0.019764517
110	0x3d80bdf9	0.062862344
111	0x3c0f5ece	0.008750631
112	0x3b93e4c8	0.004513357
113	0xbd3a0c67	-0.045421984
114	0x3c475eb4	0.012168575
115	0xbd2a706e	-0.041611128
116	0xbd5cc45b	-0.053898197
117	0xbc8a8054	-0.016906895
118	0x3caf140b	0.021371862
119	0xbc44885b	-0.0119954

linear.weight f4 [84, 120]
0	0x3c637622	0.0138831455
1	0xbd55cb15	-0.052195627
2	0xbd6dac8d	-0.058025885
3	0xbc262c4a	-0.010142395
4	0xbe06996c	-0.13144463
5	0x3d9a4a06	0.0753365
6	0x3d8922f0	0.06696117
7	0xbd6bc491	-0.057560507
8	0x3e0aca52	0.13553742
9	0xbe4b2d80	-0.19841576
10	0x3db0f86e	0.08641134
11	0x3da4ad84	0.08040908
12	0x3d7d180e	0.06179052
13	0xbbf887d8	-0.007584553
14	0xbde5c052	-0.11218323
15	0xbd8f9591	-0.070109494
16	0xbd0a6318	-0.03378591
17	0xbc0c3b24	-0.008559022
18	0x3e011a7b	0.12607758
19	0x3dc4d9bd	0.09611843
20	0x3dddd03b	0.108307324
21	0xbe1c2296	-0.15247568
22	0x3bbf362a	0.0058353143
23	0xbd04b597	-0.03239974
24	0xbd9dc344	-0.077032596
25	0x3cb9ed8c	0.022696279
26	0xbdde0748	-0.108412325
27	0xbdf9cbe4	-0.12197092
28	0x3c926cab	0.017874083
29	0xbd6cb962	-0.057793982
30	0xbe2d10de	-0.16900966
31	0x3cd70790	0.026248723
32	0x3d8b31e3	0.067966245
33	0xbae0af96	-0.0017142172
34	0x3d113112	0.035447188
35	0x3d8d7a6c	0.06908116
36	0xbd8e3fe8	-0.06945783
37	0x3e0029b4	0.12515908
38	0xbd29139d	-0.04127847
39	0x3d45508b	0.048172515
40	0x3cad1c1c	0.021131568
41	0xbe255388	-0.16145146
42	0x3de77f85	0.11303619
43	0x3dc2f3a4	0.09519127
44	0xbdc7644d	-0.09735928
45	0x3c3856da	0.011251176
46	0x3dc218dc	0.09477398
47	0xbcb4f300	-0.022088528
48	0x3cd3a5f3	0.025835967
49	0x3d43f2f3	0.047839116
50	0xbc9f95b8	-0.019480571
51	0x3d843464	0.06455305
52	0xbcc1bd1c	-0.023649745
53	0x3b70c41e	0.0036737989
54	0xbe0b9a87	-0.13633166
55	0x3d3aed44	0.04563643
56	0x3de24d30	0.110498786
57	0x3d7a1341	0.06105352
58	0xbd4a2156	-0.049348198
59	0xbcc5b928	-0.024136141
60	0x3d1698bb	0.03676675
61	0xbd8d9a91	-0.06914247
62	0x3d94fafe	0.072744355
63	0xbd2efcd2	-0.042721577
64	0x3d72a303	0.05923749
65	0x3bca7026	0.00617792
66	0x3de387e6	0.11109905
67	0xbda60466	-0.08106308
68	0x3d68b94c	0.056817338
69	0x3dfad1c1	0.12247039
70	0xbd833563	-0.06406667
71	0xbddc2269	-0.10748751
72	0xbe0adfdc	-0.13561958
73	0xbd990bb2	-0.07472934
74	0x3d1f4a2a	0.038889088
75	0x3da23eff	0.07922172
76	0xbc498f39	-0.012302213
77	0xbcf1cbb2	-0.029516075
78	0xbc9b3acd	-0.018948937
79	0xbdbe5069	-0.09292681
80	0xbcbe31ea	-0.02321716
81	0x3d504a57	0.050852146
82	0xbdaec624	-0.08533886
83	0xbd06a698	-0.03287372
84	0xbe03e4dd	-0.12880273
85	0xbd5dc801	-0.054145817
86	0x3dc944cb	0.09827574
87	0xbd991247	-0.07474189
88	0x3b556ef1	0.0032567347
89	0xbc9e33eb	-0.019311866
90	0xbc38ed89	-0.011287102
91	0xbd35bd10	-0.044369757
92	0xbce53127	-0.02797754
93	0xbdb05563	-0.08610036
94	0xbd4ac432	-0.049503513
95	0xbca5cd93	-0.020239627
96	0x3d8531fd	0.06503675
97	0xbd691be1	-0.056911353
98	0x3d81623b	0.06317564
99	0xbd7228c1	-0.059120897
100	0x3cf3d262	0.029763404
101	0xbc7065ed	-0.0146727385
102	0x3d7e1b32	0.062037654
103	0xbd841190	-0.06448662
104	0xbdfb53f7	-0.122718744
105	0x3da0a606	0.078441665
106	0x3de85457	0.113442115
107	0xbd550bc7	-0.052013185
108	0xbda1df4e	-0.0790392
109	0xbc843f05	-0.016143331
110	0xbd829401	-0.06375886
111	0x3dacfa7a	0.08446212
112	0x3e0b32ed	0.13593645
113	0xbd0d1026	-0.03443923
114	0x3d28a6ba	0.041174628
115	0x3d62a2ca	0.05533103
116	0x3c28a1b1	0.0102924565
117	0x3dccfe33	0.10009422
118	0xbd473b90	-0.048640788
119	0xbb9ed37e	-0.004846989
120	0xbc68edcc	-0.014216851
121	0xbcc6c9e0	-0.024266183
122	0xbd6f82f5	-0.0584745
123	0xbdb85d21	-0.09002138
124	0xbd1ac4e3	-0.037785422
125	0x3c5c6118	0.013450883
126	0xbcf78267	-0.030213548
127	0x3b32ca06	0.002728106
128	0xbdeed443	-0.116615795
129	0xbde0a679	-0.10969252
130	0x3dc121c4	0.094302684
131	0xbe185af0	-0.1487844
132	0xbbc999cd	-0.0061523677
133	0x3cb26924	0.02177865
134	0x3d7b7377	0.061389413
135	0xbc01a845	-0.007913654
136	0x3d0de3dd	0.034641135
137	0x3c4d4cee	0.0125305485
138	0x3d5ee04a	0.054413117
139	0x3d0bba9f	0.034113523
140	0xbbcd5641	-0.006266386
141	0x3e3add6b	0.18248527
142	0x3c370356	0.011170229
143	0x3ad2e005	0.0016088492
144	0x3dc9ecd2	0.09859623
145	0x3d151883	0.03640033
146	0x3b31a755	0.0027107794
147	0xbd689c8a	-0.056789912
148	0x3b40d9ca	0.0029426687
149	0x3dd16620	0.10224557
150	0x3d20776a	0.039176382
151	0xbc65f7ad	-0.014036101
152	0x3d47297e	0.048623554
153	0x3db4cca0	0.088280916
154	0xbc6f1daf	-0.014594479
155	0x3ddf0694	0.108899266
156	0x3dcaf6bc	0.09910342
157	0xbd2ec419	-0.042667482
158	0xbe0770e6	-0.13226661
159	0xbaa6e4ad	-0.0012732946
160	0xbd77f2bb	-0.06053422
161	0x3e076187	0.13220797
162	0xbe289c50	-0.16465878
163	0xbe25b47b	-0.16182129
164	0xbdd179f6	-0.1022834
165	0xbdea03fc	-0.11426541
166	0xbde630e5	-0.11239795
167	0xbd528eba	-0.051405646
168	0x3d4c2408	0.04983905
169	0x3c3869bb	0.011255677
170	0xbd2ee573	-0.04269929
171	0x3d74c6d8	0.059759945
172	0x3c96169f	0.018321333
173	0x3d959017	0.073028736
174	0xbd89296b	-0.06697353
175	0x3dceec34	0.10103646
176	0x3e16d895	0.14731057
177	0x3d2c6c1e	0.042095296
178	0xbd1e9012	-0.038711615
179	0xbe4a9782	-0.19784358
180	0xbd0427c2	-0.03226448
181	0x3e20feda	0.15722218
182	0xbda53ee5	-0.08068637
183	0x3dca7e54	0.098873764
184	0x3dcb0e4e	0.09914838
185	0xbcb60dd8	-0.022223398
186	0x3df851d9	0.12124986
187	0xbdcb00d7	-0.099122696
188	0xbd1feae8	-0.039042383
189	0x3dd6a0db	0.104798995
190	0x3db27ffc	0.08715817
191	0xbde0d6a4	-0.109784395
192	0xbd236eb5	-0.0399005
193	0x3da15a08	0.078785
194	0x3e07c1e1	0.13257553
195	0x3d0e5c3f	0.03475594
196	0x3a831aed	0.0010002531
197	0xbb834821	-0.004006401
198	0x3c74e5a6	0.014947331
199	0x3e3b88dc	0.18313926
200	0xbdbcd5db	-0.09220477
201	0x3dd1c693	0.10242953
202	0xbd72bd5d	-0.059262622
203	0x3d46578a	0.048423328
204	0x3e366391	0.17811419
205	0xbdd1c964	-0.1024349
206	0xbd4e8817	-0.050422754
207	0x3dd4057b	0.10352608
208	0xbe4803b6	-0.19532666
209	0x3d70342a	0.058643498
210	0xbd595976	-0.053063832
211	0x3ca8ec38	0.02062045
212	0xbc5d0a85	-0.013491278
213	0x3ca85734	0.020549394
214	0x3d6f2e27	0.058393624
215	0xbdc818f6	-0.09770386
216	0x3d9ca312	0.07648291
217	0x3e23dacf	0.16001438
218	0xbe115acd	-0.14194794
219	0x3dc825f4	0.09772864
220	0x3ddce6d5	0.10786215
221	0xbe2c0f8e	-0.16802809
222	0x3d1e6e78	0.03867957
223	0xbdbc8c68	-0.09206468
224	0xbd2d0d92	-0.04224927
225	0xbccd8738	-0.025088891
226	0xbdd7c216	-0.10535066
227	0x3d2d1b6c	0.04226248
228	0x3e228b14	0.15873367
229	0xbd86137c	-0.06546685
230	0x3e1a268e	0.1505377
231	0xbcbbf5f0	-0.02294442
232	0x3c9b2fc9	0.018943684
233	0xbd7823b4	-0.060580924
234	0x3d2af221	0.04173482
235	0xbac90bf0	-0.0015338641
236	0xbd027235	-0.031847198
237	0xbde81914	-0.11332908
238	0x3c4ac27d	0.012375471
239	0x3b3d1179	0.0028849526
240	0xbb6da87d	-0.0036263757
241	0x3dc78373	0.09741869
242	0x3ddf0980	0.10890484
243	0xbd8e25a9	-0.06940777
244	0x3d219d0f	0.039456423
245	0x3d22c89e	0.039742105
246	0xbd44923e	-0.04799103
247	0x3db5faca	0.08885725
248	0x3c85fe65	0.016356656
249	0xbc88fad3	-0.016721165
250	0xbdb8a054	-0.09014955
251	0x3e0bf431	0.1366737
252	0x3d04d79c	0.032432184
253	0x3d6c9863	0.057762515
254	0xbdf917d6	-0.121627495
255	0x3db8b74e	0.090193376

linear.bias f4 [84]
0	0x3d841013	0.064483784
1	0xbd84a2a9	-0.064763375
2	0xbc6ccb60	-0.014452785
3	0x3d215937	0.039391723
4	0xbaa70987	-0.0012743928
5	0xbd93ccda	-0.07216807
6	0x3d6a6495	0.05722483
7	0xbd95d82d	-0.07316623
8	0xbd67bb08	-0.05657485
9	0xbd0945d8	-0.033513874
10	0x3db78986	0.089617774
11	0x3d3c52e7	0.0459775
12	0xbcc1e272	-0.023667548
13	0xbdc31b0a	-0.09526642
14	0x3df167df	0.1178739
15	0xbd4ff6ac	-0.050772354
16	0x3deab6ee	0.11460672
17	0x3c3380ff	0.010956048
18	0x3cbda374	0.02314923
19	0x3d3dfeac	0.046385452
20	0xbd8c7a0e	-0.068592176
21	0x3da37a59	0.0798232
22	0xbd39143e	-0.04518532
23	0xbddc23e8	-0.10749036
24	0x3d2fa7b5	0.042884547
25	0x3cc2ec55	0.023794333
26	0x3d810e33	0.063015364
27	0xbe0a71f0	-0.13520026
28	0x3cb7c947	0.022434844
29	0xbcb99eec	-0.022658788
30	0xbd67a1a8	-0.05655065
31	0x394d047c	0.00019551994
32	0x3db1df05	0.08685116
33	0xbda06295	-0.07831303
34	0x3ce359c6	0.027752768
35	0xbb8eb9c4	-0.004355641
36	0x3dc2dc46	0.0951467
37	0xbd8355a4	-0.06412819
38	0xbd993a0a	-0.07481773
39	0x3d831444	0.0640035
40	0x3d90ae48	0.070644915
41	0xbd9074f1	-0.07053555
42	0xbd8ed987	-0.06975084
43	0xbd473490	-0.048634112
44	0x3c956149	0.018234866
45	0x3de99940	0.11406183
46	0x3c9b015e	0.01892155
47	0xbc388db4	-0.011264253
48	0x3d4425ba	0.04788754
49	0x3d1f16ef	0.03884023
50	0xbd621fa6	-0.055205964
51	0xbce01aac	-0.027356468
52	0x3db94b91	0.09047616
53	0x3df4f257	0.11960285
54	0xbd8406c2	-0.064466015
55	0xbd628dbd	-0.055310953
56	0x3d1ad7b6	0.037803374
57	0x3dab9e02	0.08379747
58	0xbcad44d1	-0.021150978
59	0xbddaddda	-0.10686846
60	0x3d8d13e4	0.068885595
61	0x3d2833d0	0.041065037
62	0xbc951543	-0.018198615
63	0x3d9e0735	0.077162184
64	0x3d0990dc	0.033585414
65	0x3dd73198	0.10507506
66	0xbdba87a3	-0.09107902
67	0xbcbb6fed	-0.022880519
68	0xbc22f3ca	-0.009945819
69	0xbd1be9e3	-0.03806485
70	0xbce5f4c4	-0.028070815
71	0xbd6643b3	-0.056216907
72	0x3d9f85a6	0.07789163
73	0x3dad54e3	0.084634565
74	0x3d6ac948	0.057320863
75	0xbd9404cd	-0.07227478
76	0xbccae559	-0.024767565
77	0xbd84247a	-0.0645227
78	0x3d897c9c	0.067132205
79	0xbb21cf5b	-0.0024690244
80	0x3d05fb7e	0.032710545
81	0x3d38080c	0.04492955
82	0xbd26501f	-0.040603753
83	0xbd4d840d	-0.05017476

output.weight f4 [43, 84]
0	0x3d7a8d43	0.061169874
1	0xbd808b62	-0.06276585
2	0x3def54fb	0.116861306
3	0xbd8c91dc	-0.06863758
4	0xbdb8d2a9	-0.09024555
5	0x3e136308	0.14393246
6	0x3d4752d8	0.04866299
7	0xbd1784e5	-0.036991972
8	0x3d34078d	0.043952513
9	0x3d6c7d6a	0.05773679
10	0xbdf726cf	-0.12067949
11	0x3da5ec4a	0.08101709
12	0x3c5ce949	0.013483354
13	0x3dff7e42	0.12475254
14	0x3d38f918	0.04515943
15	0x3e1a5885	0.1507283
16	0x3d1e8a0a	0.038705863
17	0x3daed2d2	0.085363045
18	0xbd7696d0	-0.06020242
19	0x3d89c6ad	0.067273475
20	0x3d6dd1c6	0.058061384
21	0x3b60eefa	0.0034322129
22	0x3d3dbfca	0.046325482
23	0x3ceb3465	0.028711507
24	0xbdebfbcc	-0.11522636
25	0xbd7b6b41	-0.061381582
26	0xbdd2dbf0	-0.10295856
27	0xbccac3e2	-0.024751607
28	0xbd822d5e	-0.06356309
29	0x3d4647f9	0.048408482
30	0x3d91dccb	0.07122191
31	0x3e04c44a	0.12965503
32	0xbd4aa6ab	-0.049475353
33	0x3ce2c547	0.02768196
34	0xbe01b93d	-0.12668319
35	0xbd633142	-0.055466898
36	0xbcddc8c4	-0.027073272
37	0xbd8d9092	-0.0691234
38	0xbd21ae91	-0.03947312
39	0xbda8b105	-0.08236889
40	0xbdacb672	-0.08433236
41	0x3dc4bba3	0.09606101
42	0xbdab2ad9	-0.08357782
43	0xbcfeeda7	-0.03111918
44	0xbcc933c9	-0.024560826
45	0xbcb812cf	-0.022469906
46	0x3c3dc280	0.011582017
47	0xbda31079	-0.07962126
48	0x3d133025	0.035934586
49	0xbe078515	-0.1323436
50	0xbd0a4d02	-0.033764847
51	0xbb84c0a2	-0.004051284
52	0xbe1f9f23	-0.1558805
53	0xbcd6b6df	-0.026210247
54	0xbdf6fe02	-0.12060167
55	0xbd34cafc	-0.044138893
56	0xbdef206c	-0.11676106
57	0xbe0abee6	-0.13549384
58	0x3da94c46	0.08266501
59	0xbd323291	-0.043505255
60	0xbd5efc53	-0.054439854
61	0xbd8553a8	-0.06510097
62	0x3d0d60bf	0.034516092
63	0x3da8c18f	0.08240043
64	0x3d8dc562	0.069224134
65	0xbc9cb353	-0.019128477
66	0xbcbe46df	-0.023227153
67	0xbdf4a913	-0.11946311
68	0xbd0634d0	-0.03276521
69	0x3d766165	0.060151476
70	0x3bf9fe29	0.007629175
71	0x3cdb84de	0.026796754
72	0x3df3d91b	0.11906644
73	0xbc7115d3	-0.014714676
74	0xbdedb1a2	-0.116061464
75	0x3d76c4d3	0.0602463
76	0xbcde811c	-0.027161174
77	0x3d3a81a1	0.04553378
78	0x3cc4e0c1	0.024032952
79	0x3de41bf7	0.11138146
80	0x3dc6b1e9	0.097019024
81	0x3dbdc504	0.092660934
82	0xbc86b7b8	-0.016445026
83	0x3de9865c	0.1140258
84	0xbdfbdb11	-0.12297643
85	0xbdbd14cb	-0.092324816
86	0x3baa8066	0.0052032946
87	0x3de62b3b	0.11238714
88	0xbd64c1e6	-0.05584898
89	0x3d29da8d	0.041468192
90	0xbdd518c3	-0.104051135
91	0x3d9f0b30	0.07765806
92	0xbdd7e504	-0.10541728
93	0x3dd103b8	0.102057874
94	0xbdfc0e56	-0.12307422
95	0x3dbcfb50	0.092276216
96	0xbd5ccd78	-0.053906888
97	0x3d3e9ead	0.046538044
98	0xbd656d9f	-0.056012746
99	0x3db17192	0.0866424
100	0xbe2b5b3d	-0.16734023
101	0x3de37e72	0.11108102
102	0xbd1f8051	-0.03894073
103	0xbd7c48ef	-0.061592992
104	0x3dffc03e	0.12487839
105	0xbd8021df	-0.062564604
106	0xbdbf7394	-0.09348217
107	0xbe1042f8	-0.14088047
108	0xbdd3410b	-0.1031514
109	0x3d082253	0.03323586
110	0x3d45334e	0.04814463
111	0xbd8a8e52	-0.06765427
112	0xbda64800	-0.08119202
113	0x3e07734b	0.13227575
114	0xbc5796e5	-0.013158535
115	0x3e053e96	0.13012156
116	0x3d50fdc9	0.05102328
117	0x3db9e938	0.09077686
118	0xbdccb83b	-0.09996077
119	0x3e0bfeef	0.13671468
120	0xbdf1b756	-0.11802547
121	0xbdf17d20	-0.11791444
122	0x3d8fc855	0.07020632
123	0x3e2688bd	0.16263099
124	0xbdfcece9	-0.123498745
125	0xbe057c2c	-0.13035649
126	0xbda37ab6	-0.0798239
127	0x3969c13a	0.00022292594
128	0xbdbac357	-0.09119289
129	0xbe082c4b	-0.13298146
130	0xbc865edd	-0.016402656
131	0x3d95d7c6	0.07316546
132	0xbd7dc7ab	-0.061957996
133	0x3bbb3063	0.0057125553
134	0x3bdcf376	0.00674289
135	0x3c461965	0.012091015
136	0xbe1a2ce3	-0.15056185
137	0xbd2bb8be	-0.04192423
138	0xbd76d4df	-0.060261603
139	0xbd2c2194	-0.04202421
140	0xba7e2198	-0.0009694337
141	0xbce1c6df	-0.02756065
142	0x3d972881	0.073807724
143	0xbdc50cb5	-0.09621564
144	0xbe0f1b6e	-0.13975307
145	0x3de2f5ad	0.11082015
146	0x3dbf66a8	0.09345752
147	0x3be43098	0.0069638006
148	0x3d698022	0.057006963
149	0xbe0109b6	-0.1260136
150	0x3d93f910	0.07225239
151	0xbc0cdff4	-0.008598316
152	0x3dac64f7	0.08417695
153	0xbb31007b	-0.0027008343
154	0xbdae69d0	-0.08516276
155	0x3ca377cc	0.019954585
156	0x3e0fdef5	0.14049895
157	0x3dc286b1	0.094983466
158	0xbe0ba55e	-0.13637301
159	0x3cee3cd6	0.029081743
160	0xbdb8699b	-0.09004518
161	0x3d0e5153	0.034745526
162	0x3c19c04d	0.009384227
163	0x3dba5d9e	0.09099887
164	0xbd0616cd	-0.03273659
165	0x3bceb324	0.0063079763
166	0xbd461fdb	-0.048370223
167	0x3d958919	0.0730154
168	0xbd2377e4	-0.03990926
169	0x3db06248	0.08612496
170	0xbde8ecad	-0.11373267
171	0xbca42647	-0.020037783
172	0xbdc39d38	-0.095514715
173	0x3ddff042	0.109344974
174	0x3daa9427	0.08329039
175	0xbd8c3623	-0.06846263
176	0xbd85117c	-0.064974755
177	0x3cbc6050	0.022995144
178	0x3c0c355d	0.008557645
179	0xbca17cb5	-0.019712785
180	0xbe05fada	-0.13083974
181	0xbd7a88aa	-0.06116549
182	0xbca43b00	-0.020047665
183	0xbe003b00	-0.12522507
184	0xbe040aa6	-0.12894687
185	0xbde29f48	-0.11065537
186	0xbd4bc4c4	-0.049748197
187	0xbdc30e7c	-0.09524247
188	0x3e025ffa	0.12731925
189	0x3d4a50f5	0.049393613
190	0x3c96b410	0.018396407
191	0x3dfaa723	0.1223891
192	0x3d339e97	0.043852415
193	0x3dcae5ff	0.099071495
194	0xbda19faa	-0.07891782
195	0xbddca2c8	-0.107732356
196	0x3d1e31a0	0.038621545
197	0x3da1b2fe	0.07895468
198	0xbdf3a210	-0.11896145
199	0x3dc63a9d	0.09679148
200	0xbde9e1ff	-0.114200585
201	0xbdafaf9c	-0.08578417
202	0xbd58f88e	-0.052971415
203	0xbc2de7b3	-0.010614323
204	0xbca9bc4c	-0.02071967
205	0xbddf5306	-0.10904507
206	0xbdd60745	-0.10450605
207	0x3dd83643	0.105572246
208	0xbddd1573	-0.10795107
209	0xbd759a67	-0.059961703
210	0xbb2a949d	-0.0026028522
211	0x3d48a914	0.04898937
212	0xbd988277	-0.07446759
213	0xbcedd4f4	-0.029032208
214	0x3d343cf8	0.044003457
215	0xbe1bd977	-0.15219675
216	0x3cda1bc2	0.026624564
217	0x3ded9e06	0.11602406
218	0xbdbc3dec	-0.09191498
219	0x3cc905d4	0.024538912
220	0xbdf5c327	-0.12000113
221	0x3d50e49e	0.050999276
222	0xbdb75111	-0.08951009
223	0x3d4eb5a6	0.050466202
224	0xbdb7107d	-0.08938692
225	0xbd85281e	-0.06501792
226	0x3dcc8fd3	0.0998837
227	0x3d70e7e7	0.05881491
228	0xbda97c25	-0.08275632
229	0xbd45fe9f	-0.04833853
230	0x3d971ac5	0.07378153
231	0x3e073945	0.1320544
232	0x3c3945f9	0.011308187
233	0x3dd57489	0.10422618
234	0x3aedda7b	0.0018146777
235	0xbdf7fcca	-0.121087626
236	0x3db4fab9	0.08836884
237	0xbda78a85	-0.081807174
238	0xbe0d3636	-0.13790211
239	0x3dec4164	0.1153591
240	0x3d9959b7	0.07487815
241	0xbd3a9c25	-0.045559067
242	0x3e306bda	0.17228642
243	0xbce09eff	-0.027419565
244	0xbd863062	-0.06552197
245	0x3d9448a3	0.07240417
246	0xbc4eec43	-0.012629571
247	0x3d6dc012	0.0580445
248	0x3cd35087	0.025795234
249	0x3db1cd52	0.0868174
250	0xbe1c619c	-0.1527161
251	0xbd6daf93	-0.05802877
252	0x3c76de89	0.015067705
253	0xbded2624	-0.1157954
254	0x3e12736d	0.14301844
255	0x3e046657	0.12929665

output.bias f4 [43]
0	0xbdeafe85	-0.11474327
1	0xbd919596	-0.071086094
2	0x3d9e9cd6	0.07744758
3	0xbcd01db3	-0.025404787
4	0x3dc28943	0.09498837
5	0x3c4f5cd7	0.012656412
6	0x3db98b92	0.09059824
7	0xbb839055	-0.0040150085
8	0xbca059e7	-0.019574119
9	0xbcff669e	-0.031176861
10	0x3c70dc6c	0.01470099
11	0xbdccaea4	-0.099942476
12	0x3d9e950e	0.07743274
13	0x3d72f634	0.05931683
14	0x3ccd4470	0.025057048
15	0x3cca749a	0.024713803
16	0x3d7d5660	0.06184995
17	0xbc8968f1	-0.016773673
18	0x3d2c77cd	0.04210644
19	0xbd406107	-0.046967532
20	0xbc4c7ccb	-0.012480925
21	0x3d5bde78	0.05367896
22	0xbd3d4efd	-0.046217907
23	0x3d719a87	0.05898526
24	0xbdbbfc30	-0.0917896
25	0x3bba85cb	0.005692219
26	0xbb96569e	-0.0045879623
27	0xbd58e3ce	-0.052951626
28	0xbd2abdd7	-0.04168495
29	0xbdfc67a7	-0.123244576
30	0xbdb19674	-0.08671275
31	0xbbeca7af	-0.007222138
32	0x3d3d7ef6	0.046263658
33	0xbc4fa02d	-0.012672466
34	0x3d81da97	0.06340521
35	0x3d789c2b	0.06069581
36	0x3d9a5df3	0.07537451
37	0x3d411cf2	0.047146745
38	0xbc4282e8	-0.011872031
39	0x3d6b7b27	0.057490494
40	0xbd094e5f	-0.033522006
41	0xbd14663c	-0.03623031
42	0x3d992edc	0.07479641

exp_avg f4 [6, 1, 5, 5]
0	0xbc300c6e	-0.010745151
1	0xbc623e77	-0.013808838
2	0xbc853431	-0.016260238
3	0xbc9208fe	-0.017826553
4	0xbc9834c1	-0.018579843
5	0xbbe78dca	-0.007066463
6	0xbc08ace4	-0.008342002
7	0xbc27e7b2	-0.010248112
8	0xbc5f5026	-0.013629949
9	0xbc909c93	-0.017652785
10	0xbb135b42	-0.0022484814
11	0xbaa51f60	-0.0012597851
12	0xbb33fbb6	-0.0027463264
13	0xbbfc816a	-0.007705857
14	0xbc6a2682	-0.014291408
15	0x3a7ad8fe	0.00095690775
16	0x3b75b37e	0.003749102
17	0x3b1c5d81	0.0023859444
18	0xbb428be9	-0.0029685444
19	0xbc2b6621	-0.010461361
20	0x397de2d5	0.00024212462
21	0x3b6bae51	0.0035962055
22	0x3b357e67	0.002769375
23	0xba9b80d1	-0.0011863952
24	0xbc039f94	-0.008033652
25	0xbc0519be	-0.008123813
26	0xbc17afc7	-0.009258217
27	0xbc5b4355	-0.013382752
28	0xbc97af7d	-0.018516297
29	0xbcc40b3b	-0.023931136
30	0xbb88d9ce	-0.004176355
31	0xbb632c01	-0.003466368
32	0xbbe402b6	-0.006958331
33	0xbc51d04a	-0.012806008
34	0xbca2426e	-0.019807067
35	0xbb19959f	-0.0023435128
36	0xb8b5795c	-8.6533575e-05
37	0xbb203661	-0.0024446475
38	0xbc0350a9	-0.008014836
39	0xbc830e02	-0.01599789
40	0xbb830e6f	-0.0039995234
41	0xba8edfe5	-0.0010900466
42	0xbb122082	-0.0022297208
43	0xbbda2e1c	-0.0066583287
44	0xbc657b01	-0.014006377
45	0xbc194e64	-0.009357069
46	0xbbd12886	-0.0063830046
47	0xbbce96be	-0.006304591
48	0xbc0e12eb	-0.008671503
49	0xbc63bc49	-0.013899871
50	0x3c8552b5	0.01627479
51	0x3c5c8558	0.013459526
52	0x3c817d42	0.015806798
53	0x3cb02f91	0.021507056
54	0x3cfaad01	0.030600073
55	0x3c8b4322	0.016999785
56	0x3c3d63c6	0.011559432
57	0x3c2aca14	0.010424156
58	0x3c5f6204	0.013634209
59	0x3cb7d17d	0.022438759
60	0x3caa9331	0.02082214
61	0x3c68f9f6	0.014219752
62	0x3c281ce9	0.010260799
63	0x3c2e85a2	0.010651978
64	0x3c91522b	0.017739376
65	0x3cd9b2d8	0.026574537
66	0x3ca4620d	0.020066286
67	0x3c6b1ece	0.014350606
68	0x3c489add	0.0122439535
69	0x3c86f65d	0.016474897
70	0x3d03cd10	0.032177985
71	0x3cd671fe	0.026177403
72	0x3ca4af00	0.020102978
73	0x3c874730	0.016513437
74	0x3c9232ee	0.01784655
75	0xbc884653	-0.016635096
76	0xbca970c3	-0.020683652
77	0xbcb18260	-0.021668613
78	0xbca18d5d	-0.019720728
79	0xbc91ba76	-0.017789107
80	0xbc63c5a9	-0.013902106
81	0xbc74b1d8	-0.014934979
82	0xbc6d52f3	-0.014485109
83	0xbc5d17aa	-0.0134944115
84	0xbc708724	-0.014680658
85	0xbc0c8579	-0.008576744
86	0xbbd9a587	-0.006642047
87	0xbbba87f4	-0.0056924764
88	0xbbc6cd81	-0.0060669784
89	0xbc27c209	-0.010239133
90	0xbb45e80b	-0.0030198123
91	0x3a9171ed	0.0011096575
92	0x3b022d22	0.0019863327
93	0xb956e07c	-0.00020492257
94	0xbbe28b8b	-0.0069136075
95	0x39fdc472	0.00048402284
96	0x3bbb90bc	0.005724041
97	0x3bbe49e9	0.0058071506
98	0x3b14d69f	0.0022710932
99	0xbbbd5b95	-0.0057787397
100	0xbc2db583	-0.010602358
101	0xbc45fe24	-0.012084518
102	0xbc79952e	-0.015233321
103	0xbc9c7b30	-0.01910171
104	0xbcbbba6f	-0.022916047
105	0xbc03a5d7	-0.008035145
106	0xbbf406e8	-0.0074471124
107	0xbc19899f	-0.00937119
108	0xbc5f78fb	-0.013639684
109	0xbc9e3e97	-0.019316955
110	0xbbc37d99	-0.0059659
111	0xbb668c62	-0.003517889
112	0xbb8ac34b	-0.0042347065
113	0xbc09c8a5	-0.008409654
114	0xbc7c46d7	-0.015397749
115	0xbba9bd6c	-0.0051800516
116	0xbac45d89	-0.0014981489
117	0xbaa7eefd	-0.0012812313
118	0xbba631f1	-0.0050718714
119	0xbc492494	-0.012276787
120	0xbbcef678	-0.0063160025
121	0xbb06fc7b	-0.0020597267
122	0xbaa7e2dc	-0.0012808698
123	0xbb8cfaca	-0.0043023573
124	0xbc32032c	-0.010865014
125	0x3c19d912	0.0093901325
126	0x3c591b70	0.0132511705
127	0x3c795dcd	0.015220118
128	0x3c7a35f3	0.015271652
129	0x3c6103e9	0.013733842
130	0x3b832b5d	0.004002972
131	0x3be00fe4	0.006837832
132	0x3c1a82bf	0.009430586
133	0x3c3a83b6	0.011383941
134	0x3c4fd99e	0.012686161
135	0xbb04ead1	-0.0020281563
136	0xba4b0272	-0.00077442
137	0x3b0c5f2a	0.0021419027
138	0x3bb84cd0	0.005624391
139	0x3c15e341	0.00914842
140	0xbbb1c7e9	-0.0054254425
141	0xbbbc0d09	-0.0057388586
142	0xbb47c0f3	-0.0030479997
143	0x3a56d46b	0.0008195105
144	0x3bb528c4	0.0055285413
145	0xbb86d49e	-0.0041147014
146	0xbbc0f769	-0.0058888686
147	0xbb8ff9be	-0.0043937853
148	0xbab57270	-0.0013843309
149	0x3b6a33cc	0.003573644

exp_avg_sq f4 [6, 1, 5, 5]
0	0x399c34be	0.00029793935
1	0x39aa8a59	0.00032528004
2	0x39b8f0a6	0.00035274512
3	0x39c43b4f	0.00037428222
4	0x39ce86f8	0.0003939194
5	0x39779af6	0.00023613483
6	0x39820c54	0.00024804717
7	0x3988e7e4	0.00026112713
8	0x398da2de	0.0002701496
9	0x399739ed	0.00028844122
10	0x39408e08	0.00018363458
11	0x393e5663	0.00018151994
12	0x39446655	0.00018730138
13	0x39414333	0.00018430948
14	0x394a41fc	0.00019288802
15	0x392272a7	0.00015492235
16	0x390ba919	0.00013319067
17	0x390884c6	0.00013019433
18	0x390078ba	0.00012252005
19	0x39048093	0.00012636399
20	0x39262d85	0.00015847951
21	0x38e795a7	0.00011042813
22	0x38c90599	9.5854695e-05
23	0x38c548ec	9.407275e-05
24	0x38e5f7bf	0.00010965717
25	0x38d65d2e	0.00010221671
26	0x38b5163f	8.634896e-05
27	0x38cdb739	9.8092896e-05
28	0x390d4d4f	0.00013475608
29	0x394e4c59	0.00019674133
30	0x389ef43b	7.5795186e-05
31	0x386f94d7	5.712066e-05
32	0x3880820b	6.127738e-05
33	0x38b330ec	8.5444975e-05
34	0x390ce167	0.0001343541
35	0x38b6690f	8.698005e-05
36	0x3890a593	6.897296e-05
37	0x388d5f1d	6.74112e-05
38	0x38ac49da	8.215355e-05
39	0x38fd1ba8	0.000120691315
40	0x3906b45a	0.00012846422
41	0x38df882c	0.000106588326
42	0x38cefbf0	9.8697725e-05
43	0x38e4af23	0.00010904509
44	0x391822d7	0.00014508828
45	0x39553089	0.00020331344
46	0x393291eb	0.00017029762
47	0x39203cb9	0.0001528141
48	0x3924070d	0.00015642885
49	0x39443415	0.00018711419
50	0x3989d8b4	0.00026292133
51	0x3949e08b	0.00019252503
52	0x39205534	0.0001529053
53	0x391fa46e	0.00015224676
54	0x39528a7c	0.0002007875
55	0x396b3595	0.00022431307
56	0x392605f2	0.00015833208
57	0x3903095f	0.00012496625
58	0x38fb76fc	0.00011990775
59	0x391fd42c	0.00015242462
60	0x396b25fc	0.00022425497
61	0x392ac5d0	0.00016286154
62	0x390fe5c2	0.00013723134
63	0x391073ef	0.00013776099
64	0x392e7fdb	0.00016641563
65	0x398817e1	0.00025957733
66	0x3953f60a	0.00020214185
67	0x393c5a68	0.00017962756
68	0x39430501	0.00018598513
69	0x396352f9	0.00021679317
70	0x39a8ad5c	0.0003217262
71	0x398ff6c7	0.0002745895
72	0x39848e93	0.00025283228
73	0x39880091	0.00025940363
74	0x3998198b	0.0002901073
75	0x39ae6dd6	0.000332697
76	0x39a980c9	0.00032330144
77	0x39a41df4	0.00031302834
78	0x39a09a80	0.0003063269
79	0x39a10557	0.00030712291
80	0x39a2342b	0.00030937916
81	0x39946362	0.00028302806
82	0x3988f3a7	0.00026121477
83	0x398232a7	0.0002483327
84	0x397d5a02	0.00024161491
85	0x39920b24	0.0002785559
86	0x39827c31	0.00024888062
87	0x3971d560	0.0002306304
88	0x39621a84	0.00021562917
89	0x394e4e40	0.00019674841
90	0x398613b9	0.00025573166
91	0x39763507	0.00023480142
92	0x396bdcf4	0.00022493658
93	0x395a1ca5	0.00020800771
94	0x393b9440	0.00017888937
95	0x3975ffbb	0.00023460288
96	0x396ccd94	0.00022583298
97	0x396d9848	0.0002265881
98	0x3961fe4b	0.00021552404
99	0x3949a81b	0.00019231478
100	0x391699a5	0.00014362352
101	0x38fcad36	0.000120485594
102	0x38ec909c	0.000112802925
103	0x38f29e74	0.000115689734
104	0x390ba253	0.00013316543
105	0x38d6a924	0.0001023582
106	0x389e85f8	7.558981e-05
107	0x388a4c23	6.594534e-05
108	0x388374c9	6.26832e-05
109	0x389850e1	7.26299e-05
110	0x38a17594	7.698979e-05
111	0x38661837	5.4858825e-05
112	0x385569c3	5.0881656e-05
113	0x38451b06	4.6993628e-05
114	0x3859a6f0	5.1892304e-05
115	0x388cb006	6.708507e-05
116	0x384fed2f	4.957354e-05
117	0x3859dcdd	5.1942527e-05
118	0x3860b8d5	5.35779e-05
119	0x3882e89c	6.24221e-05
120	0x38a9a8bb	8.0899765e-05
121	0x3883dbbe	6.287497e-05
122	0x3889bd04	6.567876e-05
123	0x389a42d9	7.3557436e-05
124	0x38c4eadc	9.389754e-05
125	0x39b54adc	0.00034578785
126	0x39c85a56	0.00038214278
127	0x39d96aca	0.0004146903
128	0x39e47478	0.00043574325
129	0x39e4991a	0.00043601618
130	0x398e4113	0.00027132835
131	0x3997a711	0.00028925439
132	0x39a22cb6	0.0003093236
133	0x39ac5f3a	0.00032877346
134	0x39b2e0ad	0.00034118202
135	0x3962c76e	0.00021627333
136	0x39698102	0.0002226867
137	0x3971f96f	0.00023076472
138	0x397be097	0.00024020892
139	0x39855ce1	0.00025436937
140	0x39398195	0.00017691248
141	0x39353828	0.00017282425
142	0x3934df96	0.0001724943
143	0x3936ccac	0.00017433119
144	0x39453bec	0.00018809707
145	0x392c7e38	0.00016450218
146	0x391c4cea	0.00014905972
147	0x391a88d6	0.0001473756
148	0x391ee224	0.00015152298
149	0x393176bc	0.00016924267

exp_avg f4 [6]
0	0xba76d78a	-0.0009416273
1	0xbbee9ad8	-0.0072816424
2	0xbbcd117f	-0.006258189
3	0xbb1b9773	-0.0023741394
4	0x3bc9fdbf	0.006164282
5	0x3c0a2b9f	0.008433252

exp_avg_sq f4 [6]
0	0x392163a2	0.00015391273
1	0x38888ecb	6.5115826e-05
2	0x3912cb0a	0.00013999283
3	0x3947f801	0.00019070508
4	0x38a6ac3b	7.947577e-05
5	0x392ccd5d	0.00016479702
