weights/weight_after_step20_1.pth (torch, 783165 bytes, 30 tensors)

conv1.weight f4 [6, 1, 5, 5]
00000000: dfd7 3a3e 27db 07bd 53c1 87bd c499 ff3d
00000010: 76a2 f73d 8196 133e 21b5 803c a920 29be
00000020: 19aa c2bd a73c 203e 3d2b 4bbd 2982 17bd
00000030: 2c1d 5fbe a5df 5f3d 34a2 49be 42df 4c3d
00000040: 2382 febd 436d 1bbe b9f8 c5bd 767d 1cbd
00000050: 136b 50be 25e7 46be 4c78 f7bd 91b8 6d3b
00000060: 1e44 a2bc f712 eebc 8121 fabd e6e9 bdbd
00000070: 628f 77bd 9b90 b93b 1075 9abc fc58 50be
00000080: 9741 24be ad71 35be e053 8a3c 80e2 4bbe
00000090: 62f5 283b 3e0a 533d 6e9b 253e a47f 9b3d
000000a0: fc4a 00bd 4aec 26be d565 5dbe 047a 523c
000000b0: 2180 fb3c 6378 033e b6e0 013e bc05 1bbe
000000c0: 0965 143d 2e83 adbd 7324 a03d 5142 403e
000000d0: ece1 383e f1b1 043e 7f07 fb3d 9a96 3abe
000000e0: fc53 373e f8ee 9cbd 95b6 8a3d d881 303e
000000f0: da1f 193e dde2 53ba e2a9 673d 65ca 373e
00000100: cf34 73bd 3ad3 713d 963d 09be 90b4 2e3e
00000110: b43e 273e 8d39 133e 481b 60be a683 9339
00000120: d323 703d 3ea0 6cbc 58d2 d1bd 9cb0 213c
00000130: 8373 fc3d 951d c1bd fe03 3f3e edf3 9a3c
00000140: b24a 583e 6a46 743d 749a c73d 136f 19be
00000150: dc88 16be 196a f0bb ee47 64bd 1c5f 45be
00000160: 0086 073e 4a4b 2bbd 4919 2e3e 846e 23be
00000170: 0e66 57be 52b9 f03d aa61 5abe 78a8 31be
00000180: a4ce ac3c 6e2f 9abd 79c1 2c3c 122f 54bc
00000190: bb78 843c da19 c53d 5d34 e2bd 8e62 1e3e
000001a0: 65c4 fbbd 0a7e afbc 9c11 59be f40b 6cbe
000001b0: 0ed6 e2bc 580e 163d ae37 34be 1e0b 1e3e
000001c0: 81d1 89bd 46b0 893d 9b30 21be 33b4 243e
000001d0: b540 163e 0ebe 843d f75b 8abd d252 3abe
000001e0: 9f1d 31be 67c6 cebd 6983 5abe 7b21 9bbc
000001f0: f274 0a3e 3f55 4dbe 7db1 31be 0117 653c
00000200: 9d19 7abd 5f6d 54be bf37 4f3e e7ce ff3d
00000210: 0991 fdbb 114e 89bc 733c 0d3e be7d e43c
00000220: ac7a ab3d 844c 2fbd 6258 2e3d e21a 173e
00000230: 9bbb 8d3d b2a6 d53c 6894 f83d 66b7 5d3e
00000240: a94f 823d e38f 303e 344c c83d 0a85 8bbd
00000250: 80a1 91bd 3e4b 46bc
0.18246411 -0.033167984 -0.066286705 0.124805 0.12091534 0.14412881 0.015711369 -0.16516365
-0.095051 0.15648137 -0.049601782 -0.036989365 -0.21788472 0.054656643 -0.19690782 0.050017603
-0.12427165 -0.15178399 -0.09666581 -0.038205586 -0.20353346 -0.19424112 -0.12083492 0.003627334
-0.019807871 -0.029061778 -0.122134216 -0.09273128 -0.060439475 0.0056629903 -0.018854648 -0.20346445
-0.16040646 -0.17719145 0.016885698 -0.19910622 0.0025781025 0.05152344 0.16172573 0.07592705
-0.03132151 -0.16301075 -0.21620877 0.012846474 0.030700745 0.12838893 0.12683377 -0.15138906
0.036229167 -0.08472286 0.07819452 0.18775298 0.18054932 0.12958504 0.12257289 -0.18221512
0.17903131 -0.07662767 0.06773106 0.17237031 0.14953557 -0.00080828165 0.056558497 0.17948301
-0.059376534 0.059039332 -0.134024 0.17061067 0.16332513 0.14377423 -0.21885407 0.0002813611
0.058627915 -0.014442502 -0.10245198 0.009868767 0.123267196 -0.094294704 0.18653867 0.018915141
0.21122244 0.059637465 0.097462565 -0.14983778 -0.14700645 -0.0073368666 -0.05573266 -0.19274563
0.1323471 -0.041819848 0.17001833 -0.15960127 -0.21035025 0.11754097 -0.21326318 -0.17349422
0.021094628 -0.07528578 0.010544174 -0.012950676 0.01617085 0.096240714 -0.11045144 0.15467283
-0.12293319 -0.021422405 -0.21198124 -0.23051435 -0.02768996 0.036634773 -0.17599365 0.15433928
-0.06729413 0.067230746 -0.15741198 0.16084366 0.14673121 0.064815626 -0.06755822 -0.18195656
-0.17296456 -0.10096436 -0.21339191 -0.018936863 0.13521174 -0.2005205 -0.17352863 0.013982535
-0.061059583 -0.20744847 0.20236109 0.12490635 -0.007738237 -0.016760858 0.13792591 0.02789199
0.08373007 -0.04279758 0.042564757 0.14756349 0.069205485 0.026080463 0.12137681 0.21651992
0.0636285 0.17242388 0.097801596 -0.068124846 -0.07110882 -0.0121029

conv1.bias f4 [6]
00000000: 1c6c 093d ef89 0f3e 39de a2bd e9e6 363d
00000010: 05a5 c4bc 073a 35be
0.033550367 0.14017461 -0.07952542 0.044653807 -0.024004469 -0.17697917

conv2.weight f4 [16, 6, 5, 5]
00000000: 9e28 e1bb 8f06 783d 878f 1ebd a83e 2fbb
00000010: a8d3 f9bc 7f70 d83d cc2c 4d3d 1064 07bd
00000020: b88e 46b9 308f f839 bbe7 303d d7c7 c9bc
00000030: 3bdf 0e3d fe91 cd3c 1d86 32bc 1000 0abd
00000040: 2402 b93d a1eb ef3b 1f0f 0d3d 70b9 99bd
00000050: e431 c03b 033d a53d fc5c 083d a871 4c3d
00000060: 2f42 41bd 82d9 0c3d 000b de3d badc d03d
00000070: 2341 713d 7b85 383d 7cf4 f9bc ab8d c33c
00000080: 91e6 5ebd 17ff 41ba 56ca 99bd d4ef d43c
00000090: 21ec c83b 9ab1 d93c 7a98 06bd 5c01 91bd
000000a0: 2c71 423d f39b f43c 4a7a 563b d142 dbbd
000000b0: e4a2 e7bd 5851 d33d 5dc3 503d 2eae 13bb
000000c0: 02c0 d8bd e2b5 46bd 67e2 3fbd 0686 643c
000000d0: ffbd cbbd 603a 263c 7232 90bd 3b9b b4bc
000000e0: da15 b1bc ad05 abbd 83f2 5a3d d01a 54bd
000000f0: 503c 8cbd 8780 97bd ec56 9bbc d9e1 d53d
00000100: 5d4d 27bd a77b f53b 5273 423d a87f 4e3d
00000110: 9034 f13d 16d7 d73d d05f bbbd e258 5dbd
00000120: 4d29 de3d 8cfa bc3d 5a1b 60bd bde7 c73b
00000130: db96 d13c 32fc 26bd 953f 88bc 04d3 053b
00000140: 2fd3 8a3c a80c bdbd 1b7a fcbd 1ba2 a8bb
00000150: a80a 9dbd 9693 b83c bbe2 3dbc 9bdf 01bd
00000160: 82d8 5abd 9cf6 aabd 35b0 563d 864b a8bd
00000170: f059 83b8 6413 a2bd 1b5d c23d 2888 993d
00000180: 90cf 09bd d5db c8bc bec4 763d e95f 72bc
00000190: 5ba8 26bc 003b cd3c 480f dd3c af45 80bd
000001a0: 33b8 e3bc d25c 0e3d dce5 4f3d 9ded 0bbd
000001b0: c10b 90bd bb88 74bd 1482 903d debc 74bd
000001c0: 7c6a 8abd c013 76bc ef92 79bd 50e3 163c
000001d0: 6863 703d d57f 6abd 83c4 36bd 8b25 403d
000001e0: 3de0 02bd 2472 b2bc 982b c5bd 1076 bdbd
000001f0: 6df3 123d 3858 07bd 178c c3bd b81d 3bbd
00000200: a798 65bd 75e0 70bd 541f 98bd 05ea 23bd
00000210: 87e0 283d d3cb 1b3c 01d2 ec3d cde0 913c
00000220: 0e8b 013d 2a4a 933c 7156 a3bc e87f 0b3c
00000230: 4075 843c efe9 873c d771 103d 6197 4ebc
00000240: 05de db3b 2020 04bc d7a5 68bd f7cb 18bc
00000250: 092e 5dbd d454 66bc fdab a13d 8e67 bd3a
00000260: 10ea 6e3d c2f3 573d 405f 6b3d 648e d2bd
00000270: 030a 13ba 3fde 6ebd 6ea7 c93c 35bd 413d
00000280: a118 bfbd 5cf9 64bc 107f d1bd 2f85 06bd
00000290: 6b35 a33c fac4 4dbd 612c 713d 90be 95bc
000002a0: 7b62 9ebc b636 61bd f65b 18bc ccdd b23d
000002b0: 4cd7 063d e586 26bd 8b8b 99bd ea5a 033d
000002c0: 2f88 c23d 0602 78bb 1fc7 9bbc 3c80 223d
000002d0: 8f30 073d 7fe8 883d 400b 6e3d 605a c03d
000002e0: 9a92 a6bc 58e0 90bd 258b 0d3d bdfe 3f3c
000002f0: 45d3 3abc 25af 073c 3cc4 d33c 8880 d9bd
00000300: fc8a d0bc ed80 a2bd adf4 a5bd 467b a8bc
00000310: 1c48 fabc c33e b9bc a565 333d 6d80 e2bc
00000320: c9fd dbbd 69b8 873b 84f6 bfbd df26 1a3d
00000330: cee0 aebd a394 6bbd 7f23 6bbd b581 2a3d
00000340: 5a6f 9fbb 1040 d7bd 2ff6 223d 0007 043d
00000350: 845a 02bd eb5b b9bd bb33 99bd 8a48 953d
00000360: e236 c33c 6b09 33bd 4c06 25bd 9885 ff3c
00000370: f962 833d 6d69 3bbd 643a c03d 7e05 45ba
00000380: 96b1 48bc 3494 29bd 25ae 883b 8258 b33d
00000390: 4117 c93d 94cf 483d 3b68 6ebd dde7 7dbc
000003a0: 042d 103d 9687 133d df3d 0e3c 69cb c0bd
000003b0: c615 d2bd 2ead c3bd db3a 82bd 72c2 a23b
000003c0: 5562 273d 65d9 b03d ef03 c03d 200f 99bd
000003d0: c6f3 49bb 632c e23d b3d8 a43d a4c8 9a3c
000003e0: 000c 943d 5eef 813d 8830 a83d c552 cb3d
000003f0: 69b5 803d 3b19 af3c 073c d83d 70e8 95bb
-0.006871297 0.06055313 -0.038711097 -0.0026740227 -0.030496433 0.10568332 0.05009155 -0.03305441
-0.00018935918 0.0004740893 0.043189745 -0.024631424 0.034880858 0.025094029 -0.010896233 -0.033691466
0.090336114 0.0073217903 0.03443825 -0.075060725 0.0058653224 0.08068278 0.0332918 0.04991308
-0.04718226 0.03438712 0.10841942 0.1019835 0.05890001 0.045049172 -0.030512087 0.023871263
-0.054419104 -0.0007400377 -0.07509296 0.025993265 0.0061316644 0.026573945 -0.032860257 -0.070803374
0.04747121 0.029859519 0.0032726699 -0.107061036 -0.11310366 0.103182495 0.050967563 -0.002253424
-0.105834976 -0.0485133 -0.046846773 0.013947969 -0.09948348 0.010145754 -0.07040872 -0.022046676
-0.021616865 -0.08350692 0.053453933 -0.051783383 -0.06847441 -0.073975615 -0.018962346 0.10443468
-0.040845264 0.007491547 0.04747326 0.05041471 0.117776036 0.10539071 -0.09149134 -0.054039843
0.10847721 0.092274755 -0.054713584 0.0061006234 0.025584629 -0.040767856 -0.01663188 0.0020419965
0.016946403 -0.092309296 -0.12327977 -0.0051462776 -0.07668048 0.022531312 -0.011589701 -0.031707387
-0.053429134 -0.08347818 0.052414138 -0.0821753 -6.263319e-05 -0.07913855 0.09490415 0.07496673
-0.033645213 -0.024518887 0.06024622 -0.014793375 -0.010171975 0.025052547 0.026984826 -0.06263291
-0.027797794 0.03475649 0.05075632 -0.034162153 -0.07033492 -0.05970071 0.070560604 -0.05975043
-0.067585915 -0.015019357 -0.060931142 0.009209469 0.05868855 -0.057250816 -0.044621002 0.046910804
-0.03195213 -0.021782942 -0.096274555 -0.09251034 0.03587668 -0.033043116 -0.095482044 -0.04568264
-0.056053784 -0.05880781 -0.0742785 -0.0400181 0.04122975 0.009509045 0.115634926 0.017807389
0.031626754 0.0179797 -0.01993868 0.008514382 0.01616919 0.01659104 0.035264816 -0.012609334
0.0067098164 -0.0080643 -0.056798782 -0.009325973 -0.05399898 -0.014058311 0.07894132 0.0014450417
0.05832869 0.0527227 0.057463884 -0.10281065 -0.0005609097 -0.05831742 0.02461597 0.047299583
-0.093308695 -0.0139754675 -0.102293134 -0.032841858 0.019922933 -0.05023668 0.058880214 -0.018279344
-0.019334069 -0.054983817 -0.009299269 0.08733711 0.032920167 -0.04065599 -0.07497319 0.032069124
0.09498631 -0.0037843003 -0.019015847 0.039673075 0.033005293 0.0668497 0.058116198 0.09392238
-0.020333577 -0.0707404 0.034556527 0.011718449 -0.01140291 0.008281504 0.025850408 -0.106202185
-0.025456898 -0.07934747 -0.08103309 -0.020566594 -0.030551963 -0.022612935 0.043798108 -0.027649129
-0.10741765 0.0041418565 -0.09373191 0.037634727 -0.08538972 -0.057514798 -0.0574069 0.041627605
-0.004865569 -0.10510266 0.03978556 0.03223324 -0.031824604 -0.09050735 -0.0748057 0.07289226
0.023829881 -0.043710154 -0.04028921 0.031191632 0.06415362 -0.04575484 0.09386137 -0.0007515772
-0.012249371 -0.041401103 0.0041711503 0.08757116 0.098188885 0.049026087 -0.05820487 -0.015497175
0.03519918 0.036017977 0.008681743 -0.094137974 -0.10258059 -0.09554516 -0.06358882 0.0049670273
0.04086526 0.08635215 0.0937575 -0.07473588 -0.0030815466 0.11043622 0.080491446 0.018894501
0.07228851 0.06344484 0.082123816 0.099278964 0.06284601 0.021374336 0.10558324 -0.004574828

conv2.bias f4 [16]
00000000: 2b2f 803d 473a a8bc 4274 04bd 8b45 b63d
00000010: 762c 7bbd 971e 513d 7091 d43c edde 613d
00000020: eabf 8d3d 0a98 fc3c c539 57bd d886 943d
00000030: 5036 b33d b92b bc3c f29f 353d c0a9 4bbd
0.062589966 -0.020535601 -0.032337435 0.08899983 -0.061321698 0.051054563 0.025948256 0.05514424
0.0692137 0.030834217 -0.052545328 0.07252282 0.08750594 0.022970067 0.04434199 -0.049722433

conv3.weight f4 [120, 16, 5, 5]
00000000: 3686 30bc cced 213d da17 013c 7dcb 30bd
00000010: 59d9 5cbc 83e3 bd3c 6fe3 d03b ad4c 70bc
00000020: fbfa ddbc 5697 e7bc 1b14 473d 53fd 46bd
00000030: d13e 96bd c8f4 813d fcb6 7dbc 2211 963c
00000040: d06d a2bd 776b 5cbd d08b b1bc dfa2 e73c
00000050: 3b75 813b 56b5 e8bb 188a 533d 54ca ecbc
00000060: 94b0 8a3c c4ff 6abd d185 b33a 532f 64bc
00000070: 5e99 e8ba 4dc6 9c39 70c7 903c d8de 703c
00000080: 9b8d 19bd 485c 83bd eded 39bd 6006 893d
00000090: 56d0 a83d c35c 06bb 3192 1cbd 7251 873d
000000a0: a2d1 7ebd 1a90 a83c 1212 0bbb 194a dabc
000000b0: e640 a5bd 6169 8bbc 6edc bbbc 13f0 8c3d
000000c0: cd49 a73d d411 b7bc 2ad5 453d 9837 c93b
000000d0: 4128 6e3c cff4 b03d 65fb 8f3d 4b07 aa3c
000000e0: d46a 68bd a1fe 97bc 2c3b fc3c 81e8 61bd
000000f0: 5df0 c83c c6e4 7a3d 4bb8 1e3d 2c2a 1dbd
00000100: dae4 703d 65e7 f03c cab1 213c 1f57 5b3c
00000110: f21a 063c d62a fa3c c79c e0bc ab4c acbc
00000120: be8e 0f3d c789 59bd 9bf6 98bb 3add 343d
00000130: c008 513d 411c 9abc 1a93 7bbc 0690 43bb
00000140: 8719 f2bc 3988 753d 0fe9 11bb d8b0 12bc
00000150: 4d0f 143c 7492 2abd c3a6 61bc 3a80 db3c
00000160: 0644 0a3d b402 123d 8b35 77bd 5fba acbd
00000170: da13 35ba 7ec3 fd3c 1473 cd3c 8254 5dbc
00000180: ebbb 2abd 44c6 17bb 89f5 813d b872 703c
00000190: e5e2 0dbd ff05 623c e84c 2dbc 1df5 203c
000001a0: 4ea9 25bd ad0a 05bd a5cb b4bb 4534 97bd
000001b0: 6937 7d3c ef6b 9f3c 3314 303d c543 06bd
000001c0: 3ecf 3abd 5e00 973c b3d6 0b3d 33e0 8bbc
000001d0: d543 e1bc b4b4 813d 84b4 a43c 9f75 19bd
000001e0: 4a01 9ebc f274 8c3c 7f10 58ba d91d bbbc
000001f0: b16f d73c 07a6 753c 3e11 4a3d f9ea 843d
00000200: 8d46 0f3d 6756 6dbc 9c2c fc3c 429d 313d
00000210: 480c 3ebd ca32 91bd 7210 88bd c3b0 e93c
00000220: 12cd d4bc 4376 7cbd f422 06bd 0dcb 183d
00000230: 4ee0 a53c ac87 9dbd caab e5bc 455f 1a3d
00000240: 3e55 29bd 7466 a6bc 79c0 06bd 458f 563c
00000250: 4d90 1e3d 9445 4c3c 99d6 b3bc b545 3cbb
00000260: 4faa 473d 13a3 e43c 93d8 b43c 2a31 07bc
00000270: 12d5 7f3d b612 6bbd 910f 2ebd 8c25 843c
00000280: ca4b 943c 7e07 833d 5e15 d7bc f636 3fbd
00000290: ab74 303d 2177 e43b 1d78 90bb b1d8 4dbc
000002a0: 78b8 76bd 9aed 0cbd a36a b8bc 8a88 8fbc
000002b0: f5ed 64bc 24e0 553c 10dc 0bbc 5c3e 433c
000002c0: b515 2fbc e9fa 093b 9a2b 1abd cf94 50bd
000002d0: 8813 b83c 1d85 2abd eb8d 6cbd 12b0 07bd
000002e0: b6f9 533d 52cf 08bc 28ea 21bd 5d2b 9b3b
000002f0: 8f06 0d3d 77b3 0c3d c6f6 0a3d 74ff 013d
00000300: 49e2 7a3d 6737 5d3d e071 2fbd 371b f2bc
00000310: 013c d6bb 9bde 1a3d a089 83bb 8411 063b
00000320: 564c ea3a bf6b 59bd bbec 0d3d 43e8 d83c
00000330: d476 b03c 3324 5d3c 6e29 52bd 06b6 a5bd
00000340: b414 69bd db2f 46bc f918 023d fcb9 8d3b
00000350: 9687 90bb 207b 37b9 f259 803c b86b 93bd
00000360: a05c 963d 31a8 95bc 3b66 99bd ce3b c83c
00000370: 083f 09bd c8e3 143c e8c8 2b3c 2562 bb3b
00000380: d009 36bc badd 2d3d 79c4 153d aae3 233d
00000390: a28a 783d f2a6 a33c 5fc3 b23c 3b3b 46bd
000003a0: dc7d 3c3c c4b4 2abd 82d4 133b 9d0f 713d
000003b0: 09c3 403d 230f 64bd 94bb d6bc 56a4 a3bc
000003c0: 0914 f53c 19eb 163d 76b7 34bb 235e 7abc
000003d0: 85e2 edbc 57f8 31bd 6c7a 1abd b05a e4bc
000003e0: e954 a93c b9a1 38bd 6ddd c8bc 412b ca3b
000003f0: 4592 cc3c 4729 81bd 820a 163c 183a b93c
-0.010774186 0.03953342 0.007879222 -0.04316281 -0.013479554 0.023179775 0.0063747684 -0.014666718
-0.027097216 -0.028270405 0.04860316 -0.048581433 -0.073362 0.063455164 -0.015485521 0.018318716
-0.07931101 -0.053813424 -0.021673113 0.028275905 0.0039507425 -0.007101695 0.05164537 -0.028905071
0.016929902 -0.057372823 0.0013696497 -0.013927299 -0.0017745902 0.00029902384 0.017673224 0.014701568
-0.03748856 -0.064140856 -0.04539292 0.06690669 0.08242862 -0.0020502068 -0.038225356 0.06607331
-0.06221164 0.020576525 -0.0021220488 -0.02664666 -0.08069019 -0.017018022 -0.022932258 0.06881728
0.08168373 -0.022347368 0.048298992 0.0061406605 0.0145359645 0.086404435 0.070303716 0.02075543
-0.056742504 -0.018554034 0.030789934 -0.055153374 0.024528677 0.06125333 0.038749974 -0.038370296
0.058812 0.029407213 0.009869048 0.0133874705 0.008185135 0.030538004 -0.027418507 -0.021032652
0.03504824 -0.05310991 -0.0046680695 0.04415629 0.051033735 -0.0188123 -0.015354896 -0.0029840483
-0.029553188 0.059944365 -0.0022264158 -0.008953296 0.009036851 -0.041643575 -0.013772669 0.026794542
0.03375628 0.03564711 -0.060353797 -0.08433985 -0.000690756 0.030977007 0.025079288 -0.013508918
-0.04168312 -0.0023158947 0.0634566 0.014675789 -0.03464021 0.013795375 -0.010577418 0.009824065
-0.040444665 -0.032480884 -0.0055174404 -0.073830165 0.015455105 0.019460646 0.042988013 -0.032779474
-0.045607798 0.018432792 0.0341403 -0.01707468 -0.027498165 0.063332945 0.020105608 -0.037465688
-0.019287724 0.017145608 -0.0008242204 -0.02284138 0.026298376 0.014993197 0.04933285 0.0649013
0.03497939 -0.014485932 0.03078299 0.043362863 -0.04639843 -0.07089765 -0.06643762 0.02852667
-0.025976691 -0.06163622 -0.032748178 0.03730302 0.020248558 -0.07691893 -0.028036017 0.037688512
-0.04134106 -0.020312525 -0.0328984 0.013095682 0.038711835 0.012467761 -0.021952914 -0.0028728072
0.048746403 0.027909791 0.022075927 -0.008251468 0.06245906 -0.05739089 -0.042495314 0.016131185
0.018102545 0.063979134 -0.026255306 -0.046683274 0.043080013 0.006972209 -0.00440885 -0.01256387
-0.060234517 -0.034406282 -0.022511786 -0.017521162 -0.013972749 0.013053928 -0.008536354 0.011916723
-0.010686328 0.0021054095 -0.037639238 -0.050923165 0.02247025 -0.041630853 -0.05775253 -0.033126898
0.051751815 -0.00835021 -0.03952995 0.004735394 0.034430083 0.03435084 0.033926748 0.03173776
0.06125096 0.054007914 -0.04283321 -0.029553993 -0.0065379147 0.03780995 -0.004014209 0.0020457217
0.0017875533 -0.05308127 0.034649592 0.026477939 0.021541037 0.0134974 -0.05130904 -0.08091359
-0.05690451 -0.012096371 0.031762097 0.0043251496 -0.0044106944 -0.00017498108 0.01566789 -0.0719828
0.073418856 -0.018268676 -0.07490202 0.02444258 -0.033507377 0.00908751 0.0104849115 0.005718487
-0.011110738 0.042447783 0.036564324 0.04001204 0.060679086 0.019977067 0.021821676 -0.04839633
0.011504617 -0.041676298 0.0022557084 0.05885278 0.047061 -0.055678498 -0.026212491 -0.019975822
0.02991678 0.0368453 -0.0027575172 -0.015281233 -0.029038677 -0.043449726 -0.037714407 -0.027875274
0.020670371 -0.045076106 -0.024519647 0.006169707 0.02497209 -0.06306701 0.009157779 0.02261071

conv3.bias f4 [120]
00000000: 776b 8cbc d2f6 1d3d c267 eebc b5fc 0fbd
00000010: f74f ea3b 65a5 ad3b 18fb b73c 6d50 3dbd
00000020: 3c5a 5c3d de72 53bc ac83 f0bb 4212 723c
00000030: 0a2c 78bc c0dc de3c e694 15bd 6d93 f5bc
00000040: 5de3 5e3c 107c 6a3d e036 0dbc 9489 3bbd
00000050: d723 49bd 6efd 0f3c 449c e4bc 2366 c93b
00000060: a576 023d 9574 d3bc 1a95 2f3d ba22 ecbb
00000070: 941f 443d 0cd9 483c 4b4d d13c 0e18 3ebd
00000080: 5894 94bd 4743 babc 2cdc 1cbd cb96 05bd
00000090: fca9 5a3d ca97 5bbc c25b 473d 065f 153d
000000a0: 5fdc d2bc e42b 893b 3e71 dfb9 1f8c 41ba
000000b0: 83ae 693d d318 ec3c 9091 5e3d 1668 103d
000000c0: c7e8 e63b a07b 4b3c a375 edbc c2e9 f23c
000000d0: bcfa 5f3c 330d 69bc 2025 763c 9825 27bd
000000e0: de1e 3cbd 14cd fbbc 6076 15bd d345 2e3d
000000f0: e1fd 083c 864c 043d ddf6 cab9 9915 e3bc
00000100: 0548 0e3d c2d5 b5bc 2afa 93bc a960 bf3a
00000110: ed8d 0bbd 7c92 4fbd d69a 17bd decf 06bc
00000120: 1aa8 9f3b 851b 39bb 75ec caba 7da0 da3a
00000130: 92e3 693d 11ea 96bc d324 f63c db12 37bd
00000140: 1669 01bd 2c06 11bb d497 97bb 6a15 833b
00000150: 561a d83c 4d72 853c 31f0 89bc cc97 24bd
00000160: 083e 743c 4465 803c 2841 353b 3a63 7a3d
00000170: e7f5 043c de37 28bd 2fa1 e83b ca2d b6bc
00000180: 5883 92bc ad3d f3bc 1bb8 723c c338 5abd
00000190: 6969 2ebd 0354 4e3d 806c da3c 0323 5c3c
000001a0: 0b03 c0bc 356a 873d 8f4d 3dbd ee2a 09bd
000001b0: 727c a8bb 340b 903c 5bdc c33c a121 413c
000001c0: 2c60 163b 992f 5fbd aaaa 0c3c a3b2 2ebd
000001d0: 4c9a 1cbc 0ed9 03bd fef7 90bc 97c0 44bb
-0.017141087 0.038565464 -0.02910221 -0.03515311 0.007150646 0.0052992576 0.022458598 -0.046219278
0.05379699 -0.012905804 -0.0073399153 0.014774861 -0.0151472185 0.027204871 -0.036518954 -0.029977525
0.013604012 0.05724722 -0.00861904 -0.0457855 -0.049106445 0.00878845 -0.027906545 0.006146209
0.03185143 -0.025812427 0.042866804 -0.007206288 0.047881678 0.012258779 0.025549551 -0.04640966
-0.07254857 -0.022737158 -0.03829591 -0.03261451 0.053384766 -0.013402889 0.04867149 0.036467575
-0.025739847 0.0041861404 -0.00042618247 -0.00073832454 0.057051193 0.02882043 0.054338038 0.035255514
0.007046792 0.012419611 -0.028986758 0.02965248 0.01367062 -0.014224338 0.0150235 -0.040807337
-0.045927875 -0.030737437 -0.036489844 0.04254706 0.008361311 0.03229954 -0.0003871237 -0.02772026
0.034736652 -0.022196654 -0.018063623 0.001460095 -0.034070898 -0.050676808 -0.037012897 -0.00822827
0.004872334 -0.0028245163 -0.0015481847 0.0016679909 0.057101794 -0.018422158 0.030046856 -0.044695716
-0.03159436 -0.0022128923 -0.0046262536 0.0040003555 0.026379745 0.016289854 -0.016838165 -0.040183827
0.0149073675 0.015673287 0.0027657244 0.061129786 0.008115268 -0.041068904 0.0070992927 -0.02223863
-0.017884895 -0.029692495 0.014814402 -0.05327679 -0.042580996 0.05037309 0.026663065 0.013436082
-0.023438951 0.06612054 -0.046216544 -0.033488207 -0.005141788 0.017583467 0.023908785 0.011787803
0.0022945506 -0.054488752 0.008585611 -0.04265083 -0.009558272 -0.03218942 -0.017696377 -0.003002202

linear.weight f4 [84, 120]
00000000: 5870 8a3c c4d8 87bd ee53 e0bc b27b abbc
00000010: 0ba6 b9bd 1149 a53d 6346 9e3d 3807 d6bc
00000020: 0703 d13d 9fdd d8bd 822e 0a3d b7d9 1c3d
00000030: a9f2 583d ba1b 683c dac5 bdbd 86da b8bc
00000040: 89c7 8c3c 7c3d 29bc 4aa5 cc3d f4a6 b03d
00000050: a0b7 b23d a89c d4bd 264c 9ebb 16a8 6fbd
00000060: 61db bebd 36d1 bcbc 317e bdbd d9d3 b5bd
00000070: bde4 ff3a acde 5cbd bd89 f7bd ab94 98bc
00000080: 3f66 1c3d d9bf aa3c 759a 913c 0077 113d
00000090: f1e5 8cbc 3757 a93d 2c41 1fbd 5dcc bd3c
000000a0: da03 5fbc 78cd cdbd cbf2 833d 14a8 a73d
000000b0: ca3c c9bd d287 e0bb 3520 5b3d b5ff 46bb
000000c0: 318a 633d 3f7b 1c3d dab3 96bc aab9 a03d
000000d0: 2a2e 40bd 83dc 8a3b 94be bbbd e2d6 883d
000000e0: cf1b 8a3d d7c3 203d 16ba 19bd 8284 cf3b
000000f0: a88f 403d f74a 60bd 305b 963d 5d93 84bd
00000100: 2543 343d d9e0 0bbd 02f3 ba3d c8ae 8dbd
00000110: 1309 713d 5aa7 c83d 9085 72bd 8413 b1bd
00000120: b706 cebd c821 9ebd b65b 5dbc 5d04 103d
00000130: 6e76 c83a 8937 72bd 78af 04bd 6d85 8dbd
00000140: 874c 08bd f909 1a3d 962e 2cbd b76e e1bc
00000150: 70c1 92bd 13f3 3cbd 03e8 513d 3be7 8ebd
00000160: 1fcc b8bc 25d8 7abd 375d 893c a89a 26bd
00000170: 9d6b 22bd 719a 99bd a3e1 bcbc e93f 933a
00000180: d52d 9e3d 3e34 fbbc bc20 713d 17a9 08bd
00000190: 4ae2 a0bc 2680 a9bb d894 1d3d a112 72bd
000001a0: a144 d8bd 3730 4c3d 6750 653d 8f61 53bd
000001b0: 86dc 4bbd 55e1 65bc a02f 90bd 098f 713d
000001c0: 8448 b93d cd26 963b a112 103d 64ca b43c
000001d0: 380e acbc 6953 ac3d 0ba1 19bd 2ca0 0fbc
000001e0: 4faf b7bc 96e3 f03c aa52 0fbd 8703 92bd
000001f0: 65f1 c33c aa5c 003b 906c 65bc 341a 9f3b
00000200: f3ac f9bc f4be d7bd 4111 8c3d b41d b8bd
00000210: f8ab fd3b ce39 2239 433b 803c d051 fbb9
00000220: 4e2d 213d 621e 843c 1107 5b3d 00c2 253d
00000230: dff1 f7bb db61 f23d 64fb c03b 60d9 e3bb
00000240: ac50 873d 2208 fe3c 2688 7bbb 1919 1fbd
00000250: 85d5 733c 7140 9a3d 9441 b73c 0a5b fabc
00000260: fbf3 2f3d 1fb2 683d be55 0dbd 8490 cc3d
00000270: 567d 813d fa72 9abd c312 b9bd 8551 813c
00000280: 1aac e7bb a077 a83d 6b1e f4bd 0fe6 f4bd
00000290: 3167 9dbd 3dc5 8bbd d40d 93bd e422 2abd
000002a0: f7d0 903d 5d96 013d a678 00bd 288c 113c
000002b0: 34c7 c43c a0b4 743d 2ebf 8cbd 9f32 b83d
000002c0: 661c e43d 48c3 b83c 3a99 5bbd 8325 fdbd
000002d0: 21ac 32bd e283 e13d d478 debc 5d27 ac3d
000002e0: e8a9 b83d 8c34 21bc 31ce a13d a747 b8bd
000002f0: ae65 46bc 00fa ab3d 9856 273d 0378 9cbd
00000300: 5230 47bd f90e e03c 1f82 893d c4b1 903d
00000310: c5a1 e1bc db56 aabc eab9 1f3d 215e 003e
00000320: 27a7 83bd 5827 e83c d999 d0bc 178a 173d
00000330: feec c23d 7abc a0bd 8dc3 51bc 8736 843d
00000340: 60b8 debd 47e3 163d b278 78bd 5ff2 903c
00000350: dc09 09bd acb9 723c b967 5e3d 29a6 74bd
00000360: aec7 d83c bff8 a63d 515a ddbd e243 ad3d
00000370: 11b2 863d 0df4 dfbd 3e65 8a3d 8d2d cbbd
00000380: a7eb 5bbd 0462 f5bc 9c9d a0bd 7053 133d
00000390: 2420 cb3d 439d a5bd 0a0c e83d 5099 043c
000003a0: 6edc a43b 72d6 03bd ea96 cc3c aa08 42bd
000003b0: dc12 c2bc 1884 d7bd 322f af3c cd3a 1d3d
000003c0: 2f62 36bc 0f09 a53d 6912 7f3c bf86 66bd
000003d0: 75d0 cd3c b15b 1e3d 1faa 65bd da17 7e3d
000003e0: 4640 ab3c 9969 09bd f8b9 99bd 7029 b63d
000003f0: df7a d33c 6914 c33c 44aa c5bd bad6 833d
0.016899273 -0.06633142 -0.02738377 -0.020933006 -0.09064873 0.08070577 0.07728269 -0.026126489
0.102056555 -0.10589146 0.03373576 0.038293567 0.052965794 0.014166767 -0.09266253 -0.022565138
0.01718499 -0.0103296 0.09992464 0.08625594 0.0872643 -0.10381442 -0.004830855 -0.05850991
-0.09319187 -0.023048978 -0.09252585 -0.08878297 0.0019523125 -0.053923294 -0.12086818 -0.018625578
0.038183447 0.020843433 0.017773846 0.035513878 -0.017199488 0.08268588 -0.038880512 0.023168737
-0.013611758 -0.10048956 0.064427935 0.08186355 -0.09826048 -0.0068521285 0.053497512 -0.0030364816
0.05555171 0.038203474 -0.018396307 0.078479126 -0.046919025 0.004237713 -0.09167209 0.06681611
0.06743585 0.039249267 -0.03753098 0.006332935 0.047012 -0.054758992 0.073416114 -0.0647342
0.044009347 -0.03414998 0.09128381 -0.069181025 0.058846544 0.09797545 -0.059209406 -0.086463004
-0.100598745 -0.07721287 -0.013510635 0.03516041 0.0015294084 -0.059134994 -0.032393903 -0.069102146
-0.033276107 0.037607167 -0.042036615 -0.027518613 -0.071658015 -0.04613025 0.051246654 -0.069776975
-0.02255827 -0.061241288 0.016768081 -0.040674835 -0.03965341 -0.075001605 -0.02305681 0.0011234257
0.077235855 -0.03066456 0.05886911 -0.03336438 -0.019639153 -0.005172747 0.038472027 -0.059099797
-0.10559965 0.04985067 0.05598488 -0.05160671 -0.049770854 -0.014030774 -0.07040334 0.0589743
0.090470344 0.004582262 0.035174016 0.022069164 -0.021002874 0.08414347 -0.0375071 -0.008766215
-0.02242246 0.029405396 -0.034990944 -0.07129579 0.023918817 0.0019586482 -0.014002934 0.0048554186
-0.030477976 -0.10534468 0.068392284 -0.089900404 0.0077414475 0.00015471058 0.015653258 -0.00047935406
0.039349847 0.016127769 0.053473536 0.040468216 -0.007566675 0.11835071 0.005889343 -0.0069534034
0.06607184 0.031009737 -0.0038380711 -0.038842294 0.01488245 0.075318225 0.022370137 -0.030560989
0.042957287 0.056810495 -0.0345056 0.09988502 0.06322734 -0.07541461 -0.09036782 0.015785942
-0.0070700767 0.08225942 -0.11919864 -0.11957943 -0.07685698 -0.068247296 -0.07180372 -0.04153718
0.07071107 0.03163754 -0.03136506 0.0088835135 0.024020769 0.05974257 -0.06872402 0.0899403
0.11138229 0.022554055 -0.053612925 -0.123606704 -0.043621186 0.11011483 -0.027157225 0.084059455
0.09016782 -0.009839188 0.07900656 -0.089980416 -0.012109203 0.08397293 0.040854067 -0.07640078
-0.048630066 0.02735089 0.06714272 0.07065156 -0.027542958 -0.020793369 0.03899566 0.12535907
-0.06428366 0.028339073 -0.025463985 0.036996927 0.09517859 -0.07848449 -0.012802971 0.06455713
-0.108750105 0.036837842 -0.06066198 0.017693697 -0.03345667 0.014814775 0.054298136 -0.059728775
0.026462402 0.08152913 -0.10808242 0.08460213 0.06576932 -0.10935221 0.06757592 -0.099207975
-0.053691532 -0.029953964 -0.078425616 0.035968244 0.0991824 -0.08086636 0.11330421 0.008093193
0.00503116 -0.032186933 0.024974305 -0.047371544 -0.023690633 -0.10523242 0.02138481 0.038386155
-0.011131807 0.080583684 0.015568354 -0.056280848 0.025123814 0.038661662 -0.056070443 0.062034465
0.020904671 -0.03354797 -0.07506174 0.08894622 0.025815425 0.023813443 -0.09651616 0.0643744

linear.bias f4 [84]
00000000: 91b6 813d 8dc2 73bd 5d66 59bd 86ec 973d
00000010: 32f4 91ba 513c 78bd e5ce a73d 69bc 60bd
00000020: faf7 98bd 5f12 4abd 97ff b43d 7be2 9b3c
00000030: 4a1f cabc 0b6f a7bd f87a b13d bf78 e3bc
00000040: 541c ac3d 4400 5f3c 201c 5a3d ce3b 4a3d
00000050: 35cd 73bd 56ef 7d3d 04ee 74bd 154f c9bd
00000060: bf24 0b3d 350a 463d a185 283d 06f4 e7bd
00000070: 8b86 183d 1c73 d3bb c8bf 3bbd 5840 c63c
00000080: 9027 c43d 617e a8bd d899 783c 767c 8f3c
00000090: d15b c73d 6193 8dbd 37b7 a3bd 90e7 863d
000000a0: 8f08 ac3d b322 98bd 4176 6bbd 31a1 68bc
000000b0: e56d 783c f645 c53d b53c 08bc e058 b2bc
000000c0: a3cd d63c ab1f 0b3d 6793 8ebd f7bc 96bc
000000d0: e8be c73d 183a f03d 6564 a1bd b3af 36bd
000000e0: 9c77 983c f416 903d da7c 37bc 451b 9fbd
000000f0: 6305 4d3d 2ba0 413d fadc dabb 3c20 8b3d
00000100: 4b59 5f3d 0501 d93d dda2 c5bd c418 2dbc
00000110: 6ac3 e03c 56aa 70bd 5c0d ddba 84d3 22bd
00000120: c1b3 8e3d 691b 943d ea88 813d c331 a4bd
00000130: 4452 75bc 5aea 9ebd 1e7c 7f3d a626 a9ba
00000140: 399f 2a3d 0f33 a23d e8f3 6bbd 4401 27bd
0.0633365 -0.05951171 -0.053076137 0.0741816 -0.0011135398 -0.060604397 0.08193759 -0.054867182
-0.07469173 -0.049333926 0.088378124 0.019028893 -0.024673123 -0.08175477 0.086660326 -0.027767537
0.08403841 0.013610903 0.05324948 0.04937344 -0.059521873 0.061995827 -0.059797302 -0.09829537
0.03397059 0.048349578 0.041143063 -0.11325841 0.037237685 -0.006452931 -0.045837194 0.024200603
0.095778584 -0.0822723 0.015173398 0.017515402 0.097343095 -0.06912876 -0.0799393 0.06587136
0.0840007 -0.07428493 -0.057485823 -0.014198587 0.01516292 0.096324846 -0.008315255 -0.021770895
0.026221102 0.033965748 -0.069617085 -0.018400652 0.09753209 0.117298305 -0.07880477 -0.044601154
0.018611722 0.07035628 -0.0111992005 -0.07768873 0.050053965 0.04727189 -0.0066791745 0.067932576
0.054528516 0.105958976 -0.09650204 -0.010564987 0.02743693 -0.058756195 -0.0016864943 -0.0397525
0.06967879 0.072317906 0.063249424 -0.08017304 -0.014973227 -0.07759543 0.062374227 -0.0012905195
0.041655753 0.07919895 -0.057605654 -0.04077269

output.weight f4 [43, 84]
00000000: 7af3 993c 9385 54bc cca9 b03d fce2 c9bd
00000010: d085 34bd 6d53 d33d db52 703d 0fa8 49bc
00000020: 84f9 f63b 27a8 f23c c9df afbd b19c ce3d
00000030: c5b6 553d 0f5e d73d 6461 fcbb 097f c53d
00000040: 071c a33d a7b9 643d 3148 dfbc 0788 6d3c
00000050: 11d2 6c3c bc90 6f3d 28bc 423d 9c8d 9d3d
00000060: 1e08 a7bd 3ede bebd 210d 97bd 94ce 903c
00000070: f603 b5bc ce26 e23c 8633 b33d 4ae3 b13d
00000080: 3436 77bc 4063 bfbc 8536 a2bd df96 bfbd
00000090: 6849 44bd 0e3e 14bd 346a 05bd f7fa e9bd
000000a0: 81f7 76bd d6bd e63d e867 35bd c968 aebc
000000b0: 8b61 a23c c3fb 9ebb 5030 683d ba74 b2bd
000000c0: c838 443d f8af 09be d49c adbd b3dc 203d
000000d0: 112a f8bd 08f3 173d 0261 b1bd ed91 bfbc
000000e0: eadb 14bd 16e6 95bd 6dcb e23d d6b1 d1bc
000000f0: 042d 82bc df31 8ebd 722e 943d eff9 b33d
00000100: eb71 0a3d a56c 183d a771 98bc 8480 d3bd
00000110: 94b9 81bd 9abd 423d 47da 393d 493c c53b
00000120: 39ee 973d 7dd9 40bd 14b4 77bd 0676 eb3c
00000130: 1509 f5bb 2305 3c3d c8e9 663c 7a1f a43d
00000140: 1b14 e43d da2b 893d 66ad 6d3c d81e b13d
00000150: a527 dbbd 95c2 b3bd 4845 d2bc 3c15 ed3d
00000160: 8568 ecbc 78c0 3bbb 1b42 e4bd ce8b 953d
00000170: c4e7 dabd 0dbb c13d 8ffd 85bd a455 313d
00000180: a4da 08bd 76df 023d 9d7e a0bd 731b 8d3d
00000190: 333e b6bd dfb6 8e3d 6713 dcbc 7c84 35bd
000001a0: e72e d33d cd1f 5ebd e77b b1bd cc40 cebd
000001b0: e0bb dfbd 8181 593c fec3 543d 1870 76bd
000001c0: 5cd7 90bd 5efa f33d ffc2 9cbc a017 083d
000001d0: ed8b 963d 80ba 083d d485 b5bd 3e84 f83d
000001e0: 37bb dbbd 0f1e dabd f23f 523d 0873 093e
000001f0: 2cb1 c7bd 1c6a 03be fac9 88bd f0bd 963c
00000200: b6da bebd db22 04be 93d7 5bbd a603 8e3d
00000210: cd62 9bbd f178 d23c a314 dcbb 54b3 953c
00000220: 6b4f 00be 7864 0b3c b701 51bd 62a7 3abc
00000230: 9197 ba3c 5ca4 cc3c 57aa 8f3d d9e9 a5bd
00000240: 0f4c f9bd 5fed b13d b0fc e33d fcaf 8a3b
00000250: e5f7 3f3d 2698 93bd a64c d73c ccfa 0bbb
00000260: 3a03 a73d b92b 883c 424c 2fbd 27da 9c3c
00000270: 2478 f43d 9ed2 b73d 1e94 b6bd 091f f53c
00000280: 0cba 91bd 8074 853c bf1c 453c c53f bb3d
00000290: 925d 0ebd 3bed 953c 6751 41bc 38f8 2e3d
000002a0: 185d ddbc 46cd ab3d 4219 94bd 56df 8bbc
000002b0: 7ff0 97bd 156b 5a3d 818d c03d e1ac 5fbd
000002c0: f464 0abd 8c22 1e3d 7b70 0ebc bb54 503b
000002d0: 2478 c3bd 495a 67bd 36ed a6b9 1d89 c3bd
000002e0: a4db 79bd 1608 84bd 2a57 06bd 6a25 afbd
000002f0: bcb9 cb3d 2f0f 503c 9216 85bb 33f0 b63d
00000300: aea5 053d e403 823d 1496 97bd a4de bcbd
00000310: 0d8f 2e3d de79 8f3d d869 b6bd 1f29 883d
00000320: 3a06 b9bd b361 a2bd 70e3 8abd 5218 1abc
00000330: 3684 c0bb ee91 a3bd b4fc c1bd 6520 b53d
00000340: 40c6 acbd 0647 2ebd c6d5 7ebc 3dbb 563c
00000350: 5358 58bd c810 55bb 0d18 d83b fb5d dfbd
00000360: 5296 263d 79d4 b83d ad9e 77bd 4a16 9fbc
00000370: a7a7 bcbd bf4d 283d 5249 9dbd e91b 2f3c
00000380: b31b 88bd f9eb 91bd 92f9 9a3d 8247 8a3d
00000390: 5162 89bd e8f4 74bd 27dc d73c dcda eb3d
000003a0: add7 893c 3a8f af3d 4dc1 5f3a 970b d2bd
000003b0: a8cd ab3d 55da a8bd 0c37 b3bd 3291 cb3d
000003c0: 79d3 603d 61f6 59bd 1ef4 cc3d bec9 6dba
000003d0: 1a2f 66bd 8e7d 823d a023 6bbc 6872 493d
000003e0: f17a 833b 6bf4 ba3d 875c fcbd 920e 03bd
000003f0: 5542 463d 757a c4bd 3ebc c03d d5e1 de3d
0.018792856 -0.0129713 0.08626136 -0.09857747 -0.044072926 0.103186466 0.058672767 -0.012308135
0.007537069 0.029621197 -0.085876055 0.1008848 0.052176256 0.10515987 -0.0077020396 0.09643371
0.0796433 0.055841114 -0.027256103 0.0144977635 0.014454381 0.05848764 0.04754272 0.076930255
-0.08155845 -0.09319733 -0.07375551 0.01767663 -0.022096615 0.027606394 0.08750062 0.0868593
-0.015088607 -0.023362756 -0.07920555 -0.09354948 -0.04792157 -0.036191992 -0.032571986 -0.11424821
-0.060294632 0.11266677 -0.044288546 -0.0212902 0.019821903 -0.0048517897 0.0566867 -0.0871367
0.047905713 -0.13446033 -0.08477178 0.039272975 -0.121173985 0.037097007 -0.08661081 -0.023385013
-0.03634254 -0.07319276 0.11073957 -0.025597494 -0.015890606 -0.06943106 0.07235421 0.087879054
0.033800047 0.037212986 -0.018608881 -0.10327247 -0.06334224 0.0475441 0.04537418 0.0060191494
0.07418484 -0.047082413 -0.06047447 0.028742801 -0.0074778893 0.045903336 0.014093824 0.08013816
0.11136647 0.06697817 0.014506673 0.08648461 -0.10700921 -0.08777348 -0.025667801 0.11576316
-0.028858433 -0.0028648656 -0.11145421 0.07302056 -0.10688737 0.09459505 -0.06542503 0.043294564
-0.033411637 0.03195139 -0.078366496 0.06890001 -0.08898582 0.06968474 -0.02686472 -0.0443158
0.1031168 -0.054229546 -0.086662106 -0.10070953 -0.10924506 0.013275505 0.051944725 -0.060165495
-0.070723265 0.11912988 -0.01913595 0.033225656 0.073509075 0.033380985 -0.08863416 0.12134598
-0.10729068 -0.106502645 0.051330514 0.13422787 -0.0975059 -0.12833446 -0.06679149 0.018401116
-0.093190596 -0.12903921 -0.053672384 0.0693429 -0.07587204 0.025692435 -0.0067163273 0.018273987
-0.12530296 0.00850784 -0.051027026 -0.011392446 0.02277735 0.024980716 0.070149116 -0.081012435
-0.1217271 0.08687853 0.11132181 0.0042324048 0.04686727 -0.072067544 0.026281666 -0.0021359203
0.08154912 0.016622411 -0.042797334 0.019146992 0.119369775 0.08975719 -0.0891497 0.029922025
-0.07115564 0.016290903 0.012030779 0.091430224 -0.034757204 0.018301597 -0.011799193 0.04271719
-0.02702193 0.08388762 -0.0723138 -0.017074268 -0.07418918 0.053324778 0.0940199 -0.05460823
-0.033787683 0.038607165 -0.00869381 0.0031788785 -0.095443994 -0.056482587 -0.00031838723 -0.09547637
-0.06100048 -0.06446855 -0.03279797 -0.08552058 0.099475354 0.012698933 -0.0040615285 0.08932533
0.032628708 0.06348398 -0.07401672 -0.09222153 0.042616893 0.07005666 -0.08906907 0.06648468
-0.09034391 -0.07928791 -0.067816615 -0.0094052125 -0.005875136 -0.07986818 -0.094720274 0.088440694
-0.08436251 -0.042548202 -0.015553897 0.0131061645 -0.052818608 -0.0032511223 0.006594664 -0.10906597
0.0406707 0.09024901 -0.06045406 -0.019419808 -0.09211665 0.04108977 -0.0768 0.010687807
-0.06645908 -0.07125086 0.07567133 0.0675192 -0.067082055 -0.059803873 0.026350094 0.115163535
0.016826475 0.0857224 0.0008535579 -0.10256117 0.08388835 -0.082447685 -0.08750734 0.09939803
0.054889176 -0.05321348 0.10007499 -0.00090708944 -0.056197263 0.06371604 -0.014351755 0.049181372
0.0040124585 0.0912865 -0.12322336 -0.031996317 0.048403103 -0.09593669 0.09410904 0.10882918

output.bias f4 [43]
00000000: 8e39 f4bd 9bca 79bd ef90 ac3d 5fd9 fdbc
00000010: 2018 de3d 70c2 223c e4a0 ca3d 8533 753c
00000020: 2933 e5bc edc8 e2bb 7ae0 0b3d 9ac3 b1bd
00000030: f807 313d 82b4 433d f82d f43c 5d26 803b
00000040: ae97 853d 4469 d9bb 47d8 2b3d 327d 36bd
00000050: 4c33 2dbd d0fb 063d 3710 60bd 87fc 4b3d
00000060: 4df8 b6bd 8254 2b3b 4d52 0e3b 12c7 50bd
00000070: 92f4 59bd 1737 f4bd 8b15 b3bd 4455 f83a
00000080: e93c 3e3d 205d 66bb 9179 643d 0199 913d
00000090: 473a a23d 43de 573d f365 103b 8e01 5e3d
000000a0: df32 55bd a662 17bd d781 a13d
-0.1192504 -0.060984235 0.084260814 -0.03098744 0.10844445 0.009934053 0.09893969 0.0149658965
-0.027978497 -0.006920925 0.034149624 -0.08679886 0.04322049 0.047779568 0.029807076 0.0039108233
0.06523071 -0.006634863 0.041954305 -0.04455299 -0.04228525 0.03295499 -0.054702964 0.049801376
-0.08934078 0.00261429 0.0021716536 -0.0509711 -0.053211756 -0.1192457 -0.08744343 0.001894631
0.046444807 -0.0035150722 0.055779997 0.07109261 0.07921272 0.0527022 0.0022033423 0.0542007
-0.052050468 -0.036959313 0.07886093

exp_avg f4 [6, 1, 5, 5]
00000000: 9ecf dabc dc4b b9bc 3550 a7bc 8790 a5bc
00000010: db7a aebc 8f48 91bc 95d6 3cbc cc26 07bc
00000020: 347c 13bc e8cd 4dbc 8f18 15bc 06b9 acba
00000030: 4498 273b 7084 443a 9a59 b3bb 74fd acbb
00000040: b4ea 3b3b 894b d53b e32b 7e3b 2db3 87bb
00000050: 3397 00bc d37d 87ba c4a2 c53a 1dd1 e0ba
00000060: 88ba 26bc f58d b2ba d43a 1a3b d7ea 003b
00000070: 552a eaba 6390 eebb 70dd c13a 6145 ae3b
00000080: 74b3 9d3b 5a70 7939 971d dcbb a194 42ba
00000090: 6366 2e3b 2a97 0b3b 4ae0 27bb 7789 22bc
000000a0: 06f7 f3bb d1c1 9fbb d2bf b6bb fbae 20bc
000000b0: 8d6a 85bc ecc4 85bc 9359 73bc 97c6 81bc
000000c0: ab0b 9ebc 8875 c3bc a2b9 483c 7963 543b
000000d0: 89c7 20bb 37d7 14bb 05c2 803b a6e1 1a3c
000000e0: ae18 ae39 eab0 a1bb 62c3 81bb 219c 623b
000000f0: 1bb7 2e3c 7da1 2f3b 9dd7 acba 612f ce39
00000100: ffb5 fe3b 978a 733c 800f 143c 127c d83b
00000110: fb0a 0f3c ebcc 783c c4e6 a43c d8b2 8c3c
00000120: f21c 853c c237 963c d572 c13c 2114 d6bc
00000130: bd3a a8bc 126e 5cbc 346f e0bb 1661 39bb
00000140: 0a59 92bc 8045 16bc 9ec5 1eb9 d530 d83b
00000150: 507c 103c 2b34 a9bb ca90 b63b d699 7b3c
00000160: db97 ac3c a722 a83c 8cca cb3b f7ca 8e3c
00000170: 36db d83c ef19 f63c 4464 d73c 88fe 443c
00000180: cf86 b33c 42d5 ea3c 09d6 ef3c 4d94 b83c
00000190: ee70 5bbc e60f a7bb 9bee 673a 5b02 153b
000001a0: 0b68 d4ba b165 ddbb a566 563b 7d9a 1f3c
000001b0: 3295 223c f41c 563b 9b4a 28bb d081 ff3b
000001c0: f39f 613c ccac 503c d28b 873b 381f ffba
000001d0: 993c f03b db81 413c f784 183c 4243 d1b9
000001e0: e7b5 a0bb 79c5 033b 1973 883b 5387 0239
000001f0: 261b 20bc 9bd9 853c 9c5e 7d3c dd00 663c
00000200: 24f6 503c 4173 4f3c 3d30 a83b 34c3 403b
00000210: 2fe9 da3a 24e2 063b 74e2 9d3b 5cc1 88bb
00000220: 5035 efbb 04f7 03bc e343 bbbb eb34 86b9
00000230: 3c43 00bc 33a5 36bc 213c 33bc e721 e1bb
00000240: 6c26 c839 54de a4bb eb96 03bc 5285 dfbb
00000250: cb2e cbba 75a7 d93b
-0.026710328 -0.02261918 -0.020423988 -0.020210518 -0.021298816 -0.017734794 -0.01152577 -0.008248996
-0.00900178 -0.012561299 -0.0091000935 -0.00131777 0.0025572935 0.00074965414 -0.005473328 -0.0052792374
0.002867383 0.0065092486 0.0038783483 -0.0041412325 -0.007848549 -0.0010337181 0.0015078415 -0.0017152164
-0.010176308 -0.0013622629 0.00235336 0.0019671225 -0.0017865399 -0.007280396 0.0014790725 0.005318329
0.0048126522 0.00023788345 -0.0067173946 -0.000742266 0.002661132 0.0021299818 -0.0025615864 -0.0099204695
-0.007445219 -0.0048753996 -0.005577066 -0.009807344 -0.016286159 -0.016329251 -0.014852899 -0.015841765
-0.019292673 -0.023859754 0.01225129 0.0032407923 -0.0024532995 -0.0022711286 0.003929379 0.009453213
0.00033206254 -0.00493442 -0.003960059 0.0034577923 0.010663773 0.0026799135 -0.0013186816 0.00039326682
0.0077731605 0.014864585 0.009036899 0.006606587 0.008730645 0.015185575 0.020129569 0.017175123
0.016249154 0.018337134 0.023614326 -0.026132645 -0.020535821 -0.013453977 -0.006849194 -0.0028286627
-0.017864723 -0.0091718435 -0.00015141672 0.006597618 0.008818701 -0.0051636896 0.0055714594 0.015356502
0.021068504 0.020524336 0.006219214 0.017430766 0.026471715 0.030041663 0.026292928 0.012023576
0.021914868 0.028666142 0.029276865 0.022531653 -0.013393624 -0.005098331 0.00088475057 0.0022737
-0.0016205324 -0.0067565073 0.003271499 0.009741423 0.009923266 0.0032671066 -0.0025679234 0.0077974573
0.013771045 0.0127365105 0.004136541 -0.001946426 0.0073314426 0.011810745 0.009309045 -0.00039913697
-0.004904497 0.0020106717 0.0041641113 0.00012448178 -0.009772098 0.016339114 0.015464451 0.014038292
0.012753997 0.012661756 0.0051327036 0.0029413225 0.0016701574 0.0020581568 0.004818255 -0.004173441
-0.0073000565 -0.008054499 -0.00571488 -0.000255979 -0.00782853 -0.011147785 -0.010939629 -0.0068704966
0.000381756 -0.0050313864 -0.008031587 -0.006821313 -0.0015501616 0.006642277

exp_avg_sq f4 [6, 1, 5, 5]
00000000: 7aba 3738 5d42 2538 6db8 1a38 060f 1b38
00000010: 4d38 2e38 7432 c837 19bf 9d37 4d12 8637
00000020: 3e2f 8937 a382 b737 cc9d 4c37 e71e 2837
00000030: af4a 1837 c21e 0737 d919 3537 5e1a 2337
00000040: 0143 2c37 adec 3037 5493 0637 4e1d 0737
00000050: 8e81 3237 d46b 3637 fb82 3037 d807 0e37
00000060: 9a58 2937 6e97 0737 a2f5 0f37 32eb 0837
00000070: 6838 0a37 8545 3e37 5e96 2237 69f0 3e37
00000080: 0dab 2a37 ac13 0337 44a8 0f37 8c1a 2c37
00000090: 4b1b 4637 8703 3037 481f 0437 dd62 0b37
000000a0: 7b1f 1b37 8509 2237 e4f7 1837 f553 1037
000000b0: 3551 3737 0cb7 3f37 f987 3937 29f4 4437
000000c0: a55a 6537 4cee 9137 b8a3 1437 e3d4 ae36
000000d0: 7ba0 fa36 d9c6 0f37 cb20 1737 0273 c736
000000e0: e91c b136 5617 2937 697a 3e37 d95b 2037
000000f0: a64d dd36 8ce4 b836 ef1d 1c37 9f59 3737
00000100: e415 3737 becd 2f37 06e0 ec36 d008 0d37
00000110: d0bf 3c37 cd15 8337 dac9 9e37 5dc7 8037
00000120: 369b 8337 73de a637 3cc6 e937 218c 3f38
00000130: 995e 1938 fde1 f037 3add c537 b028 b037
00000140: ea54 f337 f9d6 aa37 6598 8737 1bee 7a37
00000150: 2a42 6437 a1c4 8a37 b52e 8437 a881 ab37
00000160: 048a ca37 0929 ad37 dc0c 9737 8244 de37
00000170: dff2 2238 cba3 3938 e7f7 1438 ee09 c737
00000180: 9e25 1638 834c 4c38 ea65 5738 1d42 2438
00000190: 9608 9e37 bf04 8737 fc46 8b37 48a4 8c37
000001a0: 3c34 8f37 e80b 7237 af07 9237 381e be37
000001b0: 8d20 bd37 8ca0 9837 cfdd 7437 3282 c037
000001c0: d0cb 0438 898a 0238 bdfe c337 5631 7737
000001d0: 9f63 cc37 267a 0c38 9392 0c38 8488 e537
000001e0: aff2 6137 97be aa37 2fe8 e737 b19e f937
000001f0: 9686 fd37 2d3f e637 d45f f637 2c25 f937
00000200: d995 f637 3ee2 fd37 e446 7937 9328 8037
00000210: edfd 7f37 60b2 8237 d047 9337 6a98 9137
00000220: 1574 9337 8a74 8037 3ec6 4a37 8281 3637
00000230: 4fd7 cc37 d416 d037 81e5 a437 ec87 4c37
00000240: 95fe 0437 f461 d437 f5e6 d737 d38e a337
00000250: 66e2 3b37 1f6a fa36
4.380427e-05 3.940087e-05 3.688822e-05 3.696887e-05 4.1537267e-05 2.3865352e-05 1.8804845e-05 1.5982567e-05
1.6353672e-05 2.1876132e-05 1.21960875e-05 1.0020775e-05 9.077295e-06 8.053788e-06 1.0794459e-05 9.721696e-06
1.02675995e-05 1.0545523e-05 8.021325e-06 8.05345e-06 1.0639791e-05 1.0873151e-05 1.0520914e-05 8.465686e-06
1.0093814e-05 8.0818845e-06 8.580655e-06 8.160992e-06 8.238574e-06 1.1341069e-05 9.6909625e-06 1.1380857e-05
1.01726155e-05 7.812789e-06 8.562642e-06 1.025818e-05 1.1808074e-05 1.0491239e-05 7.875096e-06 8.308064e-06
9.24605e-06 9.658169e-06 9.1176225e-06 8.602617e-06 1.09265575e-05 1.1427106e-05 1.1058518e-05 1.1739358e-05
1.36705685e-05 1.7396313e-05 8.859606e-06 5.2103874e-06 7.469263e-06 8.569762e-06 9.007937e-06 5.944051e-06
5.2783766e-06 1.0078618e-05 1.1353383e-05 9.558128e-06 6.5953527e-06 5.5102337e-06 9.305294e-06 1.09285165e-05
1.0912747e-05 1.0478716e-05 7.059428e-06 8.406307e-06 1.1250333e-05 1.5626569e-05 1.8929062e-05 1.5351625e-05
1.5688693e-05 1.9892328e-05 2.7868075e-05 4.5668454e-05 3.6566144e-05 2.8715463e-05 2.3587247e-05 2.0999782e-05
2.9007399e-05 2.0365684e-05 1.6164218e-05 1.4956599e-05 1.3605264e-05 1.6542444e-05 1.5757376e-05 2.0445164e-05
2.4144545e-05 2.0642316e-05 1.800659e-05 2.6496364e-05 3.885e-05 4.425998e-05 3.5516827e-05 2.3727272e-05
3.579782e-05 4.8708647e-05 5.135491e-05 3.916222e-05 1.8839066e-05 1.6095464e-05 1.6603146e-05 1.67658e-05
1.7071252e-05 1.4427096e-05 1.7408134e-05 2.2663837e-05 2.2545713e-05 1.8194572e-05 1.4595177e-05 2.294881e-05
3.1661068e-05 3.1123436e-05 2.3364433e-05 1.4733834e-05 2.4365085e-05 3.349236e-05 3.351511e-05 2.7362497e-05
1.3467549e-05 2.035433e-05 2.7645465e-05 2.975701e-05 3.0222622e-05 2.7447555e-05 2.9370109e-05 2.9700423e-05
2.9395263e-05 3.0265302e-05 1.4858062e-05 1.5277683e-05 1.5258306e-05 1.558027e-05 1.7557206e-05 1.735632e-05
1.757782e-05 1.5313057e-05 1.2086295e-05 1.0878199e-05 2.4418956e-05 2.4806162e-05 1.9657195e-05 1.2190994e-05
7.927088e-06 2.5317982e-05 2.5737545e-05 1.9497622e-05 1.1198781e-05 7.4629347e-06

exp_avg f4 [6]
00000000: 9b35 cabb c4e4 35bb a3e3 c73b 9f9a 4e3a
00000010: 9329 15bc 1e29 093b
-0.006170941 -0.0027754763 0.0061001345 0.00078813167 -0.00910415 0.0020929049

exp_avg_sq f4 [6]
00000000: 6316 a537 23cc 8037 3eb1 ba37 548c e437
00000010: d20e 0938 1334 9337
1.9679957e-05 1.5353848e-05 2.2255463e-05 2.7245063e-05 3.2677148e-05 1.7548015e-05
