weights/weight_after_step20_7.pth (torch, 783165 bytes, 30 tensors)

conv1.weight f4 [6, 1, 5, 5]
000000 a6 1c 7b 3e 52 cd ec 3c 7e 02 4d bb d5 0b 43 3e
       0.24522647 0.028906498 -0.0031282003 0.19047482
000010 1e 1a 43 3e f9 05 4b 3e 32 21 6e 3d 2b ce 02 be
       0.19052932 0.19826497 0.058137126 -0.1277396
000020 e4 70 48 bd 7a 09 61 3e 3a 40 39 bc 13 76 06 bd
       -0.048935786 0.21976271 -0.011306817 -0.032827448
000030 a1 ef 6c be e3 d3 6d 3d cf 00 1b be 3f d5 9d 3d
       -0.23138286 0.0580634 -0.15137027 0.07706689
000040 57 9c 1a be 1e 44 51 be 9e 40 07 be 12 1a 5a bc
       -0.15098701 -0.20436141 -0.13208243 -0.01331188
000050 61 8c 28 be 3b 1c 4f be 11 01 21 be 49 d9 b9 bc
       -0.164598 -0.20225613 -0.15723063 -0.022686617
000060 3a 30 d7 3b 8a f6 64 bc 27 30 f4 bd 35 cc 91 bd
       0.0065670284 -0.013974795 -0.11923247 -0.071190275
000070 6e d0 60 bc 2e b5 91 3d 79 1f d4 bc 9a ba 76 be
       -0.0137215685 0.071146354 -0.025893914 -0.2409462
000080 cd 1b 3f be 2d 4d 28 be eb 76 96 3d 2d d5 4a be
       -0.18662949 -0.1643569 0.073469006 -0.19807883
000090 8c 6c 08 bd 7b b3 79 3c bb 03 23 3e ab 46 01 3e
       -0.033306643 0.015240545 0.15919392 0.12624614
0000a0 92 d6 ac ba a9 69 26 be 99 bb 5f be 93 73 04 3d
       -0.0013186506 -0.16251244 -0.21848907 0.032336783
0000b0 d8 11 af 3d 2b a5 43 3e 51 86 33 3e 9d f6 d6 bd
       0.08548325 0.19105975 0.17531706 -0.104962565
0000c0 b4 47 b6 3d e8 0c a0 bc c1 37 08 3d ad 2b 36 3e
       0.08900395 -0.019537404 0.033256296 0.17790098
0000d0 a8 b4 44 3e 76 d3 04 3e 5b 50 b0 3d 96 a4 6e be
       0.1920954 0.12971291 0.086090766 -0.23304972
0000e0 a7 f8 37 3e 6a 56 28 bd a5 86 cf 3d 9e b5 25 3e
       0.17965947 -0.041098036 0.10133103 0.16182563
0000f0 50 bd a4 3d 1f f2 ce bc 7b db 8f 3d 04 65 4e 3e
       0.08043921 -0.025261937 0.070242845 0.20155722
000100 31 b7 8b bd 20 4c d1 bc d0 ea 43 be 31 b3 13 3e
       -0.0682205 -0.025548995 -0.19132543 0.14423825
000110 a3 6e 1c 3e a4 2f f9 3d ae 36 9e be d7 ca 98 bd
       0.1527658 0.1216729 -0.30901092 -0.07460564
000120 20 5e 61 3b 5a 97 5c bd 47 8a 0f be 61 10 c9 3d
       0.0034388378 -0.053855278 -0.14017592 0.09817577
000130 9f 00 58 3e ce 51 9b bc 44 4f 74 3e 6d b2 3d 3d
       0.21093987 -0.018959906 0.23858362 0.04631274
000140 82 aa 96 3e a9 f7 01 3e 09 70 0b 3e 4e 73 12 be
       0.29426962 0.12692131 0.13616957 -0.14301798
000150 74 c0 20 be 8c d5 5f 3d b3 5e 12 bd f9 95 5b be
       -0.15698415 0.054647014 -0.035734843 -0.21443929
000160 92 7f af 3d a4 1b b7 bd 53 91 4a 3e 1d df 3d be
       0.08569254 -0.08940819 0.19782 -0.18542142
000170 b6 2d 89 be aa 2e 49 3d e0 92 8a be dd e7 2a be
       -0.26792687 0.049116768 -0.27065182 -0.16690011
000180 1d 0a af bc 01 2d 0d be 2e 07 59 bd d3 75 67 bd
       -0.021367127 -0.13786699 -0.052985363 -0.05650885
000190 1f 86 73 3d 9e e4 fb 3d 8a 8d bb bd 50 99 36 3e
       0.05945408 0.12299465 -0.09157856 0.17831922
0001a0 78 12 ae bd 31 d6 e5 3b a0 ba 62 be bb 30 83 be
       -0.084996164 0.007014059 -0.22141504 -0.25623116
0001b0 87 7a 34 bd 32 58 59 3d 5c 09 22 be 30 58 f9 3d
       -0.044062164 0.053062625 -0.15823883 0.121750236
0001c0 61 cc f0 bd 2d cc de 3c c9 19 20 be 5a 23 3c 3e
       -0.11757732 0.027196968 -0.15634836 0.1837286
0001d0 84 31 ef 3d 1d 08 8d 3c ca 94 d6 bd e4 2a 37 be
       0.11679366 0.017215783 -0.10477598 -0.17887455
0001e0 2a f2 03 be cd fb cb bd 83 08 6a be 18 62 d2 bc
       -0.12885347 -0.099601366 -0.2285481 -0.02568154
0001f0 e9 b9 23 3e d7 14 80 be 11 46 6c be 27 d0 3d bd
       0.15988888 -0.250159 -0.23073603 -0.046341088
000200 a5 c0 fc bd 22 09 8c be b9 7d 34 3e 0f 39 c7 3d
       -0.123414315 -0.27350718 0.17626084 0.0972768
000210 0b 4b 1e bd 43 b9 65 bd 19 22 aa 3d ef bc 12 3d
       -0.038645785 -0.056084882 0.08307285 0.035824712
000220 04 8b ce 3d eb ef e4 bc d2 84 24 3d 81 1e e6 3d
       0.10085109 -0.027946433 0.04016573 0.11236287
000230 e1 84 bc 3d 8a 62 89 3d 2b 6f 27 3e 25 76 76 3e
       0.09205032 0.06708248 0.16351001 0.24068506
000240 a2 64 34 3d e7 b5 38 3e 1e 8f 04 3e d3 ee fc bc
       0.044041283 0.1803814 0.1294522 -0.030875599
000250 52 c3 47 bd 33 3d 11 bd
       -0.048770256 -0.035458755

conv1.bias f4 [6]
000000 c6 ec 11 3d d5 f6 42 3e d1 50 88 bd 2b cf f5 3c
       0.035626195 0.19039471 -0.066560395 0.030006012
000010 92 90 00 bd 1e a1 53 be
       -0.031387873 -0.2066693

conv2.weight f4 [16, 6, 5, 5]
000000 3e 9f c2 3c db aa c3 3d df d9 9b bc 19 e7 fe bb
       0.023757573 0.095540725 -0.019024787 -0.007779014
000010 85 9b 56 bd 5c 05 17 3e e4 a6 b0 3d c7 f2 1d bd
       -0.05239441 0.14748138 0.08625582 -0.03856161
000020 b4 b4 17 bd 73 aa b9 bc 18 ec 93 3d 42 79 e8 bb
       -0.037037566 -0.022664284 0.07222766 -0.007094533
000030 33 3d 5d 39 88 86 c9 bc ae d6 09 bd f9 79 02 bc
       0.00021099001 -0.024600282 -0.033652 -0.007963651
000040 62 0b 08 3e 0d d4 2c 3c 33 c0 6f 3b de ba b4 bd
       0.13285592 0.010548604 0.0036583066 -0.088247046
000050 01 21 5e bc e9 cc bd 3d f3 4c 3f 3d 70 9a 49 3d
       -0.013557673 0.09267599 0.046704244 0.04921955
000060 92 0e 3b bd 29 7d 26 3d c2 d6 f8 3d b5 8d fe 3d
       -0.045668192 0.040646706 0.12150337 0.12429372
000070 d5 cc 9e 3d 03 f9 35 3d 2e c6 a5 b8 7b 21 76 3d
       0.07753912 0.04442693 -7.904727e-05 0.060090523
000080 83 31 a8 bc cc bf 85 3c 07 55 a8 bd 69 4b 97 3d
       -0.020531422 0.016326807 -0.08219343 0.0738743
000090 51 99 68 3d 9d 47 52 3d b1 bb 48 bd df 85 c1 bd
       0.05678684 0.051337827 -0.04900712 -0.09449362
0000a0 bc ca c3 3d 2d 09 ba 3d 6c 65 61 3c 92 18 16 be
       0.09560153 0.090837814 0.013757091 -0.1465781
0000b0 bf 39 11 be 25 0a 0b 3e 28 1a e7 3d 6a 87 f9 3c
       -0.14182185 0.13578089 0.11284286 0.030460078
0000c0 26 52 08 be 1e 76 92 bd 70 46 51 bd 87 d8 91 3b
       -0.13312587 -0.07151435 -0.051092565 0.004450861
0000d0 79 1a df bd 8b a5 5e 3c c3 82 7d bd d8 ad 3d bd
       -0.10893721 0.013589273 -0.061892282 -0.04630837
0000e0 35 2c 20 bd 16 57 b3 bd 02 e4 77 3d b6 99 54 bd
       -0.03910466 -0.08756845 0.06052018 -0.051904403
0000f0 f2 48 df bd ff 74 b2 bd db 7a 85 3b da 53 fc 3d
       -0.10902585 -0.087137215 0.0040734834 0.12320681
000100 e9 14 5b bd c0 da 2f bd 3e 59 20 3d a6 90 c7 3d
       -0.05348674 -0.042933226 0.039147608 0.097443864
000110 10 c8 19 3e 3e c5 ba 3d 81 3a 16 be 72 6f b7 bd
       0.15017724 0.09119652 -0.14670755 -0.089568034
000120 27 79 0f 3e 95 47 02 3e 5c bd 64 bd ed f9 7a 3d
       0.1401106 0.12722619 -0.05584465 0.061273504
000130 bd 4b 88 3d ee cd 2e bd 5c 6a 81 bd 0f cb 0c bd
       0.06655071 -0.04267686 -0.063191146 -0.03437334
000140 47 c1 8f 3d 69 f9 b0 bd e9 1f 37 be cc ff a1 bd
       0.070192866 -0.08641321 -0.17883267 -0.079101175
000150 ee c3 be bd 1b 2a 37 3d 23 60 60 bd 63 29 f1 bd
       -0.09314714 0.04471789 -0.054779183 -0.11775472
000160 79 0b 06 be f2 d2 94 bd 91 cd ae 3d 3c 13 c6 bd
       -0.13090314 -0.07266797 0.085353024 -0.096716374
000170 87 23 62 bd bc a2 e1 bd 53 2d f7 3d 2d d0 4e 3d
       -0.055209663 -0.11017367 0.12069192 0.0504915
000180 00 1a 89 bd 8e e2 7a bd db 0c 80 3d 8f 26 3c 3b
       -0.06694412 -0.061251216 0.06252452 0.0028709506
000190 40 87 36 3c 53 11 4f 3d a0 8e 30 3d be 9e 97 bd
       0.011140645 0.05055363 0.043104768 -0.074033245
0001a0 8e cd 56 bd c0 b9 9c 3d 98 c3 b0 3d 24 2d 07 bd
       -0.052442126 0.076526165 0.086310565 -0.033002034
0001b0 f0 bf ce bd 8e 26 a3 bd d1 3d e7 3d 07 2d 0e bd
       -0.10095203 -0.07966338 0.112910874 -0.03471091
0001c0 9d 8b b2 bd 0c b0 58 bd b0 7d 9a bd b2 57 3b 3d
       -0.08718035 -0.052902266 -0.07543504 0.04573793
0001d0 1f 88 95 3d f0 57 b3 bd 46 0c aa bd 3c 96 16 3d
       0.07301354 -0.08757007 -0.08303122 0.03676437
0001e0 58 3a f1 bb 18 59 05 3a 46 31 d6 bd d0 5b ee bd
       -0.0073616914 0.00050868234 -0.10458617 -0.116386056
0001f0 92 1c dc 3c a1 86 7f bd 9f fc 01 be 56 05 8f bd
       0.026869092 -0.06238425 -0.12694024 -0.069834396
000200 7c 89 81 bd 71 26 4b bd 28 e5 07 be dc 74 c6 bd
       -0.06325051 -0.049597207 -0.1327101 -0.09690258
000210 eb 15 ba 3c b1 82 f6 3c b5 33 08 3e fe 4b 15 bc
       0.02271553 0.030091615 0.13300975 -0.009112356
000220 74 da 69 3c 6b eb 23 3d 83 0e 9f 3c b9 6a fb 3c
       0.014273275 0.040019434 0.0194161 0.030690538
000230 56 c8 65 bc 62 53 dc bc ba aa 8d 3c b7 10 d5 3b
       -0.014024815 -0.026895229 0.017293323 0.0065022367
000240 2d 88 b9 3c 10 07 a2 3b cc 2c 94 bd 36 77 3e bd
       0.022647941 0.0049446896 -0.07235107 -0.046500407
000250 77 5f a3 bd ab 0a 9c bc 9f c3 d8 3d 87 a9 fd 3c
       -0.07977193 -0.019048056 0.10584187 0.030964626
000260 78 7d d0 3d 9c 13 e5 3d f8 56 ee 3d a6 32 10 be
       0.10180181 0.11185381 0.11637682 -0.14081821
000270 39 02 35 bd 72 8a 8e bd 59 49 81 3d 11 5e c7 3d
       -0.044191573 -0.0696 0.06312818 0.097347386
000280 be 5a 12 be 51 f4 92 bd fe b1 1e be d3 09 9c bd
       -0.14292428 -0.07175506 -0.15497586 -0.07619061
000290 0e ec 9b bb c3 76 4f bd 79 5d 62 3d 01 5e ff bc
       -0.0047583645 -0.05065037 0.055264924 -0.031172754
0002a0 7e 89 7b bd 33 95 c4 bd 2f f6 c5 3b e5 43 e1 3d
       -0.06141042 -0.0959877 0.0060413103 0.10999278
0002b0 c2 0e 3d 3d ea d4 84 bd ab d1 d6 bd 27 29 b3 3c
       0.046156652 -0.06485923 -0.1048921 0.021870209
0002c0 7b 00 d2 3d 95 f4 17 3b b0 1c 57 bc 4a 91 42 3d
       0.10253998 0.0023186554 -0.013129398 0.04750184
0002d0 02 41 c4 3c da b4 aa 3d 4f 29 a1 3d d8 2c 03 3e
       0.02395678 0.08335276 0.07869207 0.12810075
0002e0 d3 45 01 3d c4 3c dc bd 6f 22 1e bb 97 32 95 bb
       0.03156073 -0.107537776 -0.002412941 -0.00455315
0002f0 7c 8b 94 3c ec e7 79 3d 5a 60 a6 bc 7d 7f 27 be
       0.018132918 0.061012194 -0.020309616 -0.16357227
000300 c1 ff 85 bd 23 f0 c7 bd f2 3e aa bd 29 1f 18 bd
       -0.06542922 -0.09762599 -0.08312787 -0.03713909
000310 70 00 52 bd 8b 5d 24 bd 1b fe 5f 3c a7 29 80 bd
       -0.05126995 -0.040128272 0.013671423 -0.062579446
000320 a9 7a 06 be 1c 8e 55 bc 63 ea dd bd 89 10 c5 3c
       -0.13132729 -0.01303437 -0.10835721 0.024055736
000330 e5 18 a5 bd 4c 82 bd bd af f0 da bd 6a e8 ae bc
       -0.08061389 -0.09253368 -0.10690438 -0.021351058
000340 1e 31 8a bd b7 f2 14 be 3d 06 76 3d 06 fb 85 3c
       -0.067476496 -0.14545713 0.060064543 0.016355049
000350 dc ad b4 bd 54 b5 20 be 8e 67 0e be 9a 10 f9 3d
       -0.088222235 -0.15694171 -0.1390669 0.121613696
000360 e0 bc 6f 3d 42 4d 15 bd 66 34 5d bd c6 ee 77 bb
       0.058529735 -0.036450632 -0.05400505 -0.003783153
000370 4b 6f a9 3d 01 6c 9c bc 54 bd fa 3d 9c ad d6 3c
       0.082731806 -0.019094469 0.12243143 0.02620583
000380 ce be 82 bc 45 58 ad 3a 30 8e 41 3d 27 b0 28 3e
       -0.015960123 0.0013225159 0.04725474 0.16473447
000390 c8 40 38 3e d2 59 f9 3d c9 a0 d3 bd 86 a2 77 bd
       0.17993462 0.12175335 -0.10333402 -0.06045773
0003a0 55 d3 59 3d 93 11 bd 3d 74 41 42 3d 0c ab 1f be
       0.053180058 0.09231868 0.047425702 -0.15592593
0003b0 3e 60 29 be 66 23 03 be 1c 82 ca bd bb 05 2d bd
       -0.1654062 -0.12806472 -0.09888098 -0.042241793
0003c0 3e 8f 44 3d b9 ea db 3d b6 54 cc 3d d7 14 e4 bd
       0.04798817 0.10738129 0.09977095 -0.111367874
0003d0 f3 56 12 bd 48 e8 0d 3e e2 1b eb 3d 98 8a e8 3c
       -0.035727452 0.1385814 0.114799276 0.0283864
0003e0 e4 27 45 3d df 38 89 3d 8d 51 d2 3d aa 93 fc 3d
       0.048133746 0.067003004 0.10269461 0.12332852
0003f0 c4 5e cf 3d db b2 9b 3d 15 ca 1a 3e 7a 82 8f bc
       0.10125497 0.07602473 0.1511615 -0.01751827

conv2.bias f4 [16]
000000 84 5c ce 3d 18 3b 60 bd 3f ba 04 bd 3c 10 2c 3e
       0.1007624 -0.054743856 -0.03240418 0.16803068
000010 7d d1 c5 bd 0e d4 a5 3d 0b dc 35 3d ad d0 f2 3d
       -0.09659097 0.08097087 0.044399302 0.11856208
000020 a6 fa af 3d 62 8c 08 3d cb 04 23 bd 00 22 c9 3d
       0.08592729 0.033337004 -0.039799493 0.09820938
000030 38 39 d6 3d 02 af ee 3b 6b 6a 8c 3d d0 4c cb bd
       0.10460132 0.007284046 0.06856235 -0.0992676

conv3.weight f4 [120, 16, 5, 5]
000000 6d ef 32 bc 49 44 df 3c bb f5 6e 3c f3 8b 31 bd
       -0.010921341 0.02725424 0.014584954 -0.043346357
000010 ec fc d0 bc be 6c c4 3c 0b 3b fe ba d4 32 15 bd
       -0.025511228 0.023977634 -0.0019396258 -0.036425427
000020 49 a5 8d bc b6 49 39 bd 84 2f 8f 3d 0f 8f 7b bd
       -0.017290728 -0.04523631 0.06991485 -0.06141573
000030 78 fb b8 bd 53 e3 0b 3e 70 db ff 3a 85 0a b4 3c
       -0.09032339 0.13660936 0.0019520354 0.021977672
000040 be 7c b5 bd 15 ce ad bd da 1b 20 bb dd 14 80 3c
       -0.08861683 -0.08486573 -0.0024430663 0.015634948
000050 40 8b e4 3c be 86 56 ba 25 f6 a0 3d 2c 1c af bc
       0.02789843 -0.00081835303 0.07859448 -0.021375738
000060 23 32 f9 3c 9d b9 4d bd c1 92 cb bc de 91 e9 bc
       0.030419415 -0.050225843 -0.024850251 -0.028511938
000070 73 41 aa bc ab 06 94 bc 6d 96 c0 bb 3c 48 20 bc
       -0.020783162 -0.018069586 -0.005877307 -0.009782847
000080 c3 3d 59 bd 1b c4 7a bd 05 e5 2d bd 78 ea 8d 3d
       -0.053037416 -0.061222177 -0.04245474 0.06929487
000090 46 39 e8 3d e2 1d 72 3a db 32 3b bd 8a b7 c2 3d
       0.11339049 0.000923602 -0.045702796 0.095076635
0000a0 16 32 9c bd 64 78 0f 3d ae c1 76 3c 95 88 79 bd
       -0.07626741 0.035026923 0.015060825 -0.06092127
0000b0 fb db 9c bd d4 1a 20 bc bf da d8 bb 46 0b f7 3d
       -0.076591454 -0.009772021 -0.0066178734 0.12062697
0000c0 50 e9 01 3e b2 88 97 3c e0 4f 81 3d 12 61 45 ba
       0.12686658 0.018497799 0.06314063 -0.0007529418
0000d0 13 ae 0d 3d f9 63 96 3d 01 41 91 3d e6 10 00 3d
       0.03458984 0.07343287 0.07092477 0.031266116
0000e0 bd 5b bf bd 94 9f 1f bc a0 36 37 3d 49 7f b5 bd
       -0.093436696 -0.009742636 0.04472983 -0.08862168
0000f0 28 46 e8 3c 0b 07 a0 3d a2 34 70 3c 03 a4 9c bc
       0.028353766 0.07813843 0.014660986 -0.019121176
000100 a1 75 97 3d bb cb 8f 3c e0 fa 81 3c 5a ba 99 bc
       0.07395483 0.017553201 0.015866697 -0.018765617
000110 ea ce de bc 87 a0 31 3d dd 75 d8 bc a2 ba d3 bb
       -0.027198274 0.04336598 -0.02642339 -0.0064614573
000120 72 c3 f6 3c 29 48 a6 bd 95 7d 61 3c 92 92 f6 3c
       0.030122492 -0.08119232 0.013762851 0.030099187
000130 1d 9c 4f 3d 82 79 1e bd 6f d9 0d bc 5e 38 55 3b
       0.05068599 -0.038690098 -0.008657797 0.0032534818
000140 4f d1 2f bd d1 27 9d 3d c1 3d 8b bc e8 86 07 bd
       -0.04292422 0.0767361 -0.01699722 -0.03308764
000150 2e 69 2c 3d 97 26 1c bd e4 05 c0 bc 29 83 4d 3d
       0.042092495 -0.03812274 -0.023440309 0.050173912
000160 ca 05 14 3d 85 6a f4 3c 87 d3 5b bd 7e d2 b9 bd
       0.036138333 0.029835949 -0.053668525 -0.09073351
000170 45 22 0d 3d dd 7c 9c 3d a8 9c 3e 3c d8 12 07 3c
       0.03445651 0.07641003 0.011634029 0.008244239
000180 55 da 56 bd 14 50 8b 3c 37 cf ea 3d 93 4b 72 3c
       -0.05245431 0.017005958 0.11465304 0.014788526
000190 fe 2c 1b bd 00 f5 4f ba 23 82 e3 bc 01 4b cc bc
       -0.037884705 -0.0007932931 -0.027772015 -0.024938108
0001a0 de bb 7b bd d2 db 0d bd 72 4c 7b bc 06 25 de bd
       -0.06145846 -0.034633465 -0.01533805 -0.108469054
0001b0 71 cf c0 3c 33 35 0c 3b 0d 1b 2d 3d af e1 87 bd
       0.023536416 0.0021394014 0.042262126 -0.066348426
0001c0 65 2e 99 bd 8c 5e 9f 3d 7e 4b a7 3c 66 d9 ae bc
       -0.07479552 0.07781705 0.02042174 -0.021343898
0001d0 94 ae 13 bd 02 40 3f 3d eb 0c 30 3d fb 8f 03 bd
       -0.036055163 0.046691902 0.04298107 -0.032119732
0001e0 89 67 4a 3a 5d 4c da 3c f7 e6 ab 3c bc 65 02 bb
       0.00077211164 0.026647741 0.020984156 -0.0019897064
0001f0 2c 9a 2a 3d 25 b5 1d 3c f2 12 22 3d 54 8d 6f 3d
       0.041650936 0.009625708 0.03956885 0.05848439
000200 5e 49 07 3d d7 b1 e0 bc 55 fa 32 3c f5 e3 41 3d
       0.033028953 -0.02742855 0.010923942 0.047336537
000210 7d 62 8d bd 7a dc c1 bd 5e c1 a3 bd dd 06 50 3d
       -0.06903551 -0.09465881 -0.07995866 0.050787795
000220 54 54 78 bc c7 64 81 bd fb 55 73 bc 52 90 15 3d
       -0.015156824 -0.0631805 -0.014852042 0.036514588
000230 cb 89 9f 3c bf c3 b7 bd 52 dd 4a bd e8 1d 57 3d
       0.019474884 -0.089728825 -0.049527474 0.052518755
000240 3f 2e 89 bd 11 e7 3d 3c d5 8f c6 bc 76 90 93 3c
       -0.06698274 0.011590735 -0.024238506 0.01801322
000250 9a a4 84 3d 72 1f 08 3d 17 66 5b bc f0 29 e3 bc
       0.06476708 0.033233114 -0.013391039 -0.027729958
000260 84 bb 24 3d 34 a9 7c 3c 26 f3 af 3c 11 77 18 bd
       0.04021789 0.015421201 0.021478247 -0.037222926
000270 4c 1b a6 3d 82 16 80 bd b2 10 6e bd f9 2f 96 3c
       0.08110675 -0.06254293 -0.05812139 0.018333422
000280 fa 86 a9 3c 23 54 b5 3d 3f a2 e0 bc 78 f0 70 bd
       0.020694245 0.088539384 -0.027421115 -0.05882308
000290 b3 3a 8b 3d c7 b3 0d bc 96 d2 25 3c e9 2d 49 bc
       0.06798305 -0.008648819 0.010121008 -0.012279012
0002a0 6a 7e a9 bd 3b 88 c4 bc ce a0 f4 bc 52 60 dc ba
       -0.08276065 -0.023990741 -0.029861834 -0.0016813374
0002b0 ab a4 f8 3b 7d 8b 33 3d 89 c4 46 3c e6 8d 85 3b
       0.0075879893 0.0438342 0.012131819 0.0040757535
0002c0 dd ff 8e bc 00 b5 94 bc 89 34 16 bd 22 6e bf bd
       -0.01745599 -0.018152714 -0.036671195 -0.09347178
0002d0 a1 8c db 3c 34 42 dd bc 9e 28 a9 bd d9 c3 6e 3b
       0.026800456 -0.027009107 -0.082597 0.0036432652
0002e0 b0 d2 a0 3d 85 37 a5 bb f6 0a 15 bd 58 dc 04 3c
       0.078526855 -0.005042019 -0.036387406 0.008109175
0002f0 c9 1f 8f 3d fc f1 86 3d 4a d1 2c 3d c6 d5 40 3d
       0.069884844 0.065891236 0.04219178 0.04707887
000300 0f c5 ae 3d 68 46 a0 3d cd 05 12 bd 77 75 99 bb
       0.0853368 0.07825929 -0.035650063 -0.0046831924
000310 8c 37 59 b9 26 87 b8 3d 11 44 ba 3c fc 22 9d 3b
       -0.00020715425 0.090101525 0.022737535 0.00479543
000320 30 d4 00 ba 55 14 97 bd f5 77 bf 3c 8b 61 29 3b
       -0.0004914431 -0.07376925 0.02337263 0.0025845494
000330 8e 54 2a bc 33 96 08 3d 86 48 b6 bd aa 7b a3 bd
       -0.010396136 0.033346366 -0.089005515 -0.079825714
000340 af b4 28 bd 5f d5 22 bd 5d 73 70 3d b4 30 cf 3c
       -0.04118794 -0.039754268 0.05870377 0.025291778
000350 d6 c7 9d 3c 09 f0 00 3d f7 8f 79 3d 6d 70 b3 bd
       0.019260328 0.031478915 0.06092831 -0.08761678
000360 02 11 94 3d d4 de bd bc 61 c2 d3 bd f1 0a fe 3c
       0.072298065 -0.023177542 -0.10339809 0.031011077
000370 77 fa d6 bc d4 ad 4c 3d aa 50 8b 3d 74 44 df 3c
       -0.026242478 0.049970463 0.06802495 0.02725432
000380 7d 28 e0 3c 42 f5 3d 3d 02 88 d4 3c db fd 27 3d
       0.027363056 0.046376474 0.02594376 0.04101358
000390 3b 50 6f 3d a0 fc f8 3c 83 47 c0 bb 14 16 3f bd
       0.058426123 0.030393898 -0.0058679 -0.046651915
0003a0 58 c9 3a 3b 28 1d 87 bd 67 a6 04 bd 23 12 95 3d
       0.0028501358 -0.06597358 -0.032385256 0.0727885
0003b0 81 ed 58 3d 92 8f 70 bd aa 71 f3 bc c3 c5 a0 bc
       0.052960876 -0.05873067 -0.029717285 -0.01962555
0003c0 a2 37 cd 3c b3 86 f9 3c 84 02 42 bc 81 61 ad bc
       0.025050942 0.030459737 -0.01184142 -0.021164658
0003d0 11 e1 f2 bc ca be 04 bd b3 1a c6 bc f3 7d cc bc
       -0.029648336 -0.032408513 -0.024182653 -0.024962401
0003e0 06 8b 11 3d 3f 1e 4a bc ad 35 95 bc cf 76 f1 3b
       0.035532974 -0.012336313 -0.018214071 0.0073688994
0003f0 33 a8 19 3b 8d d8 78 bd f2 09 cc bc e3 f7 b3 3c
       0.0023446202 -0.060753394 -0.024907086 0.021968788

conv3.bias f4 [120]
000000 fd 33 02 3c a0 9c 7c 3d 9f 56 31 3c 1d ae 0f bd
       0.007946965 0.061672807 0.010823875 -0.035078157
000010 53 01 9c 3c 99 83 ab 3c 2d 72 09 bc e5 14 33 bd
       0.0190436 0.020936774 -0.008389038 -0.0437211
000020 77 4c 9d 3d 5f 90 e9 bc e0 ed 88 3c 89 0e bd 3c
       0.076806 -0.028511224 0.01671499 0.02307822
000030 89 7d 76 bc 0b 64 4f 3d 2c ab d1 bd 94 96 cf 3c
       -0.015044578 0.050632518 -0.102377266 0.025340356
000040 03 98 04 3d 28 e0 d5 bb 95 64 fd 3b 49 e1 10 bd
       0.032371532 -0.0065269656 0.0077329376 -0.0353711
000050 25 a9 47 bd 93 97 d3 3b 39 10 1e bd a8 81 88 3b
       -0.048745293 0.006457278 -0.03858969 0.004165847
000060 c9 67 7d 3c e3 27 b0 bd de 18 5e 3d 58 bb 17 bd
       0.015466639 -0.08601358 0.054222934 -0.0370439
000070 89 6c 8a 3d 43 4c 3c 3c fe cb 09 3d bb fb be bd
       0.06758983 0.011492792 0.033641808 -0.093253575
000080 5d 6a ab bd 9a 94 39 bd 2c 9c 0d bc 0f 7a e3 bc
       -0.083698966 -0.045307733 -0.008643191 -0.027768163
000090 83 bd a7 3d eb 5d 3a bd 45 9c 78 3d ac d8 e1 3c
       0.08190443 -0.045499723 0.060695905 0.027569138
0000a0 bb 91 8a bd af 42 41 3d 5e 37 21 bd d6 9e 14 bd
       -0.06766077 0.047182735 -0.039359443 -0.03628429
0000b0 b8 9b 00 3d e6 49 30 3d ff 66 2e 3c 1c ef 25 3d
       0.031398505 0.043039225 0.010644673 0.040511236
0000c0 1e 25 0c 3c 6a 59 cf bc a4 13 63 bd b5 10 80 3c
       0.008553771 -0.02531119 -0.055438653 0.015632967
0000d0 f8 ba e6 bc 6f ba 60 bc 97 7d 3b 3d c5 ae 5e bd
       -0.028165326 -0.013716324 0.04577407 -0.054365892
0000e0 88 08 6b bd 80 66 49 3c 8b 76 14 bd 3f 52 f4 3c
       -0.057381183 0.012292504 -0.036245864 0.029824374
0000f0 87 c8 29 bd d7 c2 0d 3d 81 06 96 bb c4 c5 88 bc
       -0.041451003 0.034609642 -0.004578412 -0.016695864
000100 da 57 08 3d 0c f2 a3 bd 7d 30 3c bc 2a 4c fb bc
       0.033286907 -0.08005151 -0.01148617 -0.030675966
000110 c2 b3 4f bd c6 76 8b bd e9 dc 16 bd 25 c8 00 bd
       -0.05070854 -0.068097636 -0.03683177 -0.031440873
000120 95 69 8a bc b6 f8 17 bd ef 39 92 3c ef 0a 04 bc
       -0.016896049 -0.037102424 0.01784989 -0.008059247
000130 8c 73 90 3d e4 a2 01 bd a9 c0 73 3c ab f0 80 bd
       0.07053289 -0.031649485 0.014877477 -0.06295904
000140 76 51 62 bd 81 ca 75 bc f4 ae 49 3d 5f f0 f3 3b
       -0.05525347 -0.015001894 0.049239114 0.007444426
000150 10 c4 fa 3c 92 df 14 3d 37 1d f9 3b 4a 2a b9 bc
       0.030611068 0.036346026 0.0076023596 -0.022603173
000160 ee 98 e0 3c de a3 64 bb 9a c5 63 3d d6 4d b8 3d
       0.027416673 -0.0034887712 0.05560837 0.08999221
000170 19 07 8f 3b c8 da 9a bd 47 ea 9f 3c 11 33 e1 bc
       0.00436486 -0.075612605 0.019520892 -0.02749017
000180 2c fe a2 bc 42 18 a8 bc 5c 64 ec 3c 87 ff 67 bd
       -0.01989659 -0.02051938 0.028856449 -0.056640174
000190 3a a6 a2 bd 6f b4 b0 3d 92 db 85 3c 27 5d ff 3c
       -0.079418615 0.08628165 0.01634005 0.031172348
0001a0 56 38 91 bd 3b cd 80 3d bc 83 b1 bc a1 0b 38 3c
       -0.07090823 0.062891446 -0.021669261 0.011233241
0001b0 2a fa b6 3b f8 b4 c8 bc 3f 72 8e 3d fb 6f fb 3b
       0.005584021 -0.024500355 0.069553845 0.007673261
0001c0 2e df fe 3b 76 ad 3b bd 07 28 70 3c cf db 30 bd
       0.00777807 -0.045819722 0.014657981 -0.043178376
0001d0 c3 93 7c bd 73 8c 8a bc 76 08 ee 3c 26 4e 79 bc
       -0.061664354 -0.016912675 0.029056769 -0.015216386

linear.weight f4 [84, 120]
000000 0b b4 5c 3c 30 16 53 bd 6b 03 71 bd c6 d4 17 bc
       0.01347066 -0.05153483 -0.05884115 -0.009267038
000010 28 e1 0b be 67 51 94 3d aa 06 8f 3d b9 33 6f bd
       -0.13660109 0.07242089 0.06983693 -0.058398936
000020 54 72 0d 3e 01 b2 52 be f9 32 be 3d 24 11 b0 3d
       0.13813144 -0.20575716 0.09287066 0.08597019
000030 ef 36 7f 3d a0 f2 19 bc 7b e9 ec bd 64 60 96 bd
       0.062308248 -0.009396225 -0.1156797 -0.07342604
000040 06 fa 1f bd 2e 58 02 bc c5 96 03 3e 98 40 c8 3d
       -0.0390568 -0.007955594 0.12850483 0.09777945
000050 0b 1f e5 3d 14 ca 20 be a8 45 0d 3c dd 12 f8 bc
       0.111875616 -0.15702087 0.008622564 -0.030282432
000060 b1 55 99 bd 3d 99 e3 3c 39 3e e2 bd 41 8d f9 bd
       -0.074870475 0.02778303 -0.11047024 -0.12185145
000070 40 c0 99 3c 55 29 73 bd 61 79 32 be 72 76 f4 3c
       0.01876843 -0.05936559 -0.17429115 0.029841635
000080 89 6a 90 3d 0a a5 66 bb 49 78 27 3d 37 82 94 3d
       0.0705157 -0.0035193586 0.040886197 0.07251399
000090 eb 39 9a bd 54 01 03 3e c8 89 35 bd 37 68 5f 3d
       -0.07530578 0.12793475 -0.04432085 0.054542746
0000a0 04 4f d3 3c 88 70 2d be 24 36 f5 3d 00 33 c1 3d
       0.025794514 -0.16937459 0.11973217 0.094335556
0000b0 e6 5e c7 bd 1c 16 42 3c 82 68 cd 3d 04 31 bd bc
       -0.09734897 0.011846092 0.10029699 -0.023094662
0000c0 d9 fe d0 3c f0 9d 51 3d 4d 6c bc bc 8f 98 83 3d
       0.025512146 0.05117601 -0.02300086 0.064255826
0000d0 ac 86 a2 bc e9 b9 5a 3b 98 53 12 be 04 1b 3c 3d
       -0.019839607 0.0033374971 -0.14289701 0.0459242
0000e0 3b b7 f3 3d 5f d0 86 3d 92 57 4d bd f8 ff de bc
       0.11900183 0.065827124 -0.05013234 -0.027221665
0000f0 54 b6 09 3d be 1c 94 bd 3c 9a 91 3d db 2f 1e bd
       0.033621147 -0.07232045 0.07109496 -0.038619857
000100 19 73 77 3d 4d 9e 12 3c af 73 f0 3d 13 93 9f bd
       0.0604125 0.008948875 0.11740815 -0.07791724
000110 47 44 5a 3d 27 35 00 3e 64 e4 8c bd d8 72 e0 bd
       0.05328777 0.12520276 -0.068794996 -0.10959405
000120 75 fb 0f be 3f b9 98 bd e8 c1 33 3d 94 7e ae 3d
       -0.14060767 -0.07457208 0.043886095 0.085202366
000130 6b 6e 85 bc 23 17 de bc 56 7d 82 bc 84 cd c7 bd
       -0.016288003 -0.027110642 -0.015928905 -0.09755996
000140 c7 df aa bc 60 d0 5b 3d 4d 24 b2 bd e5 fc 0f bd
       -0.020858658 0.05366552 -0.0869833 -0.03515329
000150 e6 0a 0c be 63 9f 5f bd 7c 01 cc 3d 86 ef 98 bd
       -0.13676032 -0.054595362 0.099612206 -0.074675605
000160 12 7e 82 3b f8 3b 90 bc ea c4 80 bc 7a 45 43 bd
       0.003982314 -0.01760672 -0.015718896 -0.04767368
000170 2f c6 fb bc 69 42 b0 bd 74 cd 61 bd 85 de cb bc
       -0.03073415 -0.08606417 -0.055127576 -0.024886379
000180 1b e9 84 3d 5f 45 7d bd 29 fb 85 3d 74 ed 78 bd
       0.06489774 -0.061833736 0.065420456 -0.060773328
000190 5a eb 05 3d b9 ff 69 bc 11 af 87 3d d7 dc 87 bd
       0.032695152 -0.01428216 0.06625188 -0.06633919
0001a0 74 b3 00 be 18 80 a5 3d f0 58 f5 3d 45 fb 4a bd
       -0.12568456 0.080810726 0.11979854 -0.049556036
0001b0 17 0a ae bd 1f 02 9a bc 53 d6 7f bd 56 67 b7 3d
       -0.08498018 -0.01879984 -0.062460255 0.08955257
0001c0 4d 1a 0c 3e ae af 16 bd 78 15 2a 3d 0f ef 6b 3d
       0.13681908 -0.036788635 0.04152438 0.05760103
0001d0 ab b0 59 3c 37 b1 d2 3d 33 07 46 bd 25 22 5a ba
       0.01328675 0.10287707 -0.04834671 -0.0008321128
0001e0 0d ce 52 bc 86 4c f4 bc 2f 2a 72 bd fb eb bb bd
       -0.012866509 -0.029821645 -0.05912226 -0.09175869
0001f0 42 61 27 bd 38 cc 68 3c 92 b1 f1 bc 75 e9 3d 3b
       -0.040864237 0.014208846 -0.029503617 0.0028978263
000200 3a 27 01 be f1 7f de bd 5b 70 bd 3d 37 be 1e be
       -0.1261262 -0.10864247 0.09249946 -0.15502249
000210 92 69 11 bc 82 45 cd 3c 8c 52 8c 3d 24 78 38 bc
       -0.008875268 0.025057558 0.06851682 -0.0112591125
000220 64 59 08 3d 51 73 66 3c 2a f9 54 3d 56 3b 08 3d
       0.033288375 0.0140655795 0.051995434 0.033259712
000230 14 d8 dc bb 9d e8 40 3e b2 ea 5d 3c 16 a6 89 3b
       -0.0067396257 0.18838735 0.013544725 0.004200707
000240 d9 6b d1 3d 67 c7 1c 3d 0b aa b6 3b c9 87 6f bd
       0.102256484 0.038276102 0.00557447 -0.058479104
000250 42 88 d4 ba 85 94 db 3d 87 76 26 3d 55 9c 30 bc
       -0.0016214924 0.10721687 0.04064038 -0.01077946
000260 3d 3a 3d 3d 8d 00 ba 3d 28 c2 44 bc 96 c4 dc 3d
       0.04619812 0.09082136 -0.012009181 0.10779683
000270 bf cb d7 3d f3 ed 31 bd 2c 41 0b be ae eb 92 bb
       0.10536908 -0.043439817 -0.1359908 -0.0044836616
000280 8f d7 81 bd f4 98 0d 3e 7b 76 2b be fe 2e 29 be
       -0.06339943 0.13827878 -0.16744415 -0.16521832
000290 59 61 d4 bd 8f c5 ef bd 2a 68 e9 bd e3 0a 5e bd
       -0.1037013 -0.11707603 -0.11396821 -0.0542096
0002a0 c7 0d 4f 3d 8f 77 00 3c 4e 7b 35 bd 15 34 85 3d
       0.05055025 0.007841005 -0.044307046 0.065040745
0002b0 a9 ed a7 3c 1d 1a 9a 3d dd d6 81 bd f8 c3 cf 3d
       0.020499067 0.07524512 -0.0633981 0.101448
0002c0 02 1e 17 3e 76 53 38 3d cf 6b 22 bd 93 dd 51 be
       0.14757541 0.04500147 -0.039653596 -0.2049468
0002d0 31 6a 02 bd 8d 92 22 3e 9c 77 b2 bd 24 27 d2 3d
       -0.031839553 0.15876217 -0.0871422 0.10261372
0002e0 85 5e c6 3d 0f 70 dc bc e8 59 fb 3d 04 86 c5 bd
       0.09685997 -0.026908902 0.12273008 -0.09644702
0002f0 3d 03 16 bd 2b af d6 3d a4 a8 c0 3d 5a 6f e9 bd
       -0.036624182 0.104826294 0.09407166 -0.11398192
000300 3f 50 20 bd ce 6f ab 3d cf 2f 0e 3e 85 45 f2 3c
       -0.03913903 0.083709344 0.13885425 0.029574165
000310 b0 74 be 3b ff f2 82 bb 5f 24 54 3c 8f 6c 3e 3e
       0.00581225 -0.0039962525 0.012948125 0.185961
000320 94 c4 bc bd 39 fb de 3d 02 27 83 bd 43 66 4e 3d
       -0.09217182 0.10887761 -0.064039245 0.050390493
000330 0d c3 42 3e f7 73 d7 bd 03 62 61 bd ce 88 da 3d
       0.19019718 -0.105201654 -0.055025112 0.10670625
000340 c0 2f 51 be 2c 5a 81 3d ca 24 55 bd 57 62 a2 3c
       -0.20428371 0.06316027 -0.052037038 0.019822283
000350 5d d6 ff bb bd 62 c1 3c 4e a8 77 3d c4 79 d2 bd
       -0.0078075365 0.023606652 0.060463242 -0.10277131
000360 97 75 ab 3d 1b 3a 28 3e d7 98 14 be 97 fb c8 3d
       0.08372038 0.16428415 -0.14511429 0.09813612
000370 24 b4 e3 3d 39 52 33 be ff b4 09 3d de 49 b4 bd
       0.111183435 -0.17511834 0.033619877 -0.088031515
000380 c9 9b 26 bd 43 1f b4 bc ba 8b e2 bd 0e da 32 3d
       -0.040675912 -0.021987563 -0.11061807 0.043664984
000390 00 a0 2c 3e 8a cd 7c bd d4 ab 1d 3e 0b b4 b5 bc
       0.1685791 -0.061719455 0.15397578 -0.022180578
0003a0 d8 f7 b5 3c a3 e3 7e bd a4 9d 2c 3d ab 14 16 3b
       0.022212908 -0.06222881 0.042142525 0.0022900503
0003b0 93 92 f6 bc 81 0c e8 bd 84 59 d3 3b 62 e8 bc 3a
       -0.030099189 -0.1133051 0.00644988 0.0014412517
0003c0 bf 0d 85 bb d7 dd cb 3d 8d 43 ea 3d 91 4d 8f bd
       -0.0040604766 0.09954422 0.114386655 -0.069972165
0003d0 23 55 20 3d 76 fc 30 3d df f3 41 bd ca 67 c0 3d
       0.039143693 0.043209516 -0.047351714 0.09394796
0003e0 32 49 87 3c 6e 1d 67 bc 6a 71 b2 bd 89 5d 11 3e
       0.016514394 -0.014106138 -0.08713038 0.14195837
0003f0 a4 42 0d 3d 27 37 6f 3d c1 16 ff bd 66 9b bb 3d
       0.03448738 0.058402207 -0.12455512 0.09160499

linear.bias f4 [84]
000000 4b 50 88 3d aa 03 7c bd 69 e2 0f bc 63 79 11 3d
       0.0665594 -0.06152693 -0.008782008 0.035516154
000010 62 1e 2d bb d4 10 97 bd 49 6b 5f 3d 51 df 9a bd
       -0.0026415815 -0.073762566 0.054545674 -0.075621255
000020 00 f4 5b bd 6a 2a f4 bc 6b 14 af 3d 78 5e 46 3d
       -0.053699493 -0.02980538 0.08548816 0.048429936
000030 7a 32 c8 bc 2a 0a c4 bd d7 25 f3 3d f7 fb 4f bd
       -0.024438132 -0.09572251 0.11872452 -0.0507774
000040 f6 b7 f5 3d 70 fa 57 3c ab fd a6 3c 20 98 2e 3d
       0.119979784 0.013182268 0.02038463 0.042625546
000050 4e 63 8c bd 6b b0 a8 3d d7 c2 3e bd 6e d4 dd bd
       -0.06854878 0.08236774 -0.046572533 -0.10831533
000060 33 9e 39 3d 7d 87 aa 3c 36 7e 87 3d 26 7c 0c be
       0.045316886 0.020816559 0.0661587 -0.13719234
000070 e3 53 a7 3c 99 c2 c7 bc fb 5a 69 bd 60 62 d8 ba
       0.020425742 -0.024384784 -0.05697153 -0.001650881
000080 87 05 b2 3d a6 e3 9e bd cc 02 e9 3c 12 a5 09 bc
       0.086924605 -0.07758264 0.028443716 -0.008401172
000090 1f 65 c6 3d 15 f8 76 bd 74 86 99 bd 81 18 83 3d
       0.09687256 -0.060295183 -0.07496348 0.06401158
0000a0 a3 7b 8a 3d 9a 9e 8c bd f6 85 90 bd e5 be 57 bd
       0.06761863 -0.06866188 -0.07056801 -0.052672286
0000b0 63 73 a8 3c 83 72 f5 3d ee f8 c8 3c 78 82 3a bc
       0.020562833 0.11984732 0.024532761 -0.011383645
0000c0 d2 3a 5b 3d 09 0b 1c 3d 4f b7 58 bd 6d 2c e1 bc
       0.053522892 0.03809646 -0.05290919 -0.027487004
0000d0 7f 67 b8 3d 17 73 fa 3d 2e 39 84 bd 62 64 5f bd
       0.09004115 0.12228983 -0.06456219 -0.054539092
0000e0 7d 18 1b 3d a4 c8 a8 3d 5c 11 c3 bc cc 36 e2 bd
       0.03786515 0.08241394 -0.023811989 -0.11045608
0000f0 5f 20 94 3d 27 30 19 3d 8a e2 a9 bc 0d 45 9d 3d
       0.07232737 0.037399437 -0.020737905 0.07679186
000100 cd 54 ed 3c f7 1d d5 3d 9d 3b bb bd 8a 63 d2 bc
       0.0289711 0.10406106 -0.0914223 -0.02568223
000110 88 08 78 bc 36 c1 13 bd 41 5a 05 bd 98 35 6f bd
       -0.015138753 -0.036072932 -0.032556776 -0.05840072
000120 73 8d 9d 3d 03 e1 ae 3d 26 c0 7a 3d c1 33 8f bd
       0.07692995 0.08539011 0.061218403 -0.06992293
000130 73 a3 db bc bb 75 80 bd 3e 21 8a 3d cd df 9d ba
       -0.026811337 -0.06272455 0.06744622 -0.0012044847
000140 7d bf ec 3c 3b fc 25 3d ef 5a 1c bd 79 47 52 bd
       0.028899902 0.04052375 -0.03817266 -0.051337693

output.weight f4 [43, 84]
000000 c1 d9 95 3d 0b 86 93 bd 2b 37 fd 3d 32 d8 7b bd
       0.07316924 -0.07203301 0.12364038 -0.061485477
000010 a3 06 ca bd 62 5f 17 3e 22 f2 47 3d 3b a5 28 bd
       -0.09864547 0.1478248 0.0488149 -0.0411732
000020 ba 39 59 3d db df 77 3d a1 e4 04 be 0b 7c 93 3d
       0.053033568 0.06051622 -0.1297784 0.07201394
000030 1e 8a 04 3c 19 9d 0b 3e 8d 50 5f 3d ec 90 29 3e
       0.00808957 0.13634147 0.05452018 0.1655919
000040 a0 25 22 3d 5d 20 bd 3d 1d 4d 83 bd 29 ad a5 3d
       0.039586663 0.092346884 -0.064111926 0.08089668
000050 6e ca 84 3d 2e b8 d7 bb 87 f8 29 3d fb b6 a8 3c
       0.06483923 -0.006583235 0.04149678 0.020595064
000060 66 3d fc bd 67 76 70 bd 06 a1 db bd 17 a7 00 bd
       -0.12316398 -0.058706667 -0.10724072 -0.03140935
000070 20 2c 92 bd b0 e6 53 3d 7e 97 93 3d 13 67 0a 3e
       -0.071373224 0.051733673 0.07206629 0.13515882
000080 13 94 72 bd e8 86 1a 3d f5 0c 0b be d6 f5 45 bd
       -0.059223246 0.037726313 -0.13579161 -0.04833015
000090 15 c6 83 bc 26 b2 96 bd f3 e7 23 bd 55 ff a4 bd
       -0.016085664 -0.07358198 -0.040016126 -0.08056513
0000a0 2a dc ad bd 43 7e c5 3d 54 d7 ba bd 81 7c 01 bd
       -0.084892586 0.09643223 -0.09123102 -0.031612877
0000b0 a6 3e 08 bd 7b 6b cd bc 06 90 1f bb 44 34 95 bd
       -0.03326287 -0.025075665 -0.002434732 -0.072853595
0000c0 f7 fe 0d 3d 6f 8b 0b be cd c5 a5 bc 0a 45 43 bc
       0.03466698 -0.13627408 -0.02023592 -0.011918316
0000d0 ee 33 24 be 26 54 18 bd fd 98 01 be cb d0 51 bd
       -0.16035435 -0.037189625 -0.12656017 -0.05122451
0000e0 39 2d 06 be 66 31 16 be 2f c8 9d 3d b1 4f 3a bd
       -0.13103189 -0.14667282 0.077041976 -0.045486156
0000f0 0a 60 77 bd 6a 4b 7a bd 76 f2 be 3c 86 47 9d 3d
       -0.060394324 -0.061107077 0.023308974 0.07679658
000100 9e 74 9a 3d f2 f4 fd bc 2c cf e9 bc 4a 1b f7 bd
       0.07541774 -0.031000588 -0.02854117 -0.12065752
000110 66 89 dc bc 80 53 6e 3d 10 c0 09 3c 0a a2 f4 3c
       -0.026920985 0.0581851 0.008407608 0.029862422
000120 ec 58 01 3e dd 39 16 bc 84 1e fd bd af f8 88 3d
       0.12631577 -0.009169069 -0.12359336 0.06688058
000130 ee 92 e3 bc 9c b0 34 3d 15 e7 c7 3c 26 c0 f1 3d
       -0.027780022 0.04411374 0.02440218 0.118042275
000140 c6 ba be 3d cd 63 cb 3d 3a 52 aa bc 2b 92 fe 3d
       0.09312968 0.09931145 -0.020791162 0.12430223
000150 6e eb 02 be 4b 99 b8 bd 84 c3 30 3b b1 3e e4 3d
       -0.12785122 -0.09013613 0.0026972005 0.1114477
000160 57 ff 63 bd f4 d0 2f 3d 7c 43 d6 bd 42 54 a1 3d
       -0.055663433 0.042923883 -0.104620904 0.07877399
000170 55 1c e5 bd d3 67 cc 3d e9 e4 03 be 9a 17 c5 3d
       -0.111870445 0.099807404 -0.12880291 0.09623642
000180 6c e4 5c bd 8f 39 43 3d 37 9f 80 bd b5 bc ae 3d
       -0.053928778 0.047662314 -0.06280368 0.08532087
000190 a8 df 34 be 93 33 e4 3d 99 30 1b bd c7 89 83 bd
       -0.17663443 0.111426495 -0.037888143 -0.06422763
0001a0 be ca 00 3e a2 f5 6a bd 80 20 c4 bd ce 9a 0f be
       0.1257734 -0.05736316 -0.095765114 -0.14023897
0001b0 3f da d0 bd f3 9a 0c 3d 07 f6 4a 3d f5 d2 88 bd
       -0.10197877 0.03432746 0.049551036 -0.06680862
0001c0 33 d5 a6 bd 1b 1d 07 3e a6 0c 4f bc f9 85 0a 3e
       -0.08146133 0.13194697 -0.012637293 0.13527669
0001d0 5d 13 52 3d dc 65 be 3d 15 a5 cb bd b9 e3 0b 3e
       0.051287998 0.09296772 -0.09943596 0.13661088
0001e0 b0 36 f4 bd 03 19 f3 bd 3c 10 95 3d 9d 74 29 3e
       -0.11924493 -0.11870005 0.07278487 0.1654839
0001f0 f8 84 00 be 76 ef 06 be cf f7 a2 bd 7c ad 11 3a
       -0.12550724 -0.13177285 -0.07957422 0.0005557162
000200 ae 66 ba bd 51 cd 07 be ab 3c 6b bc ab 6d 98 3d
       -0.09101616 -0.13261916 -0.014357726 0.074427925
000210 65 fd 7d bd 47 44 aa 3b 4b c7 a1 3b b4 85 5f 3c
       -0.062009234 0.0051961276 0.0049370877 0.013642717
000220 b7 dc 1a be ff 9c 33 bd 39 52 74 bd 40 bf 1c bd
       -0.15123259 -0.043850895 -0.059648726 -0.038268328
000230 2f ed 75 bb 85 9e e7 bc 22 86 9e 3d a3 cb c9 bd
       -0.0037525406 -0.02827383 0.077404276 -0.09853294
000240 c5 77 0f be d5 d7 e8 3d a6 de cc 3d 9e 5c d9 3b
       -0.14010532 0.11369292 0.10003404 0.0066333553
000250 b3 96 66 3d 1b f9 02 be 38 8d 9e 3d 0c e1 00 bc
       0.05629606 -0.12790339 0.07741779 -0.007866155
000260 1d f1 aa 3d d8 00 89 ba 47 b6 b4 bd fa bc a8 3c
       0.0834677 -0.0010452522 -0.08823829 0.020597924
000270 5e 7b 10 3e e8 fa c3 3d fb 46 0c be 25 82 c1 3c
       0.14109561 0.09569341 -0.13698952 0.023621628
000280 5f f1 b9 bd d1 85 16 3d 42 e6 19 3c 41 48 b7 3d
       -0.09079241 0.03674871 0.009393277 0.08949328
000290 36 b0 00 bd 59 3f b8 3b 69 b4 50 bd 2f f4 95 3d
       -0.031418048 0.005622786 -0.050953303 0.07321965
0002a0 94 5a 1e bd 38 d5 a9 3d 80 48 ec bd aa ba a4 bc
       -0.0386606 0.082926214 -0.11537266 -0.02010854
0002b0 f3 f1 c2 bd cd 80 e4 3d 1c c5 b0 3d 30 4e 8f bd
       -0.095188044 0.11157379 0.08631346 -0.06997335
0002c0 ec 00 81 bd 95 90 c3 3c 72 98 5e 3c 87 68 b8 bc
       -0.06299004 0.023872653 0.0135861505 -0.02251078
0002d0 69 dd 08 be 74 c1 80 bd 99 1d 8a bc cf fb 00 be
       -0.13365711 -0.06286898 -0.016859816 -0.12596057
0002e0 c4 94 06 be 2c 06 ef bd 1d eb 4f bd 70 cb c3 bd
       -0.13142687 -0.11671099 -0.05076133 -0.09560287
0002f0 ff 02 05 3e bb 14 39 3d 11 b6 c2 3c e4 02 fe 3d
       0.12989424 0.045185786 0.023768457 0.12402895
000300 e8 9e 2f 3d ff 06 cc 3d 72 74 a4 bd 14 e5 dc bd
       0.042876154 0.09962272 -0.08030023 -0.10785881
000310 5d ca 24 3d 32 2d a5 3d 3a 60 fa bd d0 0f bd 3d
       0.04023205 0.08065261 -0.12225385 0.092315316
000320 ad 61 f2 bd 82 1b b2 bd aa 4e 5f bd c8 1f 36 bc
       -0.118350364 -0.08696653 -0.05451838 -0.011115976
000330 39 1e ab bc 41 68 e1 bd ff 4e d9 bd 57 5f d7 3d
       -0.020888435 -0.11006213 -0.106107704 0.105162315
000340 8b ce e1 bd 0d b2 7d bd fc c0 03 ba 6b bc 4f 3d
       -0.11025723 -0.06193738 -0.00050260103 0.0507168
000350 01 cf a3 bd 55 0d f7 bc db 5b 3b 3d 86 53 21 be
       -0.07998467 -0.030157724 0.045741897 -0.15754518
000360 ab db dc 3c 4c c2 f2 3d 88 75 c0 bd a3 c4 d6 3c
       0.026960215 0.118534654 -0.09397417 0.02621681
000370 f2 9d fa bd 90 51 54 3d fb 70 b9 bd eb 79 4b 3d
       -0.12237157 0.051835597 -0.090547524 0.049676817
000380 57 fa b5 bd bf 1f 8b bd d7 11 ce 3d e3 f4 7e 3d
       -0.08885639 -0.067931645 0.100619964 0.06224526
000390 e8 c3 ad bd 8c ec 4b bd b9 68 97 3d 95 ac 07 3e
       -0.08484632 -0.049786136 0.07393021 0.13249429
0003a0 86 f1 47 3c 51 e1 da 3d ca 5f 82 3a b7 76 fc bd
       0.01220358 0.10687507 0.000994676 -0.123273306
0003b0 3a b7 b7 3d db 5d b3 bd d4 a9 0f be 6e d3 ed 3d
       0.089704946 -0.08758136 -0.14029628 0.11612593
0003c0 fb 49 99 3d 55 47 41 bd d8 97 35 3e e8 94 d3 bc
       0.07484814 -0.04718717 0.17733705 -0.02582784
0003d0 04 0b 85 bd 05 1c 8f 3d 71 0c 5b bc f3 d6 75 3d
       -0.06496242 0.06987766 -0.0133696655 0.060019445
0003e0 ab 86 da 3c 33 9c b2 3d 44 4d 1e be 5f 67 76 bd
       0.026675543 0.08721199 -0.15459162 -0.060157176
0003f0 87 31 92 3c 60 48 ec bd 71 ed 15 3e fa 38 06 3e
       0.017845882 -0.11537242 0.14641358 0.13107672

output.bias f4 [43]
000000 14 e1 e4 bd 47 d0 94 bd e3 7f 9d 3d d2 ab d9 bc
       -0.11175743 -0.07266288 0.07690408 -0.026571188
000010 af 0c bc 3d e5 ed 55 3c 97 37 b8 3d 92 ec a2 bb
       0.09182107 0.013057207 0.08994978 -0.004972049
000020 52 b9 a5 bc ac b7 07 bd 40 8c 54 3c fe b7 d2 bd
       -0.02022997 -0.033134148 0.012972891 -0.10289
000030 27 88 a9 3d 27 e1 71 3d df b3 d6 3c a6 42 d1 3c
       0.08277922 0.059052613 0.026208816 0.025544476
000040 3c 1a 78 3d 16 2c 93 bc 7b bd 29 3d b7 ae 42 bd
       0.060571894 -0.017965358 0.04144047 -0.047529902
000050 2c b6 a1 bb 09 63 69 3d 7d 95 45 bd 97 ff 70 3d
       -0.0049350467 0.056979213 -0.048238266 0.0588375
000060 95 f7 b4 bd c7 40 aa 3b a2 5e a0 bb 9c 1a 51 bd
       -0.08836285 0.0051957103 -0.0048940936 -0.051050767
000070 4a bc 26 bd 8b 25 ff bd fc 6e ba bd 56 2d b7 bb
       -0.04070691 -0.12458333 -0.091032 -0.0055901213
000080 12 35 43 3d c3 e4 5f bc 05 07 85 3d ca a4 75 3d
       0.047658034 -0.013665381 0.064954795 0.05997161
000090 20 94 99 3d 78 56 4b 3d 8a ea 3c bc f0 a8 6c 3d
       0.07498956 0.04964301 -0.011530528 0.0577783
0000a0 ae bd 07 bd d0 0a 20 bd 23 f3 99 3d
       -0.033139877 -0.03907281 0.07517078

exp_avg f4 [6, 1, 5, 5]
000000 54 7f 7d bc 65 99 91 bc 68 75 96 bc d9 5e 96 bc
       -0.015472252 -0.01777334 -0.01836653 -0.018355774
000010 41 0f 97 bc 5c 9d 79 bc 56 d0 7e bc 6e fe 73 bc
       -0.01843989 -0.015235271 -0.015552601 -0.014892204
000020 41 d6 7f bc 28 e9 8c bc 8f 14 5e bc 0e 7c 3a bc
       -0.015615047 -0.017201021 -0.013554706 -0.011382116
000030 f4 f7 1f bc 1d 5d 37 bc a0 e9 5f bc ef f1 47 bc
       -0.0097637065 -0.0111916335 -0.01366654 -0.012203678
000040 f8 8d 05 bc 7d 86 c2 bb 13 e1 e2 bb be 29 0f bc
       -0.008151524 -0.0059364424 -0.0069238036 -0.008737979
000050 40 e3 49 bc cb e2 02 bc 05 37 9f bb a0 7e 58 bb
       -0.012322247 -0.007988642 -0.0048588538 -0.0033034459
000060 de 30 2a bb 99 6d 98 3b d7 14 5a 3b 0c 7d 63 3a
       -0.0025969069 0.004651737 0.0033276582 0.0008677996
000070 46 1c 05 bb 04 f8 a7 bb 9f db b0 3b 1a 8b bb 3b
       -0.0020311042 -0.0051260013 0.0053972746 0.0057233693
000080 d5 3b 8e 3b df c6 fb 3a 30 20 b4 ba a7 44 c0 3b
       0.0043406286 0.0019209048 -0.0013742503 0.005867559
000090 5b e3 ee 3b 6a 74 e3 3b 3c 1a b4 3b 0c f9 36 3b
       0.0072902865 0.006941368 0.0054962914 0.002791944
0000a0 6a 6e b6 3b db 55 e0 3b c0 d5 e4 3b ac 97 e0 3b
       0.0055673616 0.0068461723 0.006983489 0.006854018
0000b0 f9 da c4 3b 94 5a 4a 3b d6 52 5e 3b 6c 7c 80 3b
       0.006007549 0.0030876743 0.0033923886 0.0039210822
0000c0 d0 f3 ba 3b b6 c8 f8 3b 02 c5 d9 bc 79 3f e8 bc
       0.0057053342 0.007592286 -0.026583198 -0.028350579
0000d0 25 3d e8 bc ca e1 db bc fa 1a be bc 25 a8 c8 bc
       -0.028349468 -0.026841063 -0.023206223 -0.02449424
0000e0 b6 dd e1 bc 67 38 ef bc 32 44 f0 bc 52 6f dc bc
       -0.02757154 -0.0292017 -0.029329393 -0.02690855
0000f0 1e 7d b0 bc f3 df c9 bc 46 ac de bc b3 0f ec bc
       -0.021544036 -0.02464292 -0.027181756 -0.02881608
000100 67 59 e7 bc dd 48 9b bc dd 1a ad bc 49 c5 c2 bc
       -0.028240873 -0.018955642 -0.021130973 -0.023775714
000110 7f a9 d7 bc 77 92 e1 bc c8 5e 8e bc 95 9d 94 bc
       -0.02632594 -0.02753566 -0.01737918 -0.018141547
000120 13 e8 a4 bc 55 90 ba bc 37 41 cf bc 92 fb a5 bc
       -0.020130193 -0.022773901 -0.025299652 -0.02026156
000130 ca df ae bc 6f 45 9d bc 0d 6f 6a bc 84 ad 13 bc
       -0.021346945 -0.019198148 -0.014308703 -0.009013537
000140 a4 77 b1 bc a8 fa a3 bc 09 97 81 bc 9a 0f 2e bc
       -0.021663494 -0.020016983 -0.01581909 -0.010623837
000150 fa cf e1 bb c4 df a8 bc bc 55 82 bc d0 cb 29 bc
       -0.006891248 -0.020614512 -0.015910022 -0.010363534
000160 af 1d ba bb 1a 27 84 bb 65 af 97 bc d2 4a 3b bc
       -0.005679808 -0.0040329816 -0.018516252 -0.011431413
000170 45 16 b1 bb 02 f6 0e bb 29 df 14 bb a1 43 87 bc
       -0.005404266 -0.0021814113 -0.0022716022 -0.01651174
000180 4a 67 0d bc 68 60 57 bb 83 d2 8c ba f3 44 84 ba
       -0.008630583 -0.003286386 -0.001074389 -0.0010091349
000190 ba 3b c2 3b 21 28 af 3b 82 3b 81 3b bf 70 02 3b
       0.00592753 0.00534536 0.0039438615 0.0019903628
0001a0 0b d7 5f b9 e7 d5 c6 3b b5 d5 e0 3b 11 0e d8 3b
       -0.00021347047 0.0060679796 0.0068614134 0.0065934737
0001b0 a0 56 a4 3b 11 71 1e 3b 50 92 c9 3b 30 7b 02 3c
       0.0050152093 0.002417628 0.006151475 0.0079639405
0001c0 c8 05 0f 3c 68 7c 01 3c 26 6a b7 3b 4d a1 bf 3b
       0.008729406 0.007903196 0.0055973707 0.005848086
0001d0 43 53 05 3c a4 d7 1d 3c 1a 79 1f 3c 4f a0 0b 3c
       0.008137527 0.009633932 0.009733463 0.008522107
0001e0 a4 98 9d 3b 54 33 e6 3b 41 50 10 3c 2f 39 23 3c
       0.004809456 0.0070251618 0.0088081965 0.009962364
0001f0 3d aa 27 3c 83 67 e3 3c 91 c9 05 3d f1 59 10 3d
       0.010233459 0.02775932 0.03266293 0.035242025
000200 ff 17 16 3d a0 9b 17 3d 42 d2 e0 3c 69 76 f9 3c
       0.03664398 0.03701365 0.027444009 0.03045197
000210 ab 7e 04 3d 0c d5 0a 3d cc 96 0e 3d 18 2a d2 3c
       0.032347362 0.033894584 0.03481178 0.025654837
000220 92 9a d8 3c a3 c3 e0 3c b2 11 ed 3c b5 dd f5 3c
       0.026440892 0.027437037 0.028939102 0.030012945
000230 11 6a c6 3c ab 4b bc 3c 0d 38 b9 3c 27 a4 bd 3c
       0.024220498 0.0229853 0.022609735 0.023149563
000240 b5 6a c2 3c 0b 47 c6 3c 71 07 b1 3c 16 67 9f 3c
       0.023732523 0.024203798 0.021609994 0.019458335
000250 6c f6 92 3c 70 ef 8a 3c
       0.017939769 0.016959876

exp_avg_sq f4 [6, 1, 5, 5]
000000 8a 0f cd 39 0d c7 e0 39 19 d9 f3 39 92 03 00 3a
       0.00039112224 0.00042872914 0.00046510322 0.00048833445
000010 d6 fa 03 3a 65 fc a5 39 4b e3 ac 39 49 31 b4 39
       0.0005034631 0.000316593 0.00032975743 0.00034368996
000020 f6 1e b7 39 c3 c8 be 39 7e 9b 85 39 4b c1 80 39
       0.00034927548 0.00036389203 0.00025483588 0.00024558077
000030 73 60 81 39 35 76 7a 39 90 23 81 39 78 e2 6e 39
       0.00024676658 0.00023885893 0.00024631293 0.00022781815
000040 3d 8f 45 39 ee f5 38 39 c0 f9 2c 39 d2 df 34 39
       0.00018840744 0.00017639223 0.00016496237 0.00017249517
000050 5f e2 82 39 c6 39 35 39 1b ac 17 39 28 9e 13 39
       0.00024964192 0.00017283027 0.00014464596 0.0001407793
000060 18 ab 2d 39 37 29 2d 39 d2 3a 15 39 77 05 24 39
       0.00016562303 0.0001651392 0.0001423166 0.00015642295
000070 41 fa 58 39 d1 c3 9a 39 2e c8 04 39 ed 90 ce 38
       0.00020692592 0.00029519064 0.00012663074 9.84984e-05
000080 0e 74 d9 38 5a c1 11 39 3e fb 5b 39 6e c6 0f 39
       0.00010368983 0.00013900307 0.00020979063 0.00013711464
000090 9b 9e e5 38 9c 3d e3 38 a1 4b 0a 39 05 f0 44 39
       0.000109491135 0.00010835679 0.0001318888 0.00018781431
0000a0 f0 12 43 39 9f 32 22 39 a1 c6 19 39 b1 4e 2c 39
       0.00018603704 0.00015468382 0.00014665212 0.00016432513
0000b0 7c 13 60 39 4a 79 90 39 05 98 73 39 db 25 5f 39
       0.00021369563 0.00027556188 0.00023230918 0.0002128104
0000c0 1d 9e 67 39 e3 ca 87 39 6d 63 a3 39 15 7d 72 39
       0.00022088778 0.0002590037 0.0003116386 0.00023125515
0000d0 ca 33 43 39 6a e0 42 39 ff 3f 7c 39 f0 22 8b 39
       0.00018615942 0.00018584882 0.00024056433 0.00026538176
0000e0 d2 8d 4a 39 9a be 25 39 5f 18 21 39 d4 bb 46 39
       0.00019317053 0.00015806631 0.00015363235 0.00018952723
0000f0 f6 78 88 39 0b 00 4d 39 4e 22 33 39 43 c3 35 39
       0.00026030064 0.0001955034 0.0001708355 0.00017334246
000100 63 59 58 39 4e 32 99 39 c6 d6 73 39 4d 2b 5e 39
       0.00020632664 0.00029219914 0.00023254295 0.000211877
000110 89 12 69 39 45 8d 88 39 81 69 b8 39 cb da 9e 39
       0.00022227516 0.00026045195 0.0003517382 0.00030299122
000120 1e a6 94 39 6c b1 9b 39 f5 da b1 39 0b c9 c8 39
       0.00028352527 0.00029696093 0.00033923207 0.0003829676
000130 6e ba cb 39 07 23 d0 39 d7 f0 d5 39 b9 06 de 39
       0.00038858078 0.0003969895 0.00040805966 0.00042348148
000140 54 2b bc 39 16 8f b0 39 ef 58 a9 39 2c f3 a6 39
       0.00035890436 0.00033675943 0.00032300453 0.00031843164
000150 79 93 a8 39 01 60 aa 39 b3 9b 98 39 c2 a3 8f 39
       0.00032153333 0.00032496455 0.00029107704 0.00027397095
000160 b3 9f 89 39 10 a3 84 39 22 18 9e 39 3a f2 8c 39
       0.00026249661 0.00025298493 0.0003015409 0.00026883354
000170 0d 05 86 39 be 28 7d 39 be 97 6b 39 61 88 96 39
       0.00025562235 0.00024143138 0.00022467875 0.0002871184
000180 0c 44 89 39 36 d0 86 39 48 c4 83 39 d5 af 82 39
       0.00026181375 0.000257136 0.00025132508 0.00024926537
000190 9e d0 29 39 5d 61 0d 39 44 88 03 39 9b 0b 07 39
       0.00016194812 0.00013483079 0.00012543896 0.00012878927
0001a0 2a 08 1b 39 c9 fd f5 38 8d aa b4 38 35 dd 9b 38
       0.00014784993 0.000117297815 8.6148364e-05 7.432179e-05
0001b0 e1 6e 93 38 37 3c a7 38 9b f0 bd 38 c9 f6 88 38
       7.030159e-05 7.9743964e-05 9.0570386e-05 6.530953e-05
0001c0 ed a4 7c 38 c2 ed 67 38 21 43 75 38 92 af a8 38
       6.023508e-05 5.529612e-05 5.847507e-05 8.043567e-05
0001d0 dc 99 7f 38 28 6e 84 38 71 cd 86 38 f9 89 96 38
       6.094003e-05 6.314769e-05 6.4278844e-05 7.178257e-05
0001e0 c6 25 c7 38 f9 7e 9c 38 11 e5 9f 38 e7 4c b0 38
       9.496095e-05 7.46231e-05 7.624378e-05 8.406658e-05
0001f0 28 90 dc 38 63 e4 2d 3a 52 62 3c 3a 8f f9 45 3a
       0.00010517269 0.00066334585 0.0007186282 0.0007552141
000200 01 70 49 3a b9 1a 46 3a da f1 11 3a 90 35 16 3a
       0.00076842314 0.00075570826 0.000556735 0.00057300273
000210 d7 87 19 3a 1c bc 1c 3a f0 a9 1f 3a 58 0e f7 39
       0.00058567285 0.0005978958 0.00060906913 0.00047122198
000220 7f 06 f1 39 c8 e2 ed 39 6d 7c f0 39 a5 c8 fb 39
       0.00045971942 0.00045373128 0.00045869072 0.00048023943
000230 28 c9 d7 39 f5 c7 c4 39 17 5a bb 39 0e c7 bb 39
       0.0004115787 0.00037533013 0.00035734542 0.00035815727
000240 2b 60 ca 39 03 ab d3 39 5f 23 b4 39 96 6e a7 39
       0.00038600093 0.0004037247 0.0003435863 0.00031935115
000250 52 d7 a8 39 7b 39 ba 39
       0.00032203883 0.0003551951

exp_avg f4 [6]
000000 b5 50 c7 bb 27 52 b7 bb b1 d7 82 bc 77 ee b7 bb
       -0.006082619 -0.00559451 -0.01597199 -0.005613144
000010 71 41 ed 3b 6b 3a 86 3c
       0.0072404672 0.016385278

exp_avg_sq f4 [6]
000000 eb 78 5a 39 1a 18 d0 38 68 28 4b 39 7e d2 63 39
       0.00020835146 9.922702e-05 0.00019374641 0.00021726821
000010 e6 39 e4 38 e1 5b a7 39
       0.000108826716 0.00031921177
