weights/weight_after_step20_3.pth (torch, 783165 bytes, 30 tensors)

conv1.weight f4 [6, 1, 5, 5]
0	0x3e610c39	0.21977319
1	0x3b74aeb2	0.0037335572
2	0xbce7c9cf	-0.028294472
3	0x3e284f89	0.1643659
4	0x3e259f26	0.16173992
5	0x3e3611d0	0.17780232
6	0x3d336e3b	0.043806296
7	0xbe0ebf9d	-0.13940282
8	0xbd86a7a2	-0.06574942
9	0x3e44bdf6	0.1921309
10	0xbcba4f2d	-0.022742832
11	0xbcdf200c	-0.02723696
12	0xbe5f8f02	-0.21831897
13	0x3d7aae63	0.061201464
14	0xbe2f66ad	-0.17129011
15	0x3d8fab8f	0.07015144
16	0xbe052fb8	-0.13006485
17	0xbe2f5c43	-0.17125039
18	0xbddf8791	-0.10914529
19	0xbcaf332f	-0.02138671
20	0xbe385002	-0.1799927
21	0xbe4526cc	-0.19253081
22	0xbe06c517	-0.13161121
23	0xb99d725a	-0.00030030572
24	0x3b353fc8	0.0027656425
25	0xbc94aa09	-0.018147485
26	0xbdf4670d	-0.11933718
27	0xbda83ded	-0.082149364
28	0xbd11eae1	-0.03562439
29	0x3d26e0db	0.040741783
30	0xbca96288	-0.020676866
31	0xbe60d5d0	-0.21956563
32	0xbe30aea2	-0.17254117
33	0xbe2e02b3	-0.16993217
34	0x3d4106c0	0.047125578
35	0xbe497e9e	-0.19677207
36	0xbc44b2b9	-0.012005501
37	0x3d16067b	0.036627274
38	0x3e27bb18	0.16379964
39	0x3dd5d2ca	0.104405954
40	0xbc49bbcf	-0.012312843
41	0xbe22dc2e	-0.15904304
42	0xbe5acdd7	-0.21367584
43	0x3ce24acf	0.027623562
44	0x3d8073f5	0.06272117
45	0x3e290404	0.16505438
46	0x3e1ede98	0.155146
47	0xbdffc552	-0.12488808
48	0x3d890498	0.06690329
49	0xbd435bab	-0.047694843
50	0x3d37ff4b	0.0449212
51	0x3e2f5e5a	0.17125836
52	0x3e364742	0.1780062
53	0x3df92611	0.12165464
54	0x3dc2a5df	0.09504294
55	0xbe5e265c	-0.2169432
56	0x3e2e65d5	0.17031033
57	0xbd883650	-0.06650984
58	0x3d987ba0	0.074454546
59	0x3e1e999a	0.15488282
60	0x3ddda879	0.10823149
61	0xbca27be7	-0.019834472
62	0x3d6aa94a	0.057290353
63	0x3e3913fc	0.1807403
64	0xbd9e0c4b	-0.077171884
65	0x3c410578	0.011781089
66	0xbe2c9f99	-0.16857757
67	0x3e1b040c	0.15138263
68	0x3e18b3a2	0.14912274
69	0x3df716cd	0.12064896
70	0xbe894f3d	-0.26818267
71	0xbd2c8f37	-0.042128768
72	0x3cd063ff	0.025438307
73	0xbd2970a4	-0.041367188
74	0xbe05efda	-0.13079777
75	0x3d6006e3	0.054694068
76	0x3e2aa291	0.16663577
77	0xbd66ed55	-0.05637868
78	0x3e5c1757	0.21493278
79	0x3d1a9901	0.037743572
80	0x3e8189ba	0.2530039
81	0x3dbe6301	0.09296227
82	0x3ded1eae	0.11578117
83	0xbe179060	-0.14801168
84	0xbe1c7990	-0.15280747
85	0x3cb6d6b0	0.022319168
86	0xbd48f301	-0.04905987
87	0xbe555b64	-0.20835644
88	0x3dd66f1b	0.104704104
89	0xbd8ff464	-0.07029036
90	0x3e361415	0.17781098
91	0xbe35f85a	-0.1777052
92	0xbe77f7e5	-0.24215658
93	0x3da6c828	0.081436455
94	0xbe7bd22a	-0.2459189
95	0xbe37c76c	-0.17947167
96	0xbba18697	-0.0049293744
97	0xbddf2f25	-0.10897664
98	0xbcc1fab7	-0.02367912
99	0xbd24b947	-0.040215757
100	0x3d31c512	0.04340083
101	0x3de7d79d	0.11320422
102	0xbdd01400	-0.10160065
103	0x3e271eb6	0.16320309
104	0xbdd82415	-0.10553757
105	0xbb4641bf	-0.003025159
106	0xbe5c2412	-0.21498135
107	0xbe7ae1e3	-0.24500231
108	0xbd2801f5	-0.04101749
109	0x3d20d032	0.03926105
110	0xbe293d68	-0.16527331
111	0x3e0f3bfb	0.13987724
112	0xbdbb4002	-0.09143068
113	0x3d393679	0.045217965
114	0xbe264568	-0.16237414
115	0x3e2f8095	0.17138894
116	0x3e07bbff	0.13255309
117	0x3d2cbe57	0.04217371
118	0xbdb222fb	-0.08698078
119	0xbe3c421d	-0.18384595
120	0xbe1cee6d	-0.15325327
121	0xbdd21c45	-0.10259298
122	0xbe6434b1	-0.22285725
123	0xbcc63c93	-0.024198806
124	0x3e154484	0.14576918
125	0xbe6eb076	-0.23309502
126	0xbe54ec48	-0.20793259
127	0xbcaa66a0	-0.020800889
128	0xbdc44985	-0.09584335
129	0xbe78eeaa	-0.24309793
130	0x3e3c531f	0.18391083
131	0x3ddbfa9e	0.10741161
132	0xbcce8fe6	-0.0252151
133	0xbd17c366	-0.03705158
134	0x3de26192	0.11053766
135	0x3cfdc175	0.030976037
136	0x3dbce7dc	0.09223911
137	0xbd09aa9e	-0.03360998
138	0x3d36af7b	0.044600945
139	0x3e079af3	0.13242702
140	0x3da94fdc	0.08267185
141	0x3d41f71d	0.047354806
142	0x3e13c7a3	0.14431624
143	0x3e6dec9f	0.23234795
144	0x3d667436	0.05626317
145	0x3e3a4f1f	0.18194245
146	0x3def60d1	0.11688388
147	0xbd40638d	-0.04696994
148	0xbd6d6555	-0.057957966
149	0xbcd0a5fd	-0.025469774

conv1.bias f4 [6]
0	0x3d331208	0.043718368
1	0x3e202e59	0.1564268
2	0xbdac63f1	-0.084175
3	0x3d21cbd7	0.039501037
4	0xbc49d315	-0.012318392
5	0xbe43787a	-0.19088927

conv2.weight f4 [16, 6, 5, 5]
0	0x3c516b09	0.012781867
1	0x3da71608	0.08158499
2	0xbcd0490a	-0.025425453
3	0xbb216fbe	-0.0024633254
4	0xbd1d3e99	-0.038389776
5	0x3e04eec5	0.12981708
6	0x3d90d960	0.07072711
7	0xbd1a15d9	-0.03761849
8	0xbca99ba9	-0.020704107
9	0xbc6c7aa4	-0.014433537
10	0x3d76b84a	0.060234345
11	0xbc64733a	-0.013943488
12	0x3c9541fc	0.01821994
13	0x3a38e838	0.0007053646
14	0xbcc995a6	-0.02460749
15	0xbc95426f	-0.018220155
16	0x3de3c69b	0.11121865
17	0x3c2e198e	0.01062621
18	0x3ca61034	0.020271398
19	0xbda4f2b6	-0.08054106
20	0x3bbf7f7a	0.005844054
21	0x3dc14582	0.09437086
22	0x3d4618b3	0.0483634
23	0x3d5c9be0	0.05385959
24	0xbd30e3e5	-0.043186087
25	0x3d25b809	0.040458713
26	0x3df16b0f	0.11787998
27	0x3de9c46e	0.11414419
28	0x3d90af40	0.07064676
29	0x3d463f9d	0.04840051
30	0xbc4153ef	-0.0117997965
31	0x3d35f434	0.044422343
32	0xbd1dabea	-0.03849403
33	0x3bcfeae8	0.0063451417
34	0xbd9dd107	-0.077058844
35	0x3d51082e	0.05103319
36	0x3d03f730	0.03221816
37	0x3d10f259	0.03538737
38	0xbd3eb0ee	-0.046555452
39	0xbdafad26	-0.08577947
40	0x3d90d6c5	0.07072214
41	0x3d68ada1	0.05680621
42	0x3b92c85a	0.00447945
43	0xbe04e15e	-0.12976596
44	0xbe06d85c	-0.13168472
45	0x3df7e911	0.12105001
46	0x3d9eb2fa	0.07748981
47	0x3c38f228	0.011288203
48	0xbdf6efbf	-0.12057447
49	0xbd813dc9	-0.06310613
50	0xbd5cfdd0	-0.053952992
51	0x3b8bda24	0.0042679477
52	0xbde30b77	-0.11086171
53	0x3ba97328	0.0051711984
54	0xbd8da5f2	-0.06916417
55	0xbd217dab	-0.039426487
56	0xbd11c6fa	-0.03559015
57	0xbdba9f0d	-0.09112368
58	0x3d52bcab	0.05144946
59	0xbd606155	-0.054780323
60	0xbdbc1d54	-0.091852814
61	0xbdaf1376	-0.08548634
62	0xbc1a41d1	-0.009415106
63	0x3deadb0b	0.114675604
64	0xbd3bf931	-0.045891944
65	0xbc8d9092	-0.01728085
66	0x3d2200ac	0.039551422
67	0x3d8fdc44	0.07024434
68	0x3e0ac6db	0.1355242
69	0x3dd0d598	0.1019699
70	0xbdeeac19	-0.11653919
71	0xbd94f324	-0.07272938
72	0x3df4dd3e	0.11956261
73	0x3dde5eeb	0.10857948
74	0xbd6508fe	-0.05591678
75	0x3d184d56	0.03718313
76	0x3d5408be	0.05176615
77	0xbd1176ba	-0.035513617
78	0xbd1c5722	-0.038169034
79	0xbcb6479f	-0.022250948
80	0x3d4526b7	0.048132624
81	0xbdb8e86c	-0.09028706
82	0xbe1e3c23	-0.15452628
83	0xbd39878f	-0.045295294
84	0xbdc78b47	-0.09743362
85	0x3d0f3050	0.034958184
86	0xbd0fd7df	-0.03511798
87	0xbd929c02	-0.071586624
88	0xbdbcab69	-0.092123814
89	0xbdabc6dc	-0.08387539
90	0x3d903e23	0.07043102
91	0xbdb74d9e	-0.08950351
92	0xbccc71a7	-0.024956537
93	0xbdbe31bc	-0.0928683
94	0x3de73771	0.112898715
95	0x3d932b2d	0.071859695
96	0xbd1e92f2	-0.038714357
97	0xbd09ad45	-0.03361251
98	0x3d871d5c	0.06597397
99	0x3ad5f5c7	0.0016323858
100	0x3bd8d4b7	0.0066171545
101	0x3d2db321	0.04240716
102	0x3d1feb98	0.03904304
103	0xbd823001	-0.06356812
104	0xbd15b703	-0.036551487
105	0x3d78263b	0.060583334
106	0x3d92a664	0.07160643
107	0xbd033720	-0.032034993
108	0xbdac6f5d	-0.08419678
109	0xbd8d1d84	-0.06890395
110	0x3dc8c98d	0.09804068
111	0xbd2f6154	-0.04281743
112	0xbd9eea98	-0.07759589
113	0xbd10e05e	-0.035370223
114	0xbd8d9132	-0.069124594
115	0x3d01d33d	0.031695593
116	0x3d8e3bde	0.069450125
117	0xbd929c9d	-0.07158778
118	0xbd84634e	-0.06464253
119	0x3d2eccc4	0.04267575
120	0xbc6203b1	-0.013794825
121	0xbbc048f1	-0.0058680703
122	0xbdc68696	-0.09693639
123	0xbdd0368f	-0.10166656
124	0x3d16847f	0.036747452
125	0xbd550178	-0.052003354
126	0xbdee349a	-0.11631127
127	0xbd7c8c6a	-0.061657347
128	0xbd79f973	-0.06102891
129	0xbd640633	-0.055669975
130	0xbdd4bd1b	-0.103876315
131	0xbd89657a	-0.06708808
132	0x3d1aea4a	0.03782109
133	0x3ce61548	0.02808632
134	0x3e065364	0.13117748
135	0x3b63c33b	0.0034753818
136	0x3cd409db	0.025883606
137	0x3d0dc962	0.03461588
138	0x3b9dc319	0.004814517
139	0x3cd2da40	0.025738835
140	0xba0e7809	-0.0005434757
141	0xbb138e59	-0.0022515266
142	0x3cfb90cb	0.030708691
143	0xb9eca3be	-0.00045135425
144	0x3c817498	0.015802667
145	0xbc2e6f3b	-0.010646637
146	0xbd9401af	-0.072268836
147	0xbcfc282b	-0.030780872
148	0xbd8d44d2	-0.06897892
149	0xbca560fb	-0.020187845
150	0x3dbd6929	0.09248573
151	0x3c4c0ec6	0.012454694
152	0x3da2f4b8	0.07956833
153	0x3dabe221	0.0839274
154	0x3db2ace0	0.087243795
155	0xbdfcb149	-0.12338502
156	0xbcc913b2	-0.024545524
157	0xbd886896	-0.06660573
158	0x3d2be15e	0.041962974
159	0x3d8b6390	0.068060994
160	0xbdf1519e	-0.11783145
161	0xbd2cd84e	-0.04219847
162	0xbe041f3c	-0.1290254
163	0xbd5e0934	-0.054207996
164	0x3bbc83b2	0.005753004
165	0xbd57a630	-0.052648723
166	0x3d5e4672	0.0542664
167	0xbcd519a4	-0.026013203
168	0xbd1922c5	-0.037386674
169	0xbd92b564	-0.07163504
170	0x3b4a9200	0.0030909777
171	0x3dcd5ec8	0.10027844
172	0x3d1d6e94	0.038435534
173	0xbd552107	-0.05203345
174	0xbdb1b15c	-0.08676407
175	0x3d2e400e	0.042541556
176	0x3ddf5b33	0.10906067
177	0x3be3a2e5	0.006946909
178	0xbc10bfd6	-0.0088348
179	0x3d4c5de2	0.04989422
180	0x3d216b2e	0.039408855
181	0x3d9dc448	0.07703453
182	0x3d9479c8	0.072497904
183	0x3df34dcd	0.11880074
184	0x3c0d0d2c	0.008609097
185	0xbdb06d9a	-0.08614655
186	0x3c8213aa	0.015878517
187	0x3ba2750a	0.0049578
188	0x3bdb9892	0.0067015374
189	0x3d0a677c	0.033790097
190	0x3b9de864	0.004818963
191	0xbe06a938	-0.1315049
192	0xbd37b957	-0.04485449
193	0xbdb6e947	-0.08931213
194	0xbdac41dd	-0.08411
195	0xbcdcd1db	-0.026955536
196	0xbd28a857	-0.041176166
197	0xbd075df6	-0.033048593
198	0x3ceb0595	0.028689185
199	0xbd31a92d	-0.04337423
200	0xbdfe99c6	-0.12431674
201	0xbc17ef03	-0.009273293
202	0xbdd8f1e9	-0.10593016
203	0x3ce3a812	0.027790103
204	0xbdb1aa6f	-0.08675086
205	0xbd966102	-0.073427215
206	0xbda29d41	-0.0794015
207	0x3c36857c	0.011140224
208	0xbd0e343a	-0.034717776
209	0xbdfe87a7	-0.124282174
210	0x3d580648	0.052740365
211	0x3d0239e3	0.031793486
212	0xbd5beb23	-0.05369104
213	0xbdf0295f	-0.11726641
214	0xbdc41c09	-0.0957566
215	0x3dc34c00	0.0953598
216	0x3d2dfdd7	0.04247841
217	0xbd0e67c1	-0.034766916
218	0xbd242aa2	-0.04007972
219	0x3cd34229	0.025788384
220	0x3d96a21d	0.073551394
221	0xbd04b455	-0.03239854
222	0x3ddf6be3	0.1090925
223	0x3c6518a7	0.013982928
224	0xbbf50cd8	-0.0074783377
225	0xbcd60737	-0.026126487
226	0x3c7370ae	0.014858408
227	0x3dfa5ec7	0.122251086
228	0x3e0ed015	0.13946564
229	0x3daf4b93	0.085593365
230	0xbdbe87c8	-0.09303242
231	0xbd464aab	-0.048411053
232	0x3d164766	0.036689185
233	0x3d710adb	0.058848243
234	0x3c703fb0	0.014663622
235	0xbe0805b9	-0.13283433
236	0xbe10dc7c	-0.14146608
237	0xbdf3eb9b	-0.119101726
238	0xbdb5fadf	-0.088857405
239	0xbcf1ace4	-0.029501386
240	0x3d169659	0.036764476
241	0x3dbe8c2b	0.09304079
242	0x3dc1ef00	0.09469414
243	0xbdc32fe2	-0.09530617
244	0xbcd406b2	-0.025882099
245	0x3e01cc47	0.12675582
246	0x3dc86251	0.09784377
247	0x3cb9d412	0.02268413
248	0x3d6c8489	0.057743583
249	0x3d74ff51	0.0598138
250	0x3dc92cde	0.09823011
251	0x3de99ba7	0.114066415
252	0x3db06c2a	0.08614381
253	0x3d52dab5	0.051478107
254	0x3e034c36	0.12822041
255	0xbc33ed02	-0.0109818

conv2.bias f4 [16]
0	0x3d92dcee	0.07171045
1	0xbd022b35	-0.031779487
2	0xbd00d277	-0.031450715
3	0x3de8d9d9	0.11369676
4	0xbd8097e2	-0.06278969
5	0x3d6ec1ea	0.0582904
6	0x3d0dd323	0.034625184
7	0x3da5b76e	0.08091627
8	0x3d7a06b4	0.06104155
9	0x3ca11b94	0.01966647
10	0xbd34fb94	-0.044185236
11	0x3d977aa0	0.07396436
12	0x3dab3067	0.083588414
13	0x3ca42696	0.02003793
14	0x3d37de2a	0.044889607
15	0xbd6947b9	-0.056953166

conv3.weight f4 [120, 16, 5, 5]
0	0xbc4e1b98	-0.012579821
1	0x3d1ddd84	0.038541332
2	0x3c43414c	0.011917423
3	0xbd41f8f0	-0.047356546
4	0xbcaa05f0	-0.020754784
5	0x3cee0d8c	0.029059194
6	0x3aef1edf	0.0018243453
7	0xbce21601	-0.027598383
8	0xbcd8677b	-0.02641653
9	0xbd3b4a48	-0.045725137
10	0x3d895efe	0.067075714
11	0xbd6d88f7	-0.057991948
12	0xbdb3f485	-0.08786873
13	0x3dc1781a	0.09446736
14	0xbc42cdf9	-0.011889928
15	0x3cd46ad9	0.025929855
16	0xbdbf27dd	-0.09333775
17	0xbd8fca7d	-0.070210434
18	0xbc3a3947	-0.011366195
19	0x3cb841e7	0.022492362
20	0x3b9a66ab	0.004711946
21	0xbb6fca8d	-0.0036589236
22	0x3d9e6a6d	0.07735143
23	0xbce67581	-0.028132202
24	0x3ca948d9	0.02066462
25	0xbd56e983	-0.052468788
26	0xbc6130ef	-0.013744577
27	0xbc9619bd	-0.01832282
28	0xbbac58af	-0.0052595953
29	0xbb8beb71	-0.00427001
30	0x3c3e9ada	0.011633599
31	0x3b8c0781	0.0042733555
32	0xbd39a83a	-0.04532645
33	0xbd890ad0	-0.066915154
34	0xbd3ae436	-0.045627795
35	0x3d81ce38	0.06338161
36	0x3dcd75be	0.10032223
37	0x3bac8410	0.0052647665
38	0xbd17f978	-0.037103146
39	0x3db62720	0.08894181
40	0xbd9c79df	-0.076404326
41	0x3ceb6aa8	0.028737381
42	0x3b5f9fe9	0.0034122413
43	0xbd3f5473	-0.046711396
44	0xbd95ec69	-0.07320482
45	0xbc0c5167	-0.00856433
46	0xbc88be52	-0.016692314
47	0x3dc1c0cc	0.09460601
48	0x3dde45d5	0.10853163
49	0x3ae87c92	0.001773732
50	0x3d5b8868	0.053596884
51	0xbb8b3795	-0.0042485693
52	0x3ce54c09	0.027990358
53	0x3db6bd30	0.089228034
54	0x3d8f3e98	0.06994361
55	0x3cc44edd	0.023963386
56	0xbda216ce	-0.07914506
57	0xbc9b1bee	-0.018934216
58	0x3d279570	0.040914
59	0xbd8f8961	-0.07008625
60	0x3cc6614c	0.024216317
61	0x3d93fa92	0.07225527
62	0x3d1160c9	0.035492692
63	0xbce87d67	-0.028380109
64	0x3d8b4480	0.06800175
65	0x3c5e2511	0.013558642
66	0x3cb39a70	0.021924227
67	0xbb0f86e0	-0.002190046
68	0xbc5726d8	-0.01313182
69	0x3d250a47	0.040293004
70	0xbd13357c	-0.03593968
71	0xbc445199	-0.011982345
72	0x3d1b54f9	0.037922833
73	0xbd7e01da	-0.062013485
74	0x3bc68595	0.0060584047
75	0x3d102f76	0.035201512
76	0x3d626467	0.055271532
77	0xbce7ec1c	-0.028310828
78	0xbc9f1678	-0.019419894
79	0x3aeb112e	0.0017934197
80	0xbd0fe95c	-0.03513466
81	0x3d99c90d	0.075090505
82	0xbb6fcdba	-0.0036591128
83	0xbcdf61d0	-0.02726832
84	0x3cc1b901	0.023647787
85	0xbd0412b3	-0.032244395
86	0xbca10318	-0.019654796
87	0x3cfdd97f	0.0309875
88	0x3d04840c	0.032352492
89	0x3cd1b9ce	0.025601294
90	0xbd306c81	-0.043072227
91	0xbdcbee41	-0.09957553
92	0x3c378ea1	0.011203439
93	0x3d6b871b	0.057501893
94	0x3c569153	0.013096171
95	0x3b9c8394	0.0047764275
96	0xbd4b3326	-0.049609326
97	0x3bb19e60	0.005420491
98	0x3daeadfa	0.08529277
99	0x3c5d8e1a	0.013522649
100	0xbd14671b	-0.03623114
101	0x3c4aa533	0.012368488
102	0xbc8f6164	-0.017502494
103	0xbbef8da1	-0.0073105847
104	0xbd556d55	-0.05210622
105	0xbcd43a37	-0.025906665
106	0xbbf36e18	-0.0074288957
107	0xbdba4303	-0.09094813
108	0x3cca8ab3	0.02472434
109	0x3c0d5b21	0.008627684
110	0x3d60d3b9	0.054889414
111	0xbd521327	-0.051287796
112	0xbd8841b5	-0.066531576
113	0x3d402651	0.04691154
114	0x3ce70b60	0.028203666
115	0xbc35acbb	-0.011088545
116	0xbd315804	-0.04329683
117	0x3d849ab4	0.0647482
118	0x3d169599	0.03676376
119	0xbd0f12c3	-0.034930002
120	0xbc9af893	-0.018917358
121	0x3cc67381	0.024224998
122	0x3cb5bea1	0.022185626
123	0xbc8b93e1	-0.017038288
124	0x3d00806b	0.03137247
125	0x3bdc6173	0.006725484
126	0x3d48a845	0.0489886
127	0x3d86ecd8	0.06588143
128	0x3d057c46	0.03258922
129	0xbc7d75bf	-0.015469967
130	0x3caddc4f	0.021223215
131	0x3d4add7d	0.049527634
132	0xbd5a6a49	-0.053324018
133	0xbdada04a	-0.08477838
134	0xbd9d8bfa	-0.07692714
135	0x3d31d0d6	0.043412052
136	0xbc9fa87e	-0.019489523
137	0xbd8455e6	-0.06461696
138	0xbcd88ef2	-0.02643535
139	0x3d0f441c	0.034977064
140	0x3d054e8a	0.032545604
141	0xbdb3e74c	-0.08784351
142	0xbd26c642	-0.040716417
143	0x3d4032eb	0.04692356
144	0xbd5b7abb	-0.05358384
145	0xbb98df71	-0.004665308
146	0xbd0af1a2	-0.033921845
147	0x3cb5c7b3	0.02218995
148	0x3d62ef22	0.055403836
149	0x3cb0d632	0.021586511
150	0xbcb2db40	-0.021833062
151	0xbc820302	-0.015870575
152	0x3d4677c8	0.048454076
153	0x3cdb6f61	0.026786508
154	0x3cc41e72	0.023940299
155	0xbce93df2	-0.02847192
156	0x3d95e531	0.073191054
157	0xbd736930	-0.059426486
158	0xbd4f5486	-0.050617717
159	0x3ca0a76d	0.019611085
160	0x3c2f8d6b	0.010714869
161	0x3daa74e1	0.08323074
162	0xbcae9b7f	-0.02131438
163	0xbd58784c	-0.0528491
164	0x3d6ec638	0.058294505
165	0x3b309119	0.0026941954
166	0x3b8c251b	0.0042768843
167	0xbc8bd66c	-0.017070018
168	0xbd8d540b	-0.069007955
169	0xbcd02cd6	-0.025412004
170	0xbc81257a	-0.01576494
171	0xbc667b8f	-0.014067545
172	0xbb0cf45c	-0.0021507954
173	0x3d1698cc	0.036766812
174	0x3bb8c838	0.0056391023
175	0x3c1973ed	0.009366018
176	0xbc1fe4bb	-0.009759123
177	0xbbf69242	-0.0075247595
178	0xbd279cb1	-0.040920917
179	0xbd8aee99	-0.0678379
180	0x3d01fe6c	0.031736776
181	0xbcf3ceff	-0.02976179
182	0xbd8f0ac8	-0.06984478
183	0xbcb66e8b	-0.022269508
184	0x3d7cdc19	0.06173334
185	0x3b22f5c9	0.0024865738
186	0xbd2aa6fe	-0.041663162
187	0xb82e97a0	-4.1626045e-05
188	0x3d4734dc	0.048634395
189	0x3d3f321c	0.046678647
190	0x3d1489bb	0.036264163
191	0x3cd76011	0.026290925
192	0x3d9ee63c	0.077587575
193	0x3d8d0fff	0.06887817
194	0xbd2d2782	-0.042274006
195	0xbcc8dc62	-0.02451915
196	0xbbadf32d	-0.00530853
197	0x3d83d68e	0.064374074
198	0x3be56816	0.0070009334
199	0x3ad3c6a0	0.0016157217
200	0x3b9b79cb	0.0047447435
201	0xbd7fc41f	-0.062442895
202	0x3d08d7c3	0.03340889
203	0x3cb773a4	0.022394009
204	0x3c1feb9b	0.009760763
205	0x3d01427a	0.031557538
206	0xbd8f2f04	-0.069913894
207	0xbdace135	-0.08441392
208	0xbd523e9c	-0.05132924
209	0xbcee2753	-0.029071486
210	0x3d3c9c21	0.046047334
211	0x3c5d092b	0.013490955
212	0x3bcaaa49	0.0061848504
213	0x3c96a8f4	0.01839111
214	0x3d14d8f9	0.036339734
215	0xbdbd4361	-0.09241367
216	0x3da24534	0.07923356
217	0xbc8fbbe9	-0.017545657
218	0xbdb9820f	-0.0905801
219	0x3d06a278	0.032869786
220	0xbd0f9d7b	-0.035062294
221	0x3d0901ee	0.033449106
222	0x3d3368f7	0.043801274
223	0x3c89a564	0.016802497
224	0x3c215bf5	0.009848584
225	0x3d26b957	0.040704098
226	0x3d0550e6	0.032547854
227	0x3d380ee3	0.044936072
228	0x3d8052f8	0.06265825
229	0x3cc441cc	0.023957156
230	0x3be1c9b6	0.006890501
231	0xbd3a5c0f	-0.04549795
232	0x3c4c134f	0.012455775
233	0xbd3fa316	-0.04678639
234	0xbc11a345	-0.008889024
235	0x3d875289	0.06607539
236	0x3d72bf71	0.059264604
237	0xbd5b5cc2	-0.053555258
238	0xbcca234a	-0.02467503
239	0xbc8f3d8f	-0.017485408
240	0x3d1afab9	0.037836764
241	0x3d203f9f	0.039123174
242	0xbbfe9e74	-0.007770354
243	0xbc802a6a	-0.015645225
244	0xbcd2ac03	-0.025716787
245	0xbd05f352	-0.03270275
246	0xbcf325c0	-0.029681087
247	0xbca4a0ca	-0.020096201
248	0x3d0b2ddb	0.033979278
249	0xbcd897de	-0.026439603
250	0xbcb4766a	-0.02202912
251	0x3c33d8b0	0.010976955
252	0x3c928ba9	0.01788886
253	0xbd8931c4	-0.06698945
254	0xbbc0087d	-0.005860387
255	0x3cdc43b6	0.026887756

conv3.bias f4 [120]
0	0xbc4e3e9f	-0.012588172
1	0x3d5a75a9	0.053334866
2	0xbb864725	-0.0040978366
3	0xbd0b8462	-0.034061797
4	0x3c5d1d8b	0.013495813
5	0x3c259ceb	0.010108213
6	0x3c6ca7df	0.01444432
7	0xbd1acda3	-0.037793767
8	0x3d83777c	0.06419274
9	0xbc865b03	-0.01640082
10	0xbbdd03e8	-0.0067448504
11	0x3caeff88	0.021362081
12	0xbb9cbd80	-0.0047833323
13	0x3d43794e	0.047723107
14	0xbd718e91	-0.058973853
15	0xbbaa2138	-0.0051919483
16	0x3cb0df5a	0.021590877
17	0x3d0d3ae4	0.03447999
18	0xbbfde386	-0.00774807
19	0xbd1e4455	-0.038639385
20	0xbd41d07f	-0.047317978
21	0x3bbc0994	0.0057384465
22	0xbce54a74	-0.027989604
23	0x3c267f64	0.010162208
24	0x3c9e6a80	0.019337893
25	0xbd3ee8aa	-0.046608604
26	0x3d3a86bb	0.045538645
27	0xbcab6de0	-0.020926416
28	0x3d52df0b	0.05148224
29	0x3ba01b98	0.004886102
30	0x3d021f7a	0.0317683
31	0xbd8efbbc	-0.06981608
32	0xbd99850d	-0.074960805
33	0xbd1a7f0e	-0.037718825
34	0xbd07b1aa	-0.033128418
35	0xbcc1272d	-0.02357825
36	0x3d813460	0.06308818
37	0xbce5df5d	-0.02806061
38	0x3d6ccb3a	0.057811
39	0x3ce35294	0.027749337
40	0xbd126297	-0.035738554
41	0x3c9d2787	0.019183887
42	0xbc1066f9	-0.008813613
43	0xbcb1e9c1	-0.021717908
44	0x3d389546	0.045064233
45	0x3d09b96c	0.033624098
46	0x3d22ba44	0.039728418
47	0x3d0aea2a	0.033914723
48	0x3c1267c5	0.008935873
49	0xbc07f93e	-0.00829917
50	0xbd2a83cb	-0.041629594
51	0x3cd28103	0.025696283
52	0x3ba9a3a2	0.0051769773
53	0xbcac960d	-0.021067644
54	0x3d0296bc	0.031882033
55	0xbd38eeb6	-0.045149527
56	0xbd630e88	-0.05543378
57	0xbc44d6ac	-0.012014072
58	0xbcec3de5	-0.028838107
59	0x3d016579	0.031590912
60	0xbcb870ed	-0.022514785
61	0x3cdd4f26	0.02701528
62	0xbbdf6e53	-0.0068185716
63	0xbccf9560	-0.025339782
64	0x3cb80928	0.022465304
65	0xbd4672f2	-0.048449464
66	0xbcb49f09	-0.02204849
67	0xbc2a2bb0	-0.0103863925
68	0xbd0ba220	-0.03409016
69	0xbd5cdd89	-0.05392221
70	0xbd353ebe	-0.04424929
71	0xbca09ab4	-0.019605018
72	0xbb931572	-0.0044886405
73	0xbc9bba47	-0.019009722
74	0x3b9e3e85	0.0048292303
75	0xbae26463	-0.0017272349
76	0x3d8f79b3	0.07005634
77	0xbcd8049e	-0.02636939
78	0x3cbcc2dc	0.023042135
79	0xbd683228	-0.056688458
80	0xbd2cebea	-0.042217173
81	0xbc3181ae	-0.010834141
82	0x3c9d47e3	0.019199317
83	0x3c6ef403	0.014584544
84	0x3cefd7ee	0.029277768
85	0x3cfe7592	0.031061921
86	0xbb6e01e0	-0.0036317036
87	0xbd0e662d	-0.03476541
88	0x3c83adce	0.016074087
89	0xbb753559	-0.003741583
90	0x3ceb5a5f	0.028729616
91	0x3d835137	0.06411975
92	0x3bb6bfc6	0.0055770604
93	0xbd777430	-0.06041354
94	0x3c9edd5b	0.01939266
95	0xbcbcc45c	-0.02304285
96	0xbc85c54a	-0.016329426
97	0xbcf047f7	-0.02933119
98	0x3cc444cf	0.023958592
99	0xbd6987fe	-0.057014458
100	0xbd5bbc41	-0.05364633
101	0x3d928c5c	0.07155678
102	0x3cc3389a	0.0238307
103	0x3c7a797c	0.015287753
104	0xbd24f77a	-0.040275075
105	0x3d86fd65	0.065913
106	0xbd1ac46b	-0.037784975
107	0xbc0cd6f8	-0.008596174
108	0xbb9cba51	-0.004782953
109	0xbab84a5e	-0.0014060249
110	0x3d1dce9a	0.03852711
111	0x3c3f118d	0.011661899
112	0x3ab69fa5	0.0013933076
113	0xbd415d60	-0.04720819
114	0x3bee8dec	0.007280102
115	0xbd1e2503	-0.038609516
116	0xbcf9af20	-0.030479014
117	0xbcd896af	-0.026439039
118	0xba01110e	-0.0004923501
119	0xba84e597	-0.0010139224

linear.weight f4 [84, 120]
0	0x3c9a1416	0.018808406
1	0xbd58ee46	-0.05296161
2	0xbd48ec48	-0.04905346
3	0xbc880695	-0.016604701
4	0xbde156b2	-0.11002864
5	0x3da8b521	0.082376726
6	0x3d90f128	0.07077247
7	0xbd398013	-0.045288157
8	0x3dedf546	0.11619048
9	0xbe1af408	-0.15132153
10	0x3d63b975	0.055596787
11	0x3d5d0dbc	0.053968176
12	0x3d65110b	0.055924457
13	0xb8f85a3a	-0.000118423675
14	0xbdc3bf86	-0.095580146
15	0xbd3b3043	-0.045700323
16	0xbb14b4c5	-0.0022690755
17	0xbbdaa8ef	-0.0066729705
18	0x3de6309d	0.11239741
19	0x3db258e3	0.0870836
20	0x3dbb487f	0.09144687
21	0xbe0371eb	-0.12836425
22	0xbbb17986	-0.005416098
23	0xbd328c74	-0.043590978
24	0xbdaaa62c	-0.08332476
25	0x3aba3637	0.0014206831
26	0xbdc82bd0	-0.097739816
27	0xbdd47049	-0.10372979
28	0x3c5c04b2	0.013428854
29	0xbd542796	-0.051795565
30	0xbe10ad89	-0.14128698
31	0x3ba2dbad	0.004970035
32	0x3d57ec6c	0.052715704
33	0x3c5ec97f	0.013597845
34	0x3cd867db	0.02641671
35	0x3d373c71	0.044735376
36	0xbd290ec7	-0.04127386
37	0x3dd137ac	0.10215697
38	0xbd02d612	-0.031942435
39	0x3d08f244	0.033434168
40	0x3bbd5788	0.005778257
41	0xbe053f64	-0.13012463
42	0x3db64bcc	0.08901176
43	0x3dc2d399	0.09513015
44	0xbdbdc58e	-0.09266196
45	0x3bb3d54a	0.0054880725
46	0x3d978de3	0.074001096
47	0xbc95cafa	-0.018285263
48	0x3d1daaf4	0.03849311
49	0x3d37e526	0.044896267
50	0xbc338f63	-0.010959479
51	0x3d8974e6	0.0671175
52	0xbd0ddbe3	-0.03463353
53	0x3bf93a60	0.007605836
54	0xbde653cf	-0.11246454
55	0x3d4d378c	0.0501018
56	0x3dae8f1f	0.08523392
57	0x3d261b55	0.04055341
58	0xbd250e2a	-0.04029671
59	0xbbd17f28	-0.006393332
60	0x3d49dac9	0.049280915
61	0xbd831b1b	-0.06401654
62	0x3d999ca6	0.075005814
63	0xbd5c7d27	-0.053830292
64	0x3d5a93a1	0.053363446
65	0xbc38875f	-0.011262744
66	0x3dc3b1ba	0.09555383
67	0xbd9e5781	-0.07731534
68	0x3d7a2aa7	0.061075833
69	0x3de21c66	0.11040573
70	0xbd7b1506	-0.061299346
71	0xbdc345cc	-0.09534797
72	0xbde970ce	-0.11398469
73	0xbd999acd	-0.07500229
74	0x3c7543d9	0.014969789
75	0x3d56a548	0.05240372
76	0xbc1368c2	-0.008997144
77	0xbd29e5f6	-0.041479073
78	0xbcf299d2	-0.029614363
79	0xbda47ea8	-0.0803197
80	0xbcfb4f17	-0.030677361
81	0x3d35fbf6	0.04442974
82	0xbd88dca0	-0.06682706
83	0xbcf73f0f	-0.030181436
84	0xbdc0d7d7	-0.09416168
85	0xbd67cef9	-0.05659387
86	0x3d96c7bf	0.07362317
87	0xbd8d6db0	-0.06905687
88	0xbbb30e4d	-0.0054643513
89	0xbd1e8fbd	-0.0387113
90	0x3b4e7d0a	0.0031507635
91	0xbd1aece1	-0.03782356
92	0xbcd1a480	-0.025591135
93	0xbd9e83b9	-0.07739968
94	0xbd0ce536	-0.03439828
95	0xbb93a2a2	-0.0045054713
96	0x3d8f4d05	0.06997112
97	0xbd127d97	-0.035764303
98	0x3d71d2b7	0.059038844
99	0xbd492614	-0.04910858
100	0x3aa15624	0.0012308997
101	0xbc9c332b	-0.019067368
102	0x3d497d97	0.049192037
103	0xbd6fb6ed	-0.05852406
104	0xbdd4a1a0	-0.1038239
105	0x3d8a86fb	0.06764027
106	0x3da41fd2	0.08013882
107	0xbd66cddc	-0.056348667
108	0xbd802788	-0.0625754
109	0xbc2c8408	-0.010529526
110	0xbd8c9fa6	-0.06866388
111	0x3d90f66c	0.07078251
112	0x3df35497	0.118813686
113	0xbc601a41	-0.013678134
114	0x3d266f8e	0.04063373
115	0x3d2a163c	0.04152511
116	0xbb6fe774	-0.0036606463
117	0x3dbadc2b	0.09124025
118	0xbd3607b3	-0.044440936
119	0xbc5d91b2	-0.013523506
120	0xbc90926e	-0.017647948
121	0xbc1c57fd	-0.009542462
122	0xbd1142b3	-0.035464
123	0xbdad6b8f	-0.08467781
124	0xbc5b8285	-0.0133978175
125	0xbb0b4a9f	-0.0021254194
126	0xbcc395be	-0.023875114
127	0x3a834f86	0.0010018207
128	0xbd9df240	-0.07712221
129	0xbdda4779	-0.106581636
130	0x3dab33e4	0.08359507
131	0xbe004bd5	-0.12528928
132	0xba72b4a3	-0.00092584844
133	0x3beb28f2	0.007176512
134	0x3d2829a0	0.04105532
135	0xbb1620d2	-0.0022907746
136	0x3d0d2ccf	0.03446656
137	0x3c642343	0.013924423
138	0x3d6524e8	0.0559434
139	0x3d070618	0.032964796
140	0xbc2899b0	-0.010290548
141	0x3e1d4c67	0.15361176
142	0x3b108c80	0.00220564
143	0xbb9d982f	-0.0048094015
144	0x3daca38a	0.0842963
145	0x3cfae7f0	0.030628175
146	0x3b4ec184	0.003154845
147	0xbd2d4c0e	-0.04230886
148	0x3c5c629c	0.013451245
149	0x3dae7309	0.08518035
150	0x3d27a5d7	0.04092964
151	0xbcb6dddf	-0.022322593
152	0x3d14e219	0.036348436
153	0x3d954c26	0.07289915
154	0xbca52053	-0.020157015
155	0x3dd58928	0.10426551
156	0x3da560d1	0.08075107
157	0xbd6c51cb	-0.05769519
158	0xbde1874f	-0.11012136
159	0x3c3ac690	0.01139988
160	0xbd2ba644	-0.04190661
161	0x3de4b2ff	0.11166953
162	0xbe195d90	-0.14977098
163	0xbe0d9cf4	-0.13829404
164	0xbdc1bf32	-0.09460296
165	0xbdc48929	-0.09596474
166	0xbdd10395	-0.10205761
167	0xbd1da1fe	-0.038484566
168	0x3d80a95f	0.06282305
169	0x3ce74723	0.028232163
170	0xbd39efdf	-0.045394775
171	0x3d330018	0.04370126
172	0x3c57c21b	0.013168837
173	0x3d8fface	0.07030259
174	0xbd89bfe9	-0.06726057
175	0x3dc64506	0.09681134
176	0x3e0bf0ba	0.13666049
177	0x3d16ab1e	0.036784284
178	0xbd57abc7	-0.052654054
179	0xbe272628	-0.16323149
180	0xbd1a125f	-0.037615176
181	0x3e1452bf	0.1448469
182	0xbd5bcf8b	-0.053664725
183	0x3dbae92b	0.091265045
184	0x3dcbc2b5	0.09949247
185	0xbc42a696	-0.0118805375
186	0x3dcecef5	0.10098068
187	0xbdc14a57	-0.09438007
188	0xbd0fd99f	-0.03511965
189	0x3daebec6	0.08532481
190	0x3d784684	0.060614124
191	0xbdae5471	-0.085122
192	0xbd22f4ff	-0.039784428
193	0x3d6614a3	0.056172024
194	0x3dcac0c0	0.099000454
195	0x3d41c98b	0.047311347
196	0xbc52f8a2	-0.0128766615
197	0xbbe01e70	-0.006839566
198	0x3ce52ca1	0.027975382
199	0x3e28d40b	0.16487138
200	0xbda9ed25	-0.08297185
201	0x3d95a19c	0.07306215
202	0xbd3d4fcb	-0.046218675
203	0x3d231861	0.03981817
204	0x3e0c8fb0	0.13726687
205	0xbdb10bd9	-0.08644838
206	0xbd03d463	-0.03218497
207	0x3d9fa1bd	0.07794521
208	0xbe1ea3b9	-0.15492143
209	0x3d341d0c	0.043973014
210	0xbd4fdb01	-0.050745968
211	0x3c8d9931	0.017284961
212	0xbce53251	-0.027978094
213	0x3c9ca9d7	0.019123955
214	0x3d502af6	0.05082222
215	0xbd8a167a	-0.06742568
216	0x3d50a8cc	0.050942227
217	0x3e0126b5	0.12612422
218	0xbe0358b9	-0.12826814
219	0x3dbeaf47	0.09310775
220	0x3dac8308	0.0842343
221	0xbe06c1b9	-0.13159837
222	0x3d2f1b14	0.042750433
223	0xbdc830fb	-0.09774967
224	0xbd47c9b8	-0.04877636
225	0xbd1cfcba	-0.038326956
226	0xbdb9ee9f	-0.090787165
227	0x3d124f0e	0.035719924
228	0x3e0e6e43	0.13909249
229	0xbd997ee6	-0.07494907
230	0x3e0a1392	0.13484028
231	0xbc831f7e	-0.016006228
232	0x3ca25705	0.019816885
233	0xbd69f4e3	-0.057118308
234	0x3d2267d0	0.039649785
235	0xbcd56fb0	-0.026054233
236	0xbcedd346	-0.029031407
237	0xbde3e51d	-0.11127684
238	0x3ca18bc1	0.01971996
239	0x3ce97e23	0.02850253
240	0xbc22aa86	-0.009928351
241	0x3db561d8	0.08856553
242	0x3d838771	0.06422318
243	0xbd7bc36b	-0.061465662
244	0x3d1b45ff	0.03790855
245	0x3d22843e	0.039676897
246	0xbd5e3768	-0.05425206
247	0x3d9aff4c	0.07568225
248	0x3ca00705	0.019534597
249	0xbcd137b4	-0.025539257
250	0xbdb29ff1	-0.08721913
251	0x3de5e1b2	0.112246886
252	0x3ce4c08d	0.027923847
253	0x3d323861	0.0435108
254	0xbde27fff	-0.110595696
255	0x3da297de	0.079391226

linear.bias f4 [84]
0	0x3d7a5c2d	0.061123062
1	0xbd86c051	-0.0657965
2	0xbd0c9be2	-0.03432835
3	0x3d62ad06	0.05534079
4	0xbaa0d8e3	-0.0012271669
5	0xbd8bcfa9	-0.068267174
6	0x3d8ae2f2	0.06781568
7	0xbd855a16	-0.06511323
8	0xbd852ca3	-0.065026544
9	0xbd34c77e	-0.044135563
10	0x3dc4be79	0.09606642
11	0x3d0848a1	0.03327239
12	0xbcaa210c	-0.020767711
13	0xbdbaa9a3	-0.09114387
14	0x3dd7264f	0.10505354
15	0xbd3bd688	-0.04585889
16	0x3dccf598	0.10007781
17	0x3c49a464	0.01230726
18	0x3d2606c2	0.04053379
19	0x3d51b985	0.051202316
20	0xbd88175c	-0.066450804
21	0x3d926300	0.07147789
22	0xbd4e9e44	-0.050443903
23	0xbdd59205	-0.10428242
24	0x3d2a3c80	0.041561604
25	0x3d06ac25	0.032879014
26	0x3d5869eb	0.052835386
27	0xbdfb477f	-0.12269496
28	0x3d041cc5	0.032254
29	0xbc56ecc5	-0.013117974
30	0xbd548a34	-0.051889613
31	0x3c34e684	0.011041287
32	0x3db26c35	0.08712045
33	0xbda4e568	-0.08051568
34	0x3cd9acf9	0.026571738
35	0x3c03facf	0.008055403
36	0x3dbe6db3	0.09298267
37	0xbd8efeac	-0.069821686
38	0xbd9b27a0	-0.07575917
39	0x3d871ec7	0.06597667
40	0x3da33af4	0.07970229
41	0xbd97dfe1	-0.074157484
42	0xbd82cee4	-0.063871175
43	0xbcdb7c2f	-0.026792614
44	0x3c8ed4d6	0.017435472
45	0x3dd24bc1	0.10268355
46	0x3ad04b63	0.0015891608
47	0xbc99a7ae	-0.018756714
48	0x3d1ef4e8	0.03880778
49	0x3d22e1d6	0.039766155
50	0xbd81d7b4	-0.0633997
51	0xbcd3013b	-0.025757423
52	0x3dc7b30c	0.09750947
53	0x3df4cb2a	0.11952813
54	0xbd8479a3	-0.06468513
55	0xbd56509b	-0.052322965
56	0x3cf08ba7	0.029363466
57	0x3da7bfb3	0.081908606
58	0xbc7a07ec	-0.015260678
59	0xbdc08bc5	-0.09401659
60	0x3d6fb275	0.0585198
61	0x3d3629ec	0.044473574
62	0xbc397d41	-0.011321367
63	0x3d9db98d	0.07701407
64	0x3d3fc7e7	0.0468215
65	0x3dd5185d	0.104050376
66	0xbdb5c13c	-0.08874747
67	0xbc828552	-0.015932713
68	0x3be73e56	0.0070569916
69	0xbd43ec24	-0.047832623
70	0xbc6bfd54	-0.01440366
71	0xbd48c74e	-0.049018197
72	0x3d911cb0	0.0708555
73	0x3da2d677	0.07951062
74	0x3d786a55	0.06064828
75	0xbd9dca4d	-0.077046014
76	0xbc980a9d	-0.018559748
77	0xbd9a9f98	-0.07549971
78	0x3d8994d3	0.06717839
79	0xbba2bb79	-0.004966196
80	0x3d1e89e5	0.038705725
81	0x3d7a086b	0.061043184
82	0xbd47f90b	-0.04882149
83	0xbd48adc0	-0.048993826

output.weight f4 [43, 84]
0	0x3cda1553	0.026621496
1	0xbcf1ca10	-0.029515296
2	0x3daf9f15	0.08575264
3	0xbdb7f5dc	-0.08982441
4	0xbd78d7b9	-0.060752604
5	0x3df97b7c	0.12181756
6	0x3d5edbb9	0.054408763
7	0xbcabd183	-0.020973926
8	0x3c4813f1	0.012211786
9	0x3d1e7443	0.038685095
10	0xbdc22dae	-0.09481369
11	0x3db871bd	0.09006069
12	0x3d0e6877	0.034767594
13	0x3ddd0b62	0.10793187
14	0x3c01fea7	0.007934249
15	0x3ddbf5ca	0.1074024
16	0x3d728e87	0.059217956
17	0x3d6c8f57	0.057753887
18	0xbd27af11	-0.04093844
19	0x3cf03da3	0.029326266
20	0x3d0793b4	0.033099845
21	0x3d14f8a6	0.036369942
22	0x3d4ae0f4	0.04953094
23	0x3d6e35a8	0.05815664
24	0xbdbb6e11	-0.09151853
25	0xbd9ee21e	-0.07757972
26	0xbdaddbd1	-0.08489192
27	0x3958589e	0.00020632378
28	0xbd16de74	-0.03683324
29	0x3d0d95c2	0.03456665
30	0x3da4fed1	0.08056415
31	0x3ddf7cab	0.109124504
32	0xbcc5c92c	-0.024143778
33	0xbc284911	-0.010271327
34	0xbdc89379	-0.09793753
35	0xbda348eb	-0.079728924
36	0xbd44e217	-0.04806718
37	0xbd4b2262	-0.049593337
38	0xbd0de988	-0.03464654
39	0xbdcc37e8	-0.09971601
40	0xbd94a2df	-0.07257628
41	0x3dd71ea7	0.10503893
42	0xbd6f1c61	-0.058376674
43	0xbccb5686	-0.024821531
44	0x3b8d5327	0.004312891
45	0xbc43d3b8	-0.011952333
46	0x3d413494	0.047169283
47	0xbdb810f4	-0.089876086
48	0x3d2c5181	0.042069916
49	0xbe072176	-0.13196358
50	0xbda0b4fd	-0.07847021
51	0x3cc3e39e	0.023912247
52	0xbe0bc480	-0.13649178
53	0x3c71340d	0.0147218825
54	0xbdcbcda7	-0.099513344
55	0xbcb31074	-0.021858431
56	0xbd8e0ba3	-0.06935813
57	0xbdc2545c	-0.094887465
58	0x3dd4f3e5	0.10398082
59	0xbd030737	-0.031989302
60	0xbd016913	-0.031594347
61	0xbd8d8ab5	-0.06911222
62	0x3d80c845	0.062881984
63	0x3dbb2f8b	0.091399275
64	0x3d3b8dec	0.045789644
65	0x3cacbf23	0.021087235
66	0xbca927a7	-0.02064879
67	0xbde10f30	-0.10989225
68	0xbd57f441	-0.052723173
69	0x3d487fc3	0.048949968
70	0x3cb9635e	0.02263039
71	0x3c5da523	0.013528141
72	0x3dbea74e	0.093092546
73	0xbd0f393d	-0.034966696
74	0xbdadcf3f	-0.08486795
75	0x3d29e270	0.041475713
76	0xbc6a8e84	-0.014316205
77	0x3d3f6807	0.046730068
78	0x3c9a4e33	0.018836116
79	0x3db9fdcf	0.09081613
80	0x3de08b75	0.10964099
81	0x3d960140	0.07324457
82	0x3b5adbb0	0.0033395104
83	0x3db4a92f	0.08821332
84	0xbdd5baf9	-0.10436053
85	0xbdbe0a5a	-0.09279318
86	0xbbfbd8ae	-0.0076857423
87	0x3de5426c	0.111943096
88	0xbd3e1394	-0.04640539
89	0x3cd18a26	0.02557857
90	0xbdd39924	-0.10331944
91	0x3d9467be	0.0724635
92	0xbdc8040d	-0.097663976
93	0x3dc586b7	0.096448354
94	0xbdbfd94b	-0.09367617
95	0x3d9008f5	0.070329584
96	0xbd4560aa	-0.04818789
97	0x3d216059	0.039398525
98	0xbd485c3c	-0.048916087
99	0x3d9f80ef	0.07788264
100	0xbe02a250	-0.1275723
101	0x3dab2bc9	0.08357961
102	0xbd139a6e	-0.036035948
103	0xbd5c5ce5	-0.05379953
104	0x3defe359	0.11713285
105	0xbd90dbce	-0.070731744
106	0xbda472af	-0.08029687
107	0xbe028fd3	-0.12750177
108	0xbdd2d463	-0.10294416
109	0x3cdbd9b5	0.02683721
110	0x3d4253ea	0.047443308
111	0xbd89de1a	-0.06731816
112	0xbda09b47	-0.07842117
113	0x3dfe2dfd	0.12411115
114	0xbc8aea48	-0.016957417
115	0x3db047c2	0.08607437
116	0x3d6b7346	0.05748298
117	0x3d838359	0.06421537
118	0xbdc133f5	-0.09433738
119	0x3e0501e0	0.12988997
120	0xbdde455b	-0.10853072
121	0xbde67969	-0.11253626
122	0x3d81c309	0.06336028
123	0x3e1bbcad	0.15208693
124	0xbde53c68	-0.11193162
125	0xbe0381a9	-0.1284243
126	0xbd9827e8	-0.074294865
127	0x3b84f181	0.00405711
128	0xbdbdf0d2	-0.092744485
129	0xbe03beba	-0.12865725
130	0xbced2a9d	-0.028950984
131	0x3d957bdc	0.07299015
132	0xbd831fdc	-0.06402561
133	0x3c571ae4	0.01312897
134	0x3bc79e96	0.006091903
135	0x3c4581ac	0.012054842
136	0xbe0f402a	-0.1398932
137	0xbcc11005	-0.023567209
138	0xbd6864aa	-0.056736626
139	0xbd0ca884	-0.034340397
140	0x3c1529a3	0.009104165
141	0xbbc7233e	-0.0060771992
142	0x3d8f4422	0.06995417
143	0xbdb61505	-0.08890728
144	0xbe08d77d	-0.13363452
145	0x3dc5d765	0.09660224
146	0x3db9bd00	0.09069252
147	0x3bc16b4b	0.005902683
148	0x3d578b4d	0.052623082
149	0xbdd338c2	-0.1031356
150	0x3d5d832d	0.054080177
151	0xbb9bbe09	-0.0047528786
152	0x3da52dbb	0.08065363
153	0x3b8ab262	0.0042326907
154	0xbd9e5fb1	-0.077330954
155	0x3c9d3a3d	0.01919281
156	0x3e09ae9e	0.13445517
157	0x3dbb4b37	0.091452055
158	0xbdf49433	-0.11942329
159	0x3d028e5c	0.031874046
160	0xbda986c0	-0.08277655
161	0x3d047567	0.032338526
162	0x3c0e2c97	0.008677623
163	0x3db71352	0.08939232
164	0xbcf5c212	-0.029999766
165	0x3c28db64	0.010306213
166	0xbd1d9b22	-0.038478024
167	0x3d78b8ee	0.060723238
168	0xbd14524f	-0.036211308
169	0x3daaf616	0.083477184
170	0xbdbf4459	-0.09339208
171	0xbc725a24	-0.014791999
172	0xbda48bc8	-0.08034474
173	0x3db275ce	0.08713876
174	0x3da2528e	0.07925902
175	0xbd80c1c3	-0.06286957
176	0xbd3ea25c	-0.046541557
177	0x3d093b12	0.0335036
178	0xba35b612	-0.00069317326
179	0xbb775e44	-0.0037745396
180	0xbdeda990	-0.11604607
181	0xbd7687ac	-0.06018798
182	0xbc4bd5b6	-0.012441089
183	0xbde5a681	-0.11213399
184	0xbdbb31bf	-0.09140348
185	0xbdb667f2	-0.08906545
186	0xbd3751b9	-0.04475567
187	0xbdbd11df	-0.09231924
188	0x3de7569a	0.11295815
189	0x3cd0df77	0.025497181
190	0x3b6ff63c	0.0036615273
191	0x3dd5b1c5	0.104342975
192	0x3d0e6932	0.03476829
193	0x3daf892e	0.08571087
194	0xbda11f02	-0.078672424
195	0xbdcfa1ee	-0.101383075
196	0x3d187f88	0.037231
197	0x3d9cc3ca	0.07654531
198	0xbdda4404	-0.10657504
199	0x3da3cf03	0.07998469
200	0xbdc50c5c	-0.09621498
201	0xbda91733	-0.08256378
202	0xbd6462fd	-0.055758465
203	0xbbec356b	-0.0072085164
204	0xbc8a15d6	-0.016856115
205	0xbdc90e6f	-0.09817206
206	0xbdcde0ee	-0.100526676
207	0x3dc66bbd	0.09688518
208	0xbdc323ad	-0.09528289
209	0xbd4d89bc	-0.05018018
210	0xbc39c225	-0.011337792
211	0x3d0c367c	0.034231648
212	0xbd6f1a05	-0.058374424
213	0xbc9c9801	-0.01911545
214	0x3cb6b1f8	0.022301659
215	0xbe04da91	-0.12974001
216	0x3cf33318	0.02968745
217	0x3dd172f9	0.102270074
218	0xbd9fee75	-0.07809154
219	0x3a9a3a16	0.0011766579
220	0xbddea910	-0.1087209
221	0x3d3b28e1	0.045693282
222	0xbdadc15e	-0.084841475
223	0x3d0166e7	0.031592276
224	0xbd90d548	-0.0707193
225	0xbd849df6	-0.06475441
226	0x3dad9ec0	0.08477545
227	0x3d6ecb5b	0.058299404
228	0xbd9f6e6b	-0.077847324
229	0xbd6281bd	-0.05529951
230	0x3d4db5cc	0.050222203
231	0x3e00b375	0.12568457
232	0x3c880e8b	0.016608497
233	0x3dc0688d	0.093949415
234	0x3bb53683	0.00553018
235	0xbdeb0453	-0.11475434
236	0x3db0d6a0	0.086346865
237	0xbd9bb367	-0.07602578
238	0xbdde6bd7	-0.108604126
239	0x3dde8352	0.10864891
240	0x3d8f005f	0.06982493
241	0xbd400fe5	-0.04689016
242	0x3dfd6a2c	0.12373766
243	0xbc44974a	-0.011998961
244	0xbd7cc501	-0.061711315
245	0x3d83d6e3	0.06437471
246	0xbc293b38	-0.01032906
247	0x3d624b61	0.05524767
248	0x3c3dc547	0.011582679
249	0x3db841c9	0.089969225
250	0xbe0cb2c7	-0.13740073
251	0xbd3251c7	-0.04353502
252	0x3d01d7dd	0.031700004
253	0xbdf50f2b	-0.11965784
254	0x3dea71a6	0.11447458
255	0x3dfa1a4d	0.12212048

output.bias f4 [43]
0	0xbdfd46a6	-0.12366991
1	0xbd8b0598	-0.06788176
2	0x3da7c209	0.08191306
3	0xbccca613	-0.024981534
4	0x3dd61ee7	0.10455113
5	0x3c482102	0.012214901
6	0x3dbcccc3	0.09218743
7	0x3b464179	0.0030251427
8	0xbcc6d589	-0.024271743
9	0xbca821fb	-0.020524016
10	0x3cbcb36c	0.023034774
11	0xbdb3e1e8	-0.087833226
12	0x3d7d749d	0.06187879
13	0x3d5d4fd7	0.05403122
14	0x3cd946e2	0.026523057
15	0x3c74faef	0.014952405
16	0x3d8884f2	0.06665982
17	0xbc3d07d6	-0.011537513
18	0x3d3f834d	0.046756078
19	0xbd582579	-0.05277011
20	0xbcf9eef6	-0.030509453
21	0x3d253191	0.040330473
22	0xbd493222	-0.049120076
23	0x3d601812	0.054710455
24	0xbdc1d053	-0.09463563
25	0x3c2b3684	0.010450009
26	0xbb6ea988	-0.0036416966
27	0xbd6a7d2b	-0.057248276
28	0xbd3bed42	-0.045880564
29	0xbdfbcbbe	-0.1229472
30	0xbda2474e	-0.079237565
31	0xbc018742	-0.007905783
32	0x3d3e05ed	0.04639237
33	0xbbf730f4	-0.0075436775
34	0x3d8504d9	0.06495065
35	0x3d8a0a17	0.06740206
36	0x3d9eaa03	0.07747271
37	0x3d36894f	0.04456454
38	0xbc097613	-0.0083899675
39	0x3d59a955	0.053140003
40	0xbd3b089a	-0.0456625
41	0xbd16a40d	-0.036777545
42	0x3d9fd827	0.078049

exp_avg f4 [6, 1, 5, 5]
0	0xbccce0a1	-0.025009455
1	0xbcd38d8e	-0.025824334
2	0xbcdf8241	-0.02728379
3	0xbce4e5c7	-0.027941598
4	0xbce91861	-0.028454008
5	0xbc902ee6	-0.017600488
6	0xbc83ecf9	-0.016104208
7	0xbc83d7f7	-0.016094191
8	0xbc91267f	-0.017718552
9	0xbcb0dde4	-0.02159018
10	0xbc31196f	-0.0108092865
11	0xbbd0a30f	-0.0063670943
12	0xbb945f52	-0.0045279646
13	0xbbe0b6eb	-0.006857743
14	0xbc5bef53	-0.013423759
15	0xbbc740d4	-0.006080726
16	0x3a821698	0.0009924946
17	0x3b873e8b	0.0041273287
18	0x3aecedaf	0.0018076206
19	0xbbbe2560	-0.0058027953
20	0xbbaf2104	-0.005344512
21	0x3b1f0599	0.002426481
22	0x3bcbb00c	0.006216055
23	0x3ba4a5fb	0.005024669
24	0xbafd7309	-0.0019336651
25	0xbb995e65	-0.004680442
26	0xbb880441	-0.0041508977
27	0xbbde631d	-0.0067867176
28	0xbc312a5b	-0.010813321
29	0xbc81447b	-0.015779724
30	0x3b383da3	0.002811291
31	0x3bb628a3	0.0055590435
32	0x3b67c591	0.0035365561
33	0xbac0f2ef	-0.0014720837
34	0xbc0faad4	-0.008768756
35	0x3bba2d4e	0.0056816703
36	0x3c28995a	0.010290468
37	0x3c1db324	0.00962523
38	0x3ba206b0	0.004944645
39	0xbb5c2784	-0.003359289
40	0x3b7ee05b	0.003889105
41	0x3c12ff8d	0.008972061
42	0x3c175eed	0.009238941
43	0x3bbb9bc5	0.0057253563
44	0xbad1187f	-0.0015952735
45	0xbb0bfe4d	-0.0021361292
46	0x3b0ddd1c	0.0021646684
47	0x3b415d40	0.0029505044
48	0x3a963b17	0.0011461702
49	0xbb6eea13	-0.0036455437
50	0x3bc7c498	0.006096434
51	0xb9e4b16c	-0.00043619738
52	0xba9c7ce1	-0.0011939072
53	0x3b4e4521	0.003147431
54	0x3c2fa8dc	0.010721412
55	0x3b489f68	0.0030612592
56	0xbbbef86f	-0.0058279554
57	0xbc118eab	-0.008884112
58	0xbbc5ba5a	-0.0060341777
59	0x3b079029	0.0020685291
60	0x3ba522e3	0.005039559
61	0xbb9b7ec8	-0.004745338
62	0xbc1e7032	-0.009670304
63	0xbc1994f8	-0.009373896
64	0xbb489799	-0.0030607937
65	0x3c1710cf	0.009220316
66	0xb7ec4f4c	-2.8170318e-05
67	0xbbc15b8f	-0.005900807
68	0xbc024fc8	-0.007953592
69	0xbb937863	-0.004500435
70	0x3c5c405a	0.013443077
71	0x3bbea062	0.005817459
72	0x362308e5	2.429407e-06
73	0xbb5ceaa7	-0.00337092
74	0xbb24e26e	-0.0025159377
75	0xbcf76da9	-0.030203657
76	0xbcedeba4	-0.029043026
77	0xbccaeec1	-0.02477205
78	0xbc9a80e9	-0.018860297
79	0xbc588b15	-0.0132167535
80	0xbcd7e944	-0.026356347
81	0xbcaf9042	-0.021431092
82	0xbc753b06	-0.014967686
83	0xbc11f220	-0.008907825
84	0xbbb1dbb4	-0.005427802
85	0xbc988fc9	-0.01862325
86	0xbc318e56	-0.010837158
87	0xbb50371c	-0.003177113
88	0x3b10cd4f	0.002209503
89	0x3b43833a	0.0029832856
90	0xbc193718	-0.009351514
91	0x399f7007	0.0003041031
92	0x3c02f040	0.00799185
93	0x3c40e088	0.011772282
94	0x3c226526	0.009911811
95	0xbb0bed41	-0.002135113
96	0x3c027a35	0.007963707
97	0x3c6da5f9	0.014504903
98	0x3c87077a	0.016483057
99	0x3c505d56	0.0127175655
100	0xbc5cf677	-0.013486496
101	0xbc3002c9	-0.0107428515
102	0xbc2ceb94	-0.010554213
103	0xbc439622	-0.01193765
104	0xbc63be55	-0.013900359
105	0xbbc81707	-0.0061062607
106	0xba7c0d35	-0.0009615005
107	0x39b57e28	0.00034617004
108	0xbae82650	-0.0017711613
109	0xbbd32e96	-0.0064447625
110	0xbaac3bbe	-0.0013140363
111	0x3bc0241f	0.005863681
112	0x3c090427	0.008362806
113	0x3bca6727	0.0061768475
114	0xb925147b	-0.00015743256
115	0xb85fd7f6	-5.3368472e-05
116	0x3c07d270	0.008289918
117	0x3c3eb5c3	0.011640015
118	0x3c234463	0.009965035
119	0x3b5ce48c	0.003370556
120	0xbb1d33ae	-0.0023987102
121	0x3bb6b994	0.005576322
122	0x3c12cced	0.008959991
123	0x3c03783a	0.00802427
124	0x3b21134d	0.0024578155
125	0x3cdcdcf1	0.026960822
126	0x3cf6c5ff	0.030123709
127	0x3d0011d0	0.031266987
128	0x3cf6b6f8	0.030116543
129	0x3ce3d99c	0.027813725
130	0x3c8e97dc	0.017406397
131	0x3c9dd677	0.019267304
132	0x3ca8062b	0.020510754
133	0x3cae2261	0.021256628
134	0x3cb7a34a	0.02241673
135	0x3c027555	0.007962544
136	0x3c046dbc	0.008082803
137	0x3c16295a	0.009165132
138	0x3c3e2bef	0.011607154
139	0x3c801550	0.015635163
140	0x3a84b3fc	0.001012444
141	0xba5a779d	-0.0008333864
142	0xb91b2739	-0.00014796563
143	0x3b4cb41d	0.0031235286
144	0x3c109c76	0.008826366
145	0xba812ecd	-0.0009855867
146	0xbb9bbad9	-0.0047524986
147	0xbba22794	-0.0049485657
148	0xbaf6d9af	-0.0018833185
149	0x3b8d6374	0.0043148343

exp_avg_sq f4 [6, 1, 5, 5]
0	0x390bb429	0.00013323188
1	0x390534f2	0.00012703592
2	0x3900d298	0.00012285484
3	0x38fa666c	0.000119400065
4	0x390110e7	0.00012308695
5	0x38b40ac3	8.5850734e-05
6	0x389cb64d	7.472616e-05
7	0x38913746	6.924434e-05
8	0x388e7201	6.7923225e-05
9	0x38a34713	7.785684e-05
10	0x3867df94	5.5282915e-05
11	0x3836be35	4.3569325e-05
12	0x3827d79e	4.0016712e-05
13	0x381ec664	3.78549e-05
14	0x3840c09d	4.5955752e-05
15	0x383a2a8a	4.4385473e-05
16	0x3806db3e	3.2152275e-05
17	0x37fae86a	2.9910549e-05
18	0x37e0f5aa	2.6817277e-05
19	0x3805bcfb	3.1885673e-05
20	0x38461b08	4.7232053e-05
21	0x3803863c	3.135785e-05
22	0x37e5205b	2.7313994e-05
23	0x37d709eb	2.5634616e-05
24	0x380ef734	3.4085664e-05
25	0x37b686d5	2.1758877e-05
26	0x379259c7	1.7446362e-05
27	0x379ee86f	1.8943303e-05
28	0x37e06b39	2.675281e-05
29	0x3835ab65	4.3313386e-05
30	0x37a7766e	1.99631e-05
31	0x378be72d	1.667774e-05
32	0x3781094d	1.538233e-05
33	0x3793731d	1.757737e-05
34	0x37f8d606	2.9663566e-05
35	0x37c89c01	2.3914503e-05
36	0x37b461f2	2.1503281e-05
37	0x37a15283	1.9231118e-05
38	0x379bcb86	1.8572213e-05
39	0x37e4b056	2.726183e-05
40	0x3807476f	3.2253036e-05
41	0x37eac065	2.7984564e-05
42	0x37d663c4	2.5557245e-05
43	0x37da0b01	2.599275e-05
44	0x3813c07c	3.5226796e-05
45	0x386193eb	5.378194e-05
46	0x383f3605	4.558826e-05
47	0x382ecea7	4.1677293e-05
48	0x38331334	4.269481e-05
49	0x38597bc0	5.1852083e-05
50	0x386b0c11	5.6039604e-05
51	0x380841e9	3.248631e-05
52	0x37c1cc19	2.3102433e-05
53	0x37cc23eb	2.433542e-05
54	0x3822a1a7	3.877436e-05
55	0x384aa6c5	4.831587e-05
56	0x37f7141d	2.945406e-05
57	0x37cdfce3	2.4555664e-05
58	0x37c61e44	2.3617533e-05
59	0x37fd8279	3.0220706e-05
60	0x385f4062	5.3227304e-05
61	0x380d0463	3.3621105e-05
62	0x37f6be80	2.9414194e-05
63	0x37fa82eb	2.9863286e-05
64	0x381476fe	3.539677e-05
65	0x3892974c	6.990004e-05
66	0x3849a246	4.8073263e-05
67	0x382debe8	4.146612e-05
68	0x3838a429	4.4021905e-05
69	0x385d79a9	5.280381e-05
70	0x38cf0a6e	9.872472e-05
71	0x38a85a4d	8.027684e-05
72	0x3897b137	7.23325e-05
73	0x389d63ae	7.50491e-05
74	0x38b30d26	8.537834e-05
75	0x39251a27	0.00015745369
76	0x390f3b07	0.00013659532
77	0x38e9cd45	0.0001114854
78	0x38bd6e73	9.032795e-05
79	0x38a18da3	7.70346e-05
80	0x39005b6e	0.00012241091
81	0x38c7f3dd	9.5344825e-05
82	0x389ffcd4	7.628804e-05
83	0x388ad2fc	6.619652e-05
84	0x38776772	5.898573e-05
85	0x38b58064	8.654667e-05
86	0x38941144	7.060406e-05
87	0x3890503c	6.8814e-05
88	0x38919b58	6.943074e-05
89	0x387b07be	5.9850274e-05
90	0x388fac40	6.8508554e-05
91	0x3892ec15	7.005796e-05
92	0x38add8a7	8.2896375e-05
93	0x38b46d78	8.603459e-05
94	0x3891c887	6.95149e-05
95	0x38772cb1	5.893101e-05
96	0x3894afaa	7.08991e-05
97	0x38b7f954	8.772561e-05
98	0x38b9a086	8.851387e-05
99	0x38945c72	7.074409e-05
100	0x38850b96	6.344092e-05
101	0x38511655	4.985028e-05
102	0x3839e50a	4.4320746e-05
103	0x382df9d5	4.147909e-05
104	0x3835b0ce	4.3318425e-05
105	0x382fe253	4.1934032e-05
106	0x380dc587	3.380098e-05
107	0x381106dc	3.4577082e-05
108	0x3808f885	3.265638e-05
109	0x3802336a	3.10423e-05
110	0x380ba10e	3.3290176e-05
111	0x38079450	3.2324635e-05
112	0x3822ccde	3.8814607e-05
113	0x381be0d2	3.716426e-05
114	0x380490e7	3.1606203e-05
115	0x3801ea1b	3.0974024e-05
116	0x380b5cda	3.3226657e-05
117	0x38305340	4.2039203e-05
118	0x383073f3	4.2069656e-05
119	0x3821fcf8	3.8620987e-05
120	0x381291ef	3.4945024e-05
121	0x3811a7a6	3.472683e-05
122	0x382ecb57	4.1674208e-05
123	0x383b998f	4.4727287e-05
124	0x3851fefe	5.0066963e-05
125	0x38e27b91	0.00010799536
126	0x38f363b3	0.000116057134
127	0x38f15bbf	0.000115088646
128	0x38e004dc	0.000106820575
129	0x38d102d9	9.966427e-05
130	0x388d7e8c	6.746975e-05
131	0x3891d971	6.9546404e-05
132	0x388fd512	6.858459e-05
133	0x388bab32	6.659924e-05
134	0x388f593f	6.835395e-05
135	0x384fa811	4.950917e-05
136	0x384bde31	4.8605903e-05
137	0x383f3490	4.55869e-05
138	0x383349eb	4.2745767e-05
139	0x383e3d00	4.535634e-05
140	0x38397075	4.421217e-05
141	0x3830d8da	4.216363e-05
142	0x381a6bdb	3.681691e-05
143	0x37ffbc71	3.0486119e-05
144	0x3803c5e1	3.1417123e-05
145	0x382eb0fa	4.1649655e-05
146	0x38228cea	3.8755046e-05
147	0x380adca8	3.3107266e-05
148	0x37e0bcdb	2.6790824e-05
149	0x37f7fc9e	2.9562329e-05

exp_avg f4 [6]
0	0x3b881fe8	0.004154194
1	0xbbe0309d	-0.0068417327
2	0xbbaa3e5c	-0.005195422
3	0x3c166ec6	0.009181684
4	0x399d0d92	0.00029955484
5	0x3c01b60b	0.007916938

exp_avg_sq f4 [6]
0	0x388e6a61	6.790902e-05
1	0x37e81b07	2.766914e-05
2	0x3821968f	3.852561e-05
3	0x38a23039	7.733744e-05
4	0x3830cf32	4.2154636e-05
5	0x3837ef43	4.385343e-05
