weights/weight_after_step20_2.pth (torch, 783165 bytes, 30 tensors)

conv1.weight f4 [6, 1, 5, 5]
000000 fd 29 53 3e 07 ab 1e bc f6 12 2e bd f9 73 18 3e
       0.20621486 -0.009684331 -0.04249855 0.1488799
000010 30 58 14 3e 9d 1e 2b 3e 06 9d 12 3d 6a 32 16 be
       0.14486766 0.16710897 0.03579428 -0.14667669
000020 3a e6 9a bd ee fe 35 3e 81 e3 f3 bc 0a 3e d9 bc
       -0.075634435 0.17773029 -0.029771568 -0.02651884
000030 c6 d7 5a be 1e bf 7c 3d 22 88 39 be 3b 5f 85 3d
       -0.21371374 0.0617057 -0.18118337 0.065123044
000040 96 fe fc bd 68 f6 22 be cb 7b ce bd b3 fd dd bc
       -0.12353246 -0.15914309 -0.100822054 -0.027098512
000050 e7 5c 40 be f2 56 43 be f2 43 fe bd 0b 66 94 3b
       -0.1878544 -0.19076136 -0.12415303 0.004528766
000060 dc f1 99 bb ea d0 a6 bc 2f 71 f3 bd 1a c3 b2 bd
       -0.0046980213 -0.02036329 -0.118868224 -0.08728619
000070 85 69 44 bd 11 d6 c4 3c b6 54 8e bc 66 d6 56 be
       -0.047952194 0.024027856 -0.017374378 -0.20980224
000080 e8 1d 2a be ba 05 32 be 03 c6 05 3d 4f 5f 48 be
       -0.16612971 -0.17384997 0.03265954 -0.19567607
000090 62 c5 37 bb 19 06 3a 3d 4f f4 27 3e 7d 7e bc 3d
       -0.0028041233 0.04541597 0.1640179 0.09203813
0000a0 1b 3e 9b bc 86 ad 22 be 4a 37 5a be e3 c4 b8 3c
       -0.018950513 -0.15886506 -0.21310154 0.02255482
0000b0 56 ca 4a 3d 79 b9 19 3e af ea 12 3e 86 6e 0b be
       0.04950937 0.15012158 0.14347337 -0.1361638
0000c0 eb 6c 5c 3d a9 25 82 bd 27 26 5c 3d 2d ef 2f 3e
       0.05381481 -0.06354839 0.053747322 0.17181082
0000d0 36 fd 32 3e 2c 4f fd 3d bb 81 db 3d cb 57 54 be
       0.17479405 0.123686165 0.107181035 -0.20736615
0000e0 cc 9f 2c 3e 66 0f 99 bd b5 1e 8e 3d 5d e2 25 3e
       0.16857833 -0.0747364 0.06939451 0.16199632
0000f0 f8 52 fa 3d 13 cc 79 bc 24 3b 5f 3d e4 63 36 3e
       0.12222856 -0.015246409 0.05449976 0.17811543
000100 b9 6c 91 bd 26 f6 f4 3c 81 cb 1f be 5c c0 21 3e
       -0.07100815 0.029902529 -0.15604974 0.15796036
000110 6a 0f 1d 3e 20 cb 03 3e 2b 14 7e be 76 ad cd bc
       0.15337911 0.12870455 -0.24812381 -0.025107127
000120 88 4a 1e 3d b8 29 fe bc 36 cf f5 bd 63 4a 11 3d
       0.038645297 -0.031025752 -0.12002413 0.03547133
000130 3b fd 17 3e 24 96 92 bd 62 9d 51 3e 88 3b 05 3d
       0.14842694 -0.07157543 0.20470193 0.032527477
000140 91 62 71 3e 28 ec a3 3d 36 67 e1 3d 48 c2 15 be
       0.23572756 0.080040276 0.11006014 -0.14624894
000150 e0 66 17 be a3 74 1e 3c d8 87 52 bd cb 64 4d be
       -0.14785337 0.009671363 -0.051399082 -0.2005798
000160 15 13 f1 3d 6f 97 6c bd 81 be 30 3e 50 65 2e be
       0.11771218 -0.057761606 0.17260171 -0.17030835
000170 d3 6b 69 be d9 5f c7 3d ac 52 6e be c8 98 37 be
       -0.22795038 0.09735078 -0.23273724 -0.17929375
000180 52 7f bf 3b 44 46 c1 bd fa 2e 18 bc eb 6f f8 bc
       0.005844035 -0.0943723 -0.009288544 -0.030326804
000190 75 7d 0d 3d d9 11 de 3d df df d5 bd 49 6b 22 3e
       0.034543473 0.10843248 -0.10443091 0.15861239
0001a0 c4 0e eb bd f4 37 fa bb 57 ac 57 be 88 b1 72 be
       -0.11477426 -0.0076360647 -0.21061836 -0.23700535
0001b0 7e 5c 11 bd b3 bd 13 3d 28 29 2b be 96 7a 18 3e
       -0.035488598 0.036069583 -0.16714919 0.14890513
0001c0 99 30 a2 bd 76 5f 61 3d df c1 25 be de 6a 2c 3e
       -0.079194255 0.05502268 -0.16187237 0.16837642
0001d0 6f c1 0f 3e f3 6e 59 3d a5 aa a0 bd f5 a5 3c be
       0.14038633 0.053084325 -0.07845048 -0.18422683
0001e0 bf 8f 25 be 8e 12 d1 bd e6 79 60 be 16 26 ba bc
       -0.16168116 -0.10208617 -0.219215 -0.022723239
0001f0 5f 5d 0f 3e 33 f2 62 be 2a e9 47 be 2b 6e f6 bb
       0.14000462 -0.22162704 -0.19522539 -0.0075204573
000200 0b f8 a7 bd 88 d8 69 be eb 3a 41 3e 94 ce e5 3d
       -0.08201607 -0.22836506 0.18870132 0.11221042
000210 e4 2b a2 bc f4 1e f2 bc 15 f6 f9 3d 13 8c e1 3c
       -0.01979632 -0.029555775 0.122051395 0.027532613
000220 4f 33 b1 3d 01 e9 1f bd 30 e7 30 3d e0 b4 0e 3e
       0.086523645 -0.03904057 0.043189228 0.13936186
000230 78 d2 9a 3d 49 5e 15 3d e7 3c 08 3e 7e 80 66 3e
       0.07559675 0.03646687 0.13304482 0.22509953
000240 bb 61 75 3d c5 ef 35 3e 4b 80 dc 3d 64 86 6a bd
       0.059907656 0.17767246 0.107666574 -0.05725707
000250 ee 2d 84 bd 79 1d a8 bc
       -0.06454073 -0.020521866

conv1.bias f4 [6]
000000 d5 cd 25 3d 18 dc 16 3e a9 08 aa bd 83 93 30 3d
       0.0404795 0.14732397 -0.08302433 0.04310943
000010 27 2c 89 bc 88 e7 3b be
       -0.016744686 -0.18350041

conv2.weight f4 [16, 6, 5, 5]
000000 e1 45 85 3b 9a c3 94 3d 21 47 fa bc c6 77 e5 ba
       0.004067168 0.072638705 -0.030551495 -0.0017507009
000010 65 9c 0b bd 90 1c f1 3d 82 0f 7a 3d c8 39 16 bd
       -0.034084696 0.11773026 0.061049946 -0.0366762
000020 4b 74 47 bc f8 4d 15 bc 96 f9 53 3d d3 f9 a0 bc
       -0.0121737225 -0.0091128275 0.051751696 -0.019650375
000030 c8 bf c8 3c d5 db 2c 3c a9 70 a9 bc e4 d5 cd bc
       0.02450551 0.010550459 -0.020683603 -0.025126405
000040 7c 1f cf 3d 9a 5b fb 3b 59 f5 cc 3c 39 06 a3 bd
       0.10113427 0.007670832 0.025019335 -0.07960171
000050 d4 a3 17 3c 25 79 ba 3d 76 39 35 3d e8 d0 5b 3d
       0.009255368 0.09105138 0.044244252 0.053666025
000060 02 f6 33 bd 97 3b 1a 3d 30 59 e8 3d 41 ea dd 3d
       -0.043935783 0.037654486 0.11345136 0.10835696
000070 59 1c 86 3d 6a 98 43 3d 2c 09 a7 bc 64 29 0f 3d
       0.06548376 0.047752775 -0.020390116 0.034951583
000080 f9 53 3d bd d4 30 23 3b 18 76 9b bd 11 0d 1e 3d
       -0.04622266 0.002490093 -0.07590884 0.03858668
000090 2b 04 9f 3c bf 15 f2 3c c9 3e 2c bd 5b 6f a4 bd
       0.019411167 0.029551385 -0.042052064 -0.08029052
0000a0 35 06 71 3d 7e 5d 2e 3d b4 51 a6 3a 92 c2 f7 bd
       0.05884381 0.04256963 0.0012689144 -0.12097658
0000b0 14 51 00 be 98 cc e5 3d d9 eb 82 3d a2 ec 47 3b
       -0.12530929 0.11220664 0.063926406 0.0030506034
0000c0 74 e1 ec bd 6a da 6e bd 3d fa 4f bd 46 98 0a 3c
       -0.11566439 -0.058313765 -0.050775755 0.008459156
0000d0 d5 a7 d9 bd 38 80 c8 3b 0a e2 91 bd e3 55 02 bd
       -0.106277145 0.0061188005 -0.07123192 -0.03182019
0000e0 da 0f f6 bc e2 03 b5 bd 89 2a 54 3d 52 f2 5e bd
       -0.030036855 -0.08838631 0.051798377 -0.054430313
0000f0 86 30 a5 bd 95 09 a5 bd 42 02 60 bc 1e f3 e3 3d
       -0.08065896 -0.08058468 -0.013672413 0.11130355
000100 e5 dc 2d bd 4c 38 91 bb a1 3a 34 3d c8 6c 7c 3d
       -0.04244699 -0.00443176 0.044001225 0.06162718
000110 82 53 04 3e e0 6a d9 3d 15 85 d3 bd fa a7 80 bd
       0.1292248 0.10616088 -0.10328118 -0.06282039
000120 a5 1e ec 3d f4 27 d2 3d a6 80 5b bd 35 57 be 3c
       0.115292825 0.10261527 -0.053589486 0.023234943
000130 7b 52 2a 3d c6 49 13 bd 44 dd de bc 9c ce 38 bc
       0.041582566 -0.035959028 -0.027205117 -0.011279728
000140 62 26 07 3d 66 7d bd bd 6d 3d 11 be 7a d4 e7 bc
       0.03299559 -0.092524335 -0.14183588 -0.028299559
000150 f7 c5 bb bd 6c a2 e2 3c 7c dd d2 bc 05 77 5e bd
       -0.09168618 0.02766534 -0.025740378 -0.054312725
000160 ee 69 9d bd b2 5e b6 bd 5d 51 7d 3d 49 ad b2 bd
       -0.0768622 -0.089047804 0.061845172 -0.08724458
000170 8c 73 7b bc 28 db b6 bd 2e a2 d5 3d 64 2a a1 3d
       -0.015347373 -0.089285195 0.10431324 0.078694135
000180 51 9a 01 bd 2b 4d d8 bc 5f e7 85 3d 5c a0 6d bb
       -0.03164131 -0.026403984 0.06538271 -0.0036258912
000190 db a6 72 ba 46 ae 0d 3d 63 56 0b 3d 4a aa 7e bd
       -0.0009256431 0.03459003 0.03401793 -0.06217412
0001a0 99 66 00 bd fb b9 47 3d 02 c7 7e 3d 2d 52 07 bd
       -0.031347845 0.04876135 0.062201507 -0.033037353
0001b0 5b 5c a0 bd 18 a9 85 bd cb 4d ae 3d 38 92 51 bd
       -0.078301154 -0.06526393 0.085109316 -0.051164836
0001c0 2b 02 99 bd a4 5a e6 bc fb 47 8a bd 90 de ad 3c
       -0.07471117 -0.028119393 -0.067520104 0.02122429
0001d0 9b ec 82 3d 51 d9 88 bd de 00 6d bd b7 be 2d 3d
       0.06392785 -0.06682075 -0.057862155 0.042418208
0001e0 57 5d ad bc a6 ec 4c bc bd 62 c6 bd fb 3f c9 bd
       -0.021162672 -0.012507593 -0.096868016 -0.098266564
0001f0 c1 83 14 3d a9 bb 37 bd 52 77 dd bd af 83 64 bd
       0.036258463 -0.0448567 -0.10813774 -0.055789646
000200 c2 39 74 bd 05 a9 6c bd aa 2e b7 bd 4c f4 5b bd
       -0.059625395 -0.057778377 -0.08944447 -0.053699777
000210 e9 3c 29 3d 60 a6 b0 3c 49 44 01 3e fc 62 37 3c
       0.041317854 0.021563709 0.12623705 0.011193033
000220 00 25 fd 3c f1 90 f4 3c a5 72 86 bb 4e dd ab 3c
       0.030901432 0.02985427 -0.004103022 0.02097955
000230 94 ac 00 3c 2d 70 05 3c 78 80 14 3d 2e fa 2d bb
       0.007853646 0.008144421 0.03625533 -0.0026546824
000240 04 67 65 3c 79 d4 4d bc 7c 6e 8b bd ab 5c ba bc
       0.014001612 -0.012562864 -0.068081826 -0.022749266
000250 c0 1e 82 bd 3e 18 9d bc 7d 5d b3 3d 26 aa de 3b
       -0.06353521 -0.019176599 0.08758066 0.0067951856
000260 7a 2c 8f 3d 3c 8b 90 3d 6a f1 99 3d 49 fe e9 bd
       0.06990905 0.07057807 0.07516749 -0.11425454
000270 c4 84 6d bc 14 bf 7f bd 2b fd 0c 3d 19 15 70 3d
       -0.014496986 -0.062438086 0.034421127 0.05861387
000280 17 47 dd bd 56 b3 f6 bc 2b 4d ed bd 37 1c 31 bd
       -0.10804575 -0.03011481 -0.11586984 -0.0432398
000290 d7 1b 51 3c f6 a9 59 bd 6b fa 64 3d d2 c6 ac bc
       0.012762985 -0.053140603 0.05590288 -0.021090899
0002a0 fc 54 dc bc be 5e 80 bd e2 e2 c1 39 cc db c6 3d
       -0.026895992 -0.06268071 0.0003698087 0.09709892
0002b0 a5 fc 1b 3d de 0c 38 bd ef af a4 bd 34 2e 22 3d
       0.038082737 -0.044934146 -0.08041369 0.039594844
0002c0 23 4b d3 3d 86 00 cf 3a 0c e1 6d bc 9d 04 3b 3d
       0.103170656 0.0015793003 -0.014518987 0.045658696
0002d0 43 cd 1c 3d 14 09 92 3d 17 ec 85 3d 8b d1 db 3d
       0.03828169 0.07130638 0.06539171 0.107333265
0002e0 91 4f 91 bb 9c d9 a1 bd 94 9e ba 3c 89 6b f8 3b
       -0.004434534 -0.07902834 0.022780694 0.0075811786
0002f0 ba b6 c3 ba ce bd af 3c 0a 33 63 3c dd 18 f7 bd
       -0.0014931776 0.02145281 0.013867149 -0.12065289
000300 4c b7 13 bd 32 9d ac bd fa a5 a9 bd 57 1a c7 bc
       -0.036063477 -0.0842842 -0.08283611 -0.024304552
000310 95 96 14 bd bd a6 e0 bc 76 90 18 3d 38 66 0f bd
       -0.03627642 -0.027423257 0.037247144 -0.035009593
000320 64 5f ed bd dc 82 04 bb d3 ee ca bd bd bf 05 3d
       -0.1159046 -0.00202196 -0.09908833 0.03265356
000330 be 63 b2 bd a9 7d 82 bd fd 22 89 bd a2 47 dc 3c
       -0.087104306 -0.06371624 -0.066961266 0.026889626
000340 f7 8c a4 bc 94 86 ed bd 10 51 48 3d fe 4d 0e 3d
       -0.020086749 -0.11597934 0.048905432 0.034742348
000350 59 7e 29 bd b8 72 d3 bd 3d ca ac bd 90 b0 af 3d
       -0.04138026 -0.10324615 -0.084370114 0.085785985
000360 2a cc 0d 3d 9e 54 1a bd 4e f5 1d bd d5 b2 ff 3c
       0.034618534 -0.037678353 -0.03856402 0.031213203
000370 b2 37 8e 3d 76 4d 20 bd 97 00 d0 3d 20 51 e4 3b
       0.06944217 -0.039136373 0.101563625 0.0069676787
000380 7b a7 0b bc e1 ba 04 bd 78 3e 09 3c b2 fa db 3d
       -0.008523817 -0.032404784 0.00837671 0.10741176
000390 05 ea fc 3d 3e e6 94 3d c2 79 a2 bd 68 60 11 bd
       0.12349323 0.07270478 -0.0793338 -0.03549233
0003a0 ee 85 13 3d a8 34 4a 3d dc c8 33 3c f1 f3 f2 bd
       0.036016397 0.049366623 0.010973182 -0.118629344
0003b0 05 9a 00 be 6a 60 dd bd 6f 64 9d bd 2c 90 64 bc
       -0.12558754 -0.10809405 -0.07685172 -0.013950389
0003c0 de 90 14 3d 29 9e bc 3d 08 85 c8 3d 61 91 aa bd
       0.03627097 0.09209854 0.09790999 -0.0832851
0003d0 72 5b 7a bc 10 5a fc 3d 3b f6 c0 3d e2 6d cb 3c
       -0.015280591 0.123218656 0.09421965 0.02483267
0003e0 a1 8b 87 3d b3 9e 7c 3d a7 50 b9 3d f2 bc d7 3d
       0.06618429 0.061674785 0.09048586 0.10534085
0003f0 4e c5 96 3d 0d 9a 16 3d 92 85 f1 3d ff a0 2a bc
       0.07361852 0.036768008 0.11793055 -0.010414361

conv2.bias f4 [16]
000000 23 52 87 3d 1e 5d b2 bc 46 77 06 bd 6e e9 c9 3d
       0.06607463 -0.021772917 -0.03282859 0.09858976
000010 18 37 7a bd 91 d6 61 3d e2 7d fd 3c 9a 0c 8a 3d
       -0.061087698 0.055136267 0.030943815 0.06740685
000020 27 df 80 3d 3f f8 b0 3c 2a 90 46 bd d5 5d 91 3d
       0.06292563 0.021602748 -0.04847733 0.07097975
000030 18 8b a9 3d 56 a6 af 3c ad c6 2a 3d 6f 00 57 bd
       0.08278483 0.02144162 0.04169338 -0.052490648

conv3.weight f4 [120, 16, 5, 5]
000000 7d 4c 61 bc 40 d6 1e 3d 66 31 0e 3c 0a 16 48 bd
       -0.013751146 0.038778543 0.00867877 -0.048849143
000010 4f f0 90 bc 19 e0 dc 3c b1 88 83 3b 0b 46 b6 bc
       -0.017692713 0.026962327 0.0040140976 -0.022250196
000020 04 39 ed bc 9e 6c 22 bd c7 0c 78 3d 1f b7 54 bd
       -0.028957851 -0.039654367 0.06055906 -0.05193245
000030 39 19 a8 bd fb c4 a8 3d 25 f7 3a bc 58 26 af 3c
       -0.08207936 0.08240696 -0.011411463 0.021380588
000040 b0 ea b6 bd e0 ff 8b bd c3 98 93 bc ce b0 dd 3c
       -0.08931482 -0.06835914 -0.018017178 0.027061846
000050 30 22 c2 b9 95 d5 bc bb 43 c5 83 3d a5 58 fa bc
       -0.00037028035 -0.0057627656 0.06434109 -0.030559847
000060 12 14 b0 3c da 81 6a bd a4 00 26 bc 06 86 89 bc
       0.021493945 -0.057252742 -0.010131989 -0.01678754
000070 df de 67 bb 00 a5 3b bb 18 7b 90 3c f0 e4 56 3c
       -0.0035380644 -0.0028632283 0.01763682 0.013116106
000080 68 37 26 bd 8a 51 85 bd 86 f9 40 bd 2e 70 8e 3d
       -0.040580183 -0.06509693 -0.047112964 0.0695499
000090 40 73 c4 3d 25 45 03 3c 07 b6 fb bc f6 bc a9 3d
       0.09592295 0.008012091 -0.030726446 0.082879946
0000a0 cd 12 94 bd 25 bd b8 3c 9d 07 81 bb f5 b1 30 bd
       -0.072301485 0.022551129 -0.003937675 -0.043138463
0000b0 ad 9c a5 bd 52 20 24 bc 9f 94 9b bc 10 11 ad 3d
       -0.08086524 -0.010017471 -0.018991766 0.0845052
0000c0 ae dd c4 3d ef 37 47 bc 85 64 53 3d a3 3c 5e bb
       0.096125945 -0.012159332 0.051609535 -0.0033910654
0000d0 47 61 b1 3c 94 79 b7 3d b2 ae 8e 3d e4 c0 95 3c
       0.02165283 0.08958736 0.06966914 0.018280454
0000e0 48 d2 95 bd 03 42 bf bc bb 04 10 3d 9b f4 86 bd
       -0.073154986 -0.023346907 0.03516076 -0.065896235
0000f0 6a e0 b8 3c c8 b4 8f 3d aa d3 23 3d a1 c9 f5 bc
       0.022567946 0.07016903 0.03999678 -0.03000337
000100 dc fb 87 3d 7e 25 8b 3c a3 dc 99 3c 3d 9b d6 3b
       0.06639835 0.016985651 0.018781966 0.0065492676
000110 f9 d1 56 bb d0 51 21 3d 6b 68 0e bd 43 28 86 bc
       -0.0032778962 0.039384663 -0.03476755 -0.01637662
000120 3d 14 10 3d cd 27 7f bd d3 a8 0f bb 25 d3 12 3d
       0.03517555 -0.062293816 -0.0021920695 0.035845894
000130 17 c3 59 3d bd 9d ca bc 63 3a a8 bc 1a cd 2b ba
       0.053164568 -0.024733419 -0.020535653 -0.0006553695
000140 52 0c 01 bd c1 50 92 3d b5 0e 65 3b e6 7b 9e bc
       -0.03150589 0.07144309 0.0034951393 -0.019346189
000150 6b d0 a1 3c af 0a 02 bd a8 f9 87 bc b6 77 ee 3c
       0.019752702 -0.03174847 -0.016598538 0.029109817
000160 a9 11 03 3d 29 2e ec 3c 90 a0 40 bd dd f0 c1 bd
       0.031999264 0.028830605 -0.047028124 -0.09469769
000170 8d 3f cf 3a 25 eb 36 3d 50 86 7b 3c ce 8d 10 bb
       0.0015811786 0.044657845 0.015351847 -0.0022057178
000180 a9 07 3c bd fb 91 63 3b d8 cd a3 3d 7c 33 88 3c
       -0.045905743 0.0034724462 0.07998246 0.016626112
000190 0d f1 15 bd a3 4e 5b 3c f3 74 75 bc 2c f1 aa b9
       -0.036606837 0.013385448 -0.014981496 -0.00032604614
0001a0 16 88 3c bd b7 f9 d8 bc 25 eb 90 bb 98 d2 a4 bd
       -0.04602822 -0.02648626 -0.0044225627 -0.0804798
0001b0 bd cd b9 3c cf 42 85 3c 6a d3 52 3d 09 57 2e bd
       0.022681111 0.016267208 0.05147115 -0.042563472
0001c0 5c 09 7a bd 3f 39 0d 3d 48 07 06 3d 06 c4 7c bc
       -0.061044082 0.034478422 0.032721788 -0.015427595
0001d0 2a e9 22 bd 84 0c 77 3d 4d 26 e7 3c 06 70 0c bd
       -0.039773144 0.06031467 0.028216505 -0.03428652
0001e0 5b af be bc 5e 86 b6 3c 67 25 71 3c 47 02 9b bc
       -0.023276975 0.022280868 0.01471839 -0.018921984
0001f0 ea 96 f9 3c 9d 31 bd 3b b8 a6 4a 3d 9e 3c 85 3d
       0.03046747 0.0057737366 0.0494754 0.065057024
000200 76 6b fa 3c 85 39 8c bc dd 24 c9 3c fc ed 3f 3d
       0.03056882 -0.017117271 0.02455371 0.04685782
000210 8f 93 4a bd 3c 8c a3 bd 20 6e 99 bd 83 20 1b 3d
       -0.04945713 -0.07985732 -0.07491708 0.037872802
000220 94 33 ab bc f6 49 7f bd 52 45 ed bc 52 66 18 3d
       -0.020898618 -0.062326394 -0.028963719 0.037206955
000230 b8 1a ea 3c 12 be a9 bd 1e 30 13 bd 00 57 2b 3d
       0.028577194 -0.08288206 -0.03593456 0.041831017
000240 c5 41 47 bd ce 3e 5a bc 85 5c 11 bd b6 20 89 3c
       -0.048646707 -0.013320638 -0.035488624 0.01673923
000250 cf 48 44 3d 2d fe a2 3c f6 b7 cd bc ec c8 4a bc
       0.047921 0.019896591 -0.025112133 -0.012377005
000260 98 61 40 3d 70 a5 db 3c d2 f0 ad 3c 94 d3 a9 bc
       0.046968073 0.026812285 0.021232996 -0.020730771
000270 06 19 8d 3d b1 aa 6b bd af 44 42 bd 94 92 88 3c
       0.068895385 -0.05753583 -0.047428783 0.016671456
000280 c1 eb 87 3c 7b b9 9e 3d 70 92 94 bc 12 27 44 bd
       0.016591908 0.07750221 -0.018136233 -0.047888823
000290 23 85 57 3d 27 93 f2 3b ba 6b 50 3a 45 d6 67 bc
       0.052617203 0.007402796 0.0007950623 -0.014150207
0002a0 fb 81 87 bd 82 1b ff bc c2 18 76 bc 8a 18 8e bc
       -0.06616589 -0.031141046 -0.015020551 -0.017345686
0002b0 71 62 0b bc b1 1d d5 3c 7a c4 23 bb a3 c3 12 3c
       -0.008507357 0.026015135 -0.0024988935 0.008957776
0002c0 53 ff 2a bc e6 ae 77 bb 25 01 28 bd a4 7e 7a bd
       -0.010436851 -0.0037793457 -0.041016717 -0.06115593
0002d0 1a 94 f5 3c cb 66 00 bd db 33 7e bd bf 2b d5 bc
       0.029977847 -0.03134803 -0.062061172 -0.026021836
0002e0 b6 f6 7a 3d 9a 3c e8 b9 d5 6e 25 bd 38 09 21 3a
       0.061270438 -0.0004429564 -0.0403889 0.00061430363
0002f0 d0 13 27 3d 22 bc 2f 3d f4 6d 0b 3d c7 45 ce 3c
       0.04079038 0.042904027 0.034040406 0.025179757
000300 79 f9 8a 3d 99 18 70 3d 17 b2 33 bd 07 77 e3 bc
       0.067858644 0.05861721 -0.04387101 -0.027766718
000310 12 9e 87 bb 9e 3e 67 3d aa 76 b1 3b cc 8b 4f 3b
       -0.0041387165 0.0564562 0.005415757 0.0031669019
000320 8e 82 2a 3b 5b 2c 79 bd 81 a8 0b 3d fb 11 c5 3c
       0.0026017758 -0.060833316 0.034096245 0.024056425
000330 69 12 78 3c 0d bb cd 3c 8d 27 7a bd 6c a7 ab bd
       0.015141108 0.025113607 -0.061072875 -0.083815426
000340 8c 32 5d bd 30 aa bf bc a9 d8 31 3d b8 9a 55 3c
       -0.054003283 -0.023396581 0.043419514 0.013037376
000350 3d a9 a1 3b 0d 22 7a 3c d5 54 02 3d 70 c5 b2 bd
       0.004933505 0.015266907 0.031819183 -0.087290645
000360 5e 03 9b 3d 0d ac b3 bc 72 1f b0 bd 10 b4 f0 3c
       0.075690016 -0.021932626 -0.08599748 0.029382735
000370 d1 c0 14 bd ee 59 c8 3c 35 40 ed 3c 21 7d f5 3b
       -0.036316697 0.024456944 0.02896128 0.007491723
000380 86 1f 18 bb 3e 4b 1d 3d f8 07 04 3d f9 c1 28 3d
       -0.0023212149 0.038401835 0.032234162 0.04120061
000390 98 b0 75 3d 8b db 96 3c 42 9c 25 3c 51 d5 47 bd
       0.059982866 0.018415233 0.010108056 -0.04878742
0003a0 f9 9a 38 3c 33 d4 38 bd 48 24 c9 bb 36 95 84 3d
       0.011267417 -0.045124244 -0.0061383583 0.06473772
0003b0 14 dc 65 3d 1f bf 58 bd 1f 2b c7 bc f6 fb 91 bc
       0.056118086 -0.052916642 -0.024312554 -0.01782034
0003c0 b4 a0 19 3d 9b 3a 23 3d bd b1 9b bb c4 c5 74 bc
       0.037506774 0.039850812 -0.0047514127 -0.014939729
0003d0 53 36 dc bc 2e 0e 17 bd 6b a8 0f bd 01 99 cf bc
       -0.026881373 -0.036878757 -0.035072725 -0.025341513
0003e0 f4 03 d5 3c aa 10 12 bd fd e9 d2 bc a5 f6 0a 3c
       0.026002862 -0.035660423 -0.02574634 0.008481656
0003f0 fa a8 a5 3c 05 e3 8d bd 62 46 52 ba 02 69 d7 3c
       0.020222176 -0.06928066 -0.0008021352 0.026295189

conv3.bias f4 [120]
000000 11 86 8f bc e9 c3 48 3d 38 15 87 bc ec 66 0a bd
       -0.017519983 0.04901496 -0.01648961 -0.03378956
000010 b4 3d 20 3c ce 86 19 3c 7a a6 9a 3c e3 40 27 bd
       0.009780336 0.009370519 0.01887821 -0.040833365
000020 3b ce 6d 3d 45 b7 7b bc aa 10 3a bc 71 27 b0 3c
       0.058058005 -0.015363519 -0.011356512 0.021503182
000030 2b 32 10 bc a2 9d 28 3d 0f 14 35 bd eb 50 a5 bc
       -0.0088010235 0.041165955 -0.044208582 -0.020180186
000040 dd eb b0 3c d2 1e 39 3d b0 4a 1f bc 6a 19 29 bd
       0.021596843 0.04519541 -0.009722397 -0.041284002
000050 a6 82 43 bd 10 74 f0 3b a2 c6 ee bc 84 e1 0a 3c
       -0.047732018 0.0073380545 -0.02914745 0.008476619
000060 0b 9d d1 3c 2a 22 12 bd 00 f1 3d 3d 97 29 86 bc
       0.02558758 -0.035677113 0.046372414 -0.016377253
000070 72 9f 45 3d 91 d5 f7 3b 79 60 f1 3c dd 12 70 bd
       0.048247762 0.007563301 0.029464947 -0.05861174
000080 9a 5d 98 bd 45 a1 f5 bc 34 33 0e bd 56 ac e7 bc
       -0.07439728 -0.029984126 -0.0347168 -0.028280418
000090 76 42 6e 3d c6 c9 ab bc 56 bb 54 3d 70 18 f5 3c
       0.05816885 -0.020970237 0.05193647 0.02991888
0000a0 62 e1 e1 bc ad 47 35 3c 65 17 17 bb d9 77 53 bc
       -0.027573291 0.011064452 -0.0023054716 -0.012906992
0000b0 24 94 4e 3d 68 1d fd 3c 3b 40 49 3d 3e f1 0b 3d
       0.050434247 0.030897811 0.04913352 0.034165613
0000c0 4f 79 ed 3b 96 85 d1 3a 53 35 10 bd 8e b1 d3 3c
       0.007247127 0.0015985246 -0.035207104 0.0258415
0000d0 15 77 6f 3c 65 3a 9b bc 70 27 cb 3c 80 73 2b bd
       0.014615794 -0.018948743 0.024799079 -0.041858196
0000e0 38 da 58 bd 3c a9 c1 bc c8 41 fb bc 39 35 17 3d
       -0.052942485 -0.023640268 -0.030671015 0.03691599
0000f0 c2 e0 27 bc 26 e6 e1 3c b1 98 93 bb bb 5f d3 bc
       -0.0102464575 0.027575564 -0.004504286 -0.025802484
000100 16 4f dd 3c 6f a9 15 bd 0a 8c a9 bc 78 ae 40 bb
       0.02701525 -0.036538538 -0.020696659 -0.0029400866
000110 8a 03 06 bd 8a 79 4e bd 07 0f 30 bd 23 96 65 bc
       -0.03271822 -0.050408877 -0.04298308 -0.014012846
000120 d9 51 43 3a d2 bc 31 bc e3 81 dd 3a 89 cb 2e 3a
       0.0007450856 -0.010848241 0.0016899671 0.00066679023
000130 78 61 8b 3d 9f 5c d3 bc ff 1a b9 3c 1e 21 5d bd
       0.068057 -0.025801001 0.02259588 -0.05398666
000140 01 ac 17 bd 5f 59 d0 bb d9 51 02 3c 1d ff 37 3c
       -0.03702927 -0.00635831 0.007954084 0.011230257
000150 23 d4 db 3c 84 a6 cc 3c 2e f5 11 bc 8c 39 18 bd
       0.026834553 0.024981745 -0.008908553 -0.037164256
000160 1e e2 69 3c a1 87 a8 3b 12 8d 8f 3c ac 16 7b 3d
       0.014275102 0.0051431214 0.017523322 0.06130092
000170 92 f6 23 3c 14 3c 60 bd e1 a5 59 3c 11 c5 b4 bc
       0.010007517 -0.054744795 0.0132841775 -0.022066625
000180 e2 e3 82 bc 02 26 00 bd 4e 94 a3 3c a6 fa 6d bd
       -0.015977804 -0.031286247 0.019968178 -0.058100365
000190 da c7 40 bd 27 7c 81 3d 11 dd dd 3c 3a e2 4c 3c
       -0.047065593 0.06322508 0.027082952 0.0125051085
0001a0 8b 37 04 bd 68 54 86 3d ff 2a 2f bd c2 c8 a3 bc
       -0.032279532 0.06559068 -0.042765614 -0.01999319
0001b0 01 45 fc bb 7f 51 e0 3b 97 8e f8 3c fd 86 31 3c
       -0.0076986556 0.0068456526 0.03034143 0.010835406
0001c0 48 fc 36 3b 5a 99 48 bd ce e1 ee 3b 9c 31 1f bd
       0.0027921367 -0.048974372 0.0072901016 -0.03886567
0001d0 fa 72 a3 bc a8 91 fc bc e3 5f 1d bc 3e fb 94 bb
       -0.019952286 -0.030831173 -0.009605381 -0.004546552

linear.weight f4 [84, 120]
000000 89 80 8f 3c 29 3b 72 bd ec 7f 19 bd e8 0a a3 bc
       0.017517345 -0.05913845 -0.03747551 -0.019902661
000010 78 8e ce bd da 1e a5 3d 79 8e 9e 3d 64 00 16 bd
       -0.100857675 0.08062525 0.07742018 -0.036621466
000020 37 f1 db 3d f3 71 00 be 69 e4 24 3d 50 ab 38 3d
       0.107393675 -0.12543468 0.04025689 0.04508525
000030 53 7a 5e 3d 46 0a c7 3b 05 6d b9 bd 0b a3 10 bd
       0.054315876 0.0060742227 -0.09053997 -0.03531174
000040 06 94 1f 3c f9 9e e6 bb 56 33 d8 3d 2b 46 b4 3d
       0.009739881 -0.007037994 0.105566666 0.08802446
000050 65 da b3 3d 58 0c f0 bd 0e e1 e6 bb 41 af 52 bd
       0.0878189 -0.117211044 -0.0070458716 -0.051436666
000060 70 31 b5 bd aa 2e 37 bc c0 c9 be bd 97 16 bb bd
       -0.0884732 -0.011180559 -0.093158245 -0.09135168
000070 34 18 0d 3c 7a 3c 60 bd 61 54 03 be ef 33 cb bb
       0.0086117275 -0.054745175 -0.12825157 -0.0062012593
000080 05 e3 29 3d 21 cb 90 3c 4f 9c aa 3c 36 b4 19 3d
       0.04147627 0.017674984 0.020826487 0.03752538
000090 b6 45 f0 bc df a6 b7 3d cb f7 0a bd db 7a e4 3c
       -0.029330116 0.08967375 -0.03392772 0.027890613
0000a0 08 5c d0 ba 9e cb f0 bd b1 db a0 3d 18 d5 b8 3d
       -0.0015896568 -0.11757587 0.07854403 0.090250194
0000b0 a7 4f c1 bd 1f 7b 46 3a 7e c2 84 3d a8 5e 10 bc
       -0.094390206 0.0007571447 0.06482409 -0.00881163
0000c0 37 8a 4a 3d 6b 03 2c 3d 71 0c 60 bc 40 4b 98 3d
       0.04944822 0.041995447 -0.013674841 0.07436228
0000d0 9a 72 24 bd 1b 34 ab 3b d7 49 d1 bd 38 b2 73 3d
       -0.040148355 0.0052247173 -0.10219162 0.059496135
0000e0 9c 87 97 3d 8f 70 15 3d 4d 9f 16 bd f4 c4 9f 3a
       0.07398912 0.036484297 -0.036773015 0.0012189434
0000f0 87 f6 4e 3d 58 9b 7d bd 02 71 93 3d 24 d8 78 bd
       0.050528076 -0.061915725 0.07199289 -0.060753003
000100 d2 45 43 3d 1d 28 c0 bc 4c bf b8 3d c2 00 8f bd
       0.047674008 -0.023456628 0.09020862 -0.069825664
000110 79 32 74 3d e2 a3 d0 3d 35 8f 7d bd 7e bd b6 bd
       0.059618447 0.10187508 -0.06190415 -0.089228615
000120 00 61 d8 bd 85 80 9f bd 48 ff 3d 3b 3b 50 29 3d
       -0.10565376 -0.07788185 0.002899127 0.04133628
000130 71 2b b1 bb ba 02 4e bd 16 1e f7 bc 0d 3a 99 bd
       -0.00540679 -0.05029557 -0.030165713 -0.074817754
000140 a7 d5 fd bc d1 d4 30 3d 8b f7 60 bd 95 d3 f0 bc
       -0.030985666 0.043171708 -0.054923575 -0.029397765
000150 ab 27 a2 bd 53 db 54 bd 8c 1e 7b 3d ce 7f 90 bd
       -0.07917722 -0.051966976 0.06130843 -0.07055627
000160 64 24 46 bc a2 73 4f bd 0a 44 3e 3c 29 bb 1d bd
       -0.012093637 -0.050647385 0.011612901 -0.038508568
000170 e0 5d 01 bd ba 24 9c bd 13 2d e9 bc 60 46 6e 3b
       -0.031583667 -0.076241925 -0.028463876 0.0036357865
000180 62 87 9a 3d ec 48 f7 bc c5 96 79 3d 4b c4 2d bd
       0.075453535 -0.030186139 0.0609348 -0.042423528
000190 f5 da 4f bc 60 95 55 bc d8 39 21 3d 8c d2 6f bd
       -0.012686481 -0.013036102 0.039361805 -0.058550403
0001a0 63 71 cf bd c3 02 6e 3d 6a c8 85 3d b5 01 5f bd
       -0.10129049 0.058108103 0.065323666 -0.054444987
0001b0 41 ea 60 bd 8d 4d 21 bc bf 9f 8f bd 73 7f 86 3d
       -0.054910902 -0.00984515 -0.07012891 0.06567278
0001c0 f4 d5 db 3d b6 62 6e bb 5e bc 19 3d 6d b5 f8 3c
       0.10734168 -0.0036374754 0.037533157 0.030359948
0001d0 06 3b 2b bc c3 ca b2 3d a1 28 33 bd 33 16 17 bc
       -0.010451084 0.0873008 -0.04373992 -0.009221601
0001e0 da 37 90 bc f3 78 b0 3b 80 5d 05 bd 81 c0 a3 bd
       -0.017604757 0.005385512 -0.03255987 -0.079957016
0001f0 a8 73 b7 3b 79 6d 1e bb 33 c7 b7 bc 48 79 f5 39
       0.005598504 -0.0024174138 -0.022433853 0.00046820403
000200 27 40 5f bd 40 5d e0 bd ae 03 a3 3d c7 60 e0 bd
       -0.05450454 -0.10955286 0.07959686 -0.10955959
000210 a4 9a 7e 3a 08 1d 8c 3a 65 47 eb 3c 65 e3 ab ba
       0.00097123743 0.0010689804 0.028720567 -0.0013114033
000220 f0 dd 0d 3d c3 1d 87 3c 06 04 6d 3d 46 38 04 3d
       0.034635484 0.016493684 0.057865165 0.03228023
000230 fd 44 45 bc 99 f6 0a 3e 53 9a de 3a e2 5c 6b bb
       -0.012040374 0.13570632 0.0016983248 -0.0035913517
000240 3d ee 9d 3d 5a a9 ff 3c c2 09 af 3a 82 6e 1e bd
       0.07711456 0.031208683 0.0013354348 -0.038679607
000250 4a bc 87 3c b1 ec a6 3d 19 57 fe 3c 9a 5c d3 bc
       0.016569275 0.08150614 0.03104739 -0.025800992
000260 4a e1 1b 3d 6d 49 87 3d 3a d2 be bc ae 36 d2 3d
       0.03805665 0.06605802 -0.023293603 0.102643356
000270 5f f6 90 3d 41 46 87 bd b8 9c c8 bd 5d 5e 78 3c
       0.070782416 -0.06605197 -0.09795517 0.015159217
000280 a7 18 e6 bc c5 68 ca 3d 05 09 0b be 68 48 03 be
       -0.028087927 0.098832645 -0.1357766 -0.1282059
000290 12 0d b1 bd e0 b9 a9 bd e2 a7 b9 bd 1b 38 24 bd
       -0.08645071 -0.08287406 -0.09065224 -0.04009257
0002a0 64 b9 89 3d bf 04 06 3d 42 6f 24 bd ef cc ed 3c
       0.067248136 0.03271937 -0.040145166 0.029028384
0002b0 1a c5 89 3c 3b 75 8e 3d cc d8 8c bd 4e e8 bb 3d
       0.016817618 0.06955954 -0.06877288 0.09175168
0002c0 ab 21 03 3e e3 2a 03 3d 25 45 58 bd 46 97 14 be
       0.12805812 0.03202332 -0.052800316 -0.14510831
0002d0 be 34 1f bd 7c c6 05 3e 1d 03 1a bd 7e 65 ba 3d
       -0.03886866 0.13063997 -0.037600625 0.09101389
0002e0 4a f5 cb 3d 13 0e ca bb bd 40 bc 3d a5 67 c1 bd
       0.099588946 -0.0061662286 0.09192035 -0.09443597
0002f0 2d 70 d5 bc cb 94 a5 3d 07 cc 51 3d 6e 53 a6 bd
       -0.026054466 0.08085021 0.051219966 -0.08121382
000300 6e 0b 2e bd c9 dd 2f 3d 35 92 a7 3d 61 b7 73 3d
       -0.04249137 0.04293612 0.08182184 0.059501056
000310 20 da ac bc 81 0b 22 bc 2e 48 1e 3d de 35 18 3e
       -0.021100104 -0.009890438 0.038643055 0.14864299
000320 d8 2c 9e bd 2e bf 57 3d 09 90 22 bd a7 f7 11 3d
       -0.07723397 0.052672558 -0.039688144 0.03563657
000330 03 1a eb 3d 3d a0 ad bd 95 15 bd bc 29 a6 90 3d
       0.11479571 -0.08477829 -0.02308158 0.070629425
000340 1b 96 05 be 3a 56 28 3d 63 f1 64 bd 60 04 93 3c
       -0.13045542 0.041097857 -0.055894267 0.017946422
000350 ac 7a f5 bc db 41 a6 3c 06 0f 49 3d 5f 0a 81 bd
       -0.029965721 0.020295074 0.049086593 -0.06300806
000360 82 26 17 3d 96 96 d2 3d 2d 42 fb bd 96 57 b5 3d
       0.03690196 0.10282628 -0.122684814 0.08854596
000370 c2 76 9a 3d 3c 67 f5 bd bf 3e 54 3d 94 cd c7 bd
       0.075421825 -0.11982581 0.05181765 -0.09756008
000380 21 c3 57 bd 9e 51 12 bd 70 b3 ad bd b3 a5 05 3d
       -0.052676324 -0.035722367 -0.084814906 0.032628726
000390 37 15 fc 3d a1 47 a0 bd 00 4d 00 3e aa 30 a5 bb
       0.12308734 -0.07826162 0.12529373 -0.0050412016
0003a0 bf 1a 80 3c ff f2 40 bd 9f 99 18 3d df fc 21 bd
       0.015637754 -0.04710674 0.03725588 -0.039547797
0003b0 79 e5 d6 bc 6e 5b dc bd 33 d0 c3 3c 98 2b 0e 3d
       -0.026232468 -0.10759626 0.023902988 0.034709543
0003c0 12 c3 0a bc 12 19 a9 3d 47 1e 20 3d 9e fb 76 bd
       -0.00846936 0.08256735 0.039091375 -0.060298555
0003d0 04 a4 0b 3d dd a5 23 3d e4 31 78 bd e9 3c 8c 3d
       0.034091964 0.0399531 -0.060594454 0.06847555
0003e0 9c 87 d3 3c d3 92 10 bd 16 c3 a1 bd e9 8a d3 3d
       0.0258215 -0.035296272 -0.07898538 0.103292294
0003f0 de 96 d1 3c 2f cd 10 3d f0 6a da bd 89 43 92 3d
       0.025584634 0.03535193 -0.10664928 0.071417876

linear.bias f4 [84]
000000 55 2b 81 3d 71 bb 81 bd 57 7b 34 bd 83 4b 85 3d
       0.06307093 -0.0633458 -0.04406294 0.06508543
000010 54 04 b9 ba 54 f2 83 bd c6 5d 95 3d df 07 7a bd
       -0.001411567 -0.06442705 0.072932765 -0.061042663
000020 6f d2 8f bd e6 fb 4c bd 9f 05 c5 3d 72 8b da 3c
       -0.07022559 -0.050044917 0.09620213 0.02667782
000030 8a 1a ac bc 5c 9d b3 bd 75 5e c5 3d ee 20 1c bd
       -0.021008749 -0.08770248 0.09637157 -0.03811734
000040 a9 f9 be 3d 0c 97 67 3c 7b 43 40 3d c9 3c 59 3d
       0.09324963 0.0141351335 0.046939354 0.053036485
000050 f9 13 84 bd 19 ff 8a 3d 7f 86 63 bd 08 b1 ce bd
       -0.06449122 0.06786937 -0.055548187 -0.1009236
000060 83 fe 1d 3d c1 38 1b 3d ff b0 41 3d 71 5e f2 bd
       0.0385728 0.03789592 0.047287937 -0.118344195
000070 4a a3 15 3d e3 ee 26 bc 6f c5 49 bd 4e 1d 94 3c
       0.036532678 -0.010188791 -0.049260553 0.01808038
000080 ad ba b9 3d 8c e9 aa bd a9 1a be 3c 96 cf 44 3c
       0.09068809 -0.08345327 0.023206072 0.012012383
000090 2c b2 c3 3d b8 51 94 bd 07 e3 9f bd 65 96 87 3d
       0.09555468 -0.07242149 -0.07806974 0.06620482
0000a0 30 93 ac 3d 2d 49 9a bd 38 49 7a bd c3 32 95 bc
       0.08426511 -0.075334884 -0.061104983 -0.018212682
0000b0 52 db 8c 3c 04 cf cd 3d 6a be 41 bb 27 2b c1 bc
       0.017194424 0.10049251 -0.0029562959 -0.023580147
0000c0 94 d4 06 3d 89 40 1a 3d 48 7a 8b bd 68 ee ab bc
       0.032917574 0.0376592 -0.06810433 -0.020987704
0000d0 0c 95 cb 3d 7c e9 f5 3d 32 cf 8b bd 96 f1 48 bd
       0.09940538 0.12007424 -0.06826629 -0.04905852
0000e0 2a b1 c1 3c 13 ea 9c 3d ba 40 54 bc c3 5e b5 bd
       0.023644049 0.076618336 -0.012954885 -0.08855965
0000f0 d6 cc 61 3d 28 72 3b 3d cd ff f2 bb d6 fd 97 3d
       0.055126987 0.045763165 -0.0074157477 0.07421462
000100 a6 bd 50 3d ee 61 d9 3d 0e 69 bc bd 1b 80 56 bc
       0.050962113 0.10614382 -0.09199725 -0.013092066
000110 17 e0 74 3c ff 76 60 bd 2a 0b 18 bc f8 4e 3e bd
       0.014946005 -0.054800984 -0.0092800055 -0.04646203
000120 1c 38 8e 3d 36 43 9b 3d 5b 4e 86 3d fd d0 a8 bd
       0.06944296 0.07581179 0.06557914 -0.08242986
000130 ab f0 8f bc 0f c5 9f bd f9 b8 83 3d 78 85 1a bb
       -0.017570814 -0.07801258 0.06431765 -0.0023578089
000140 01 3b 29 3d 87 a7 8f 3d 28 53 5b bd 17 e5 3d bd
       0.041316036 0.07014375 -0.0535461 -0.046361055

output.weight f4 [43, 84]
000000 e0 5d b7 3c 9d f9 cd bc b7 68 ae 3d bc 90 ba bd
       0.02238363 -0.025143439 0.085160665 -0.09109637
000010 5d 8c 64 bd 5f de f1 3d 80 6d 54 3d 42 74 a6 bc
       -0.055797923 0.11809992 0.05186224 -0.020319108
000020 a8 31 1c 3c 7a b1 1d 3d da ca b4 bd ca c8 bf 3d
       0.009533323 0.038499333 -0.08827753 0.09364469
000030 ef be 1d 3d 77 0b d5 3d 80 de aa 3a 6f b1 ce 3d
       0.038512167 0.10402577 0.0013036281 0.100924365
000040 3a c3 89 3d be 23 6c 3d da 71 21 bd 7f 8a c7 3c
       0.0672669 0.057651274 -0.039415218 0.024358032
000050 e0 e4 e7 3c 1e 19 2d 3d 94 a2 45 3d 19 3a 80 3d
       0.028307378 0.04226028 0.04825075 0.06261081
000060 39 9a b8 bd 55 40 a4 bd b5 61 ac bd 82 95 97 3b
       -0.09013791 -0.08020083 -0.08417074 0.004625977
000070 de 53 08 bd d9 ba 10 3d 72 35 a4 3d ba 22 cd 3d
       -0.033283107 0.03533444 0.080180064 0.10016389
000080 f7 43 9f bc a5 da 90 bc dd b8 bf bd 8e 37 a9 bd
       -0.019441588 -0.017682383 -0.09361432 -0.08262549
000090 61 61 52 bd 60 b5 41 bd 20 9d 15 bd 41 88 d2 bd
       -0.0513624 -0.047292113 -0.0365268 -0.102798946
0000a0 96 98 90 bd 99 1c d8 3d d3 4f 63 bd b6 04 a5 bc
       -0.070603535 0.105523296 -0.05549605 -0.020143848
0000b0 a7 92 18 3c a1 1c 40 bc d6 c5 56 3d f9 2a be bd
       0.009312308 -0.011725576 0.052434765 -0.0928554
0000c0 9c fa 2c 3d fb a8 05 be b9 fe ac bd d9 ba de 3c
       0.042231187 -0.13052742 -0.08447022 0.027188705
0000d0 4e 20 09 be 54 60 cc 3c 7d 54 c7 bd 32 58 a8 bc
       -0.1339123 0.024948277 -0.09732912 -0.020549867
0000e0 e2 b9 5f bd fc d1 ab bd c1 74 d3 3d 91 b8 03 bd
       -0.05462063 -0.08389661 0.103250034 -0.032158438
0000f0 54 c3 e9 bc 75 f8 92 bd fd c7 88 3d cf d1 be 3d
       -0.028535523 -0.07176296 0.0667877 0.093173616
000100 32 a8 34 3d d0 08 f5 3c b9 9c b4 bc da 5b e3 bd
       0.044105716 0.029911429 -0.022047387 -0.11101504
000110 4e 13 5e bd ad c0 4b 3d 76 2c ec 3c 4d 36 54 3c
       -0.05421763 0.049744297 0.028829794 0.012952399
000120 90 6e b5 3d 00 4c 1b bd 3a 08 a3 bd d7 da 24 3d
       0.08858979 -0.037914276 -0.079605535 0.040247764
000130 c6 34 69 bc 89 dd 32 3d 92 8a a2 3c 04 30 b7 3d
       -0.014233774 0.043668304 0.019841466 0.08944705
000140 6e 06 db 3d a1 59 95 3d fa 83 e2 3b c2 d0 af 3d
       0.10694586 0.07292486 0.0069127055 0.08584739
000150 95 60 d0 bd 2e 68 b5 bd 8e be 8b bc 00 5d e8 3d
       -0.101746716 -0.08857761 -0.017058637 0.11345863
000160 62 1e f8 bc 3a b5 59 3c ec d7 da bd 8c 9a 91 3d
       -0.030287925 0.013287837 -0.10685715 0.071095556
000170 bd a5 ca bd c7 0c bc 3d 40 b5 a0 bd 30 7e 7a 3d
       -0.09894893 0.091821246 -0.07847071 0.061155498
000180 4d f8 2c bd e9 f3 0e 3d d6 54 6f bd 63 ac 93 3d
       -0.042228986 0.03490058 -0.058430515 0.072106145
000190 22 f6 d7 bd af 3c 86 3d 75 14 06 bd a2 80 50 bd
       -0.10544993 0.06554543 -0.032734353 -0.050903924
0001a0 68 f9 e4 3d 13 f1 8c bd be 10 a4 bd 7c 04 ec bd
       0.11180383 -0.06881919 -0.08011006 -0.11524293
0001b0 6f 07 d7 bd ac 04 b9 3c 07 03 46 3d ca 08 84 bd
       -0.10499465 0.022585236 0.04834273 -0.06446989
0001c0 88 c8 99 bd b7 8f fa 3d 52 dc 9c bc 03 22 78 3d
       -0.075089514 0.12234443 -0.019148026 0.06057931
0001d0 86 82 84 3d fe 5b 42 3d dd 18 ba bd ac d6 00 3e
       0.06470208 0.04745101 -0.090867735 0.12581891
0001e0 bd d9 d8 bd 2f 20 e0 bd 80 58 70 3d ae c4 14 3e
       -0.10588405 -0.109436385 0.05867815 0.14528152
0001f0 48 58 d6 bd 86 73 03 be 54 62 91 bd 36 d7 40 3c
       -0.10466057 -0.12837037 -0.07098833 0.01177006
000200 51 73 c0 bd a9 6a 03 be 33 4d 32 bd 19 eb 91 3d
       -0.09396995 -0.12833656 -0.043530654 0.071249194
000210 63 af 8c bd ab fc 8e 3c 60 31 48 38 a0 d3 52 3c
       -0.0686939 0.017454466 4.77297e-05 0.012867838
000220 8c 54 08 be 87 2e fb bb cf 76 5b bd be 82 e6 bc
       -0.13313502 -0.0076654586 -0.0535801 -0.028138515
000230 4f 2d 8b 3c 37 ca 0b 3c ce 1e 92 3d a8 79 b1 bd
       0.016989378 0.0085320985 0.07134782 -0.08665782
000240 9b 53 04 be d0 75 b9 3d 5e 2e c9 3d 30 14 e0 3b
       -0.12922518 0.09055674 0.09823297 0.006838344
000250 56 73 4c 3d bc 82 b3 bd 9a 6a 3b 3d 60 35 59 bb
       0.04991468 -0.0876517 0.04575596 -0.0033143386
000260 c5 20 a2 3d f5 2a 28 3c 08 35 8a bd 05 ca 9e 3c
       0.079164065 0.010264148 -0.06748396 0.01938344
000270 5a 16 05 3e 7b e5 b7 3d 3b 01 df bd 22 02 02 3d
       0.12996808 0.08979317 -0.108889066 0.031740315
000280 c0 0f 9f bd 5a 13 d0 3c e7 5c 1c 3c 45 5e b6 3d
       -0.07766676 0.025399853 0.009543634 0.08904699
000290 6a cc fa bc 1e 4c 62 3c 3f ab 08 bd 5d 1e 4f 3d
       -0.03061505 0.013812093 -0.033366438 0.050566066
0002a0 47 80 f4 bc 57 a6 a1 3d 9c df a6 bd 24 fa 60 bc
       -0.029846324 0.07893055 -0.08148119 -0.013731513
0002b0 4a 15 9b bd 8d 7b 93 3d 36 19 ac 3d b9 81 79 bd
       -0.0757242 0.072013 0.08403246 -0.06091473
0002c0 ee dc 17 bd 25 7c 1b 3d 16 51 80 bb bc 1c 88 3a
       -0.03707593 0.03796019 -0.003915916 0.001038454
0002d0 61 0d de bd be ed 71 bd c9 f1 44 bb 19 eb d3 bd
       -0.108423956 -0.05906462 -0.0030051342 -0.10347576
0002e0 50 77 92 bd 21 80 9d bd d8 6f 26 bd df 90 b2 bd
       -0.07151663 -0.07690454 -0.040634006 -0.08719038
0002f0 f6 d8 dd 3d e7 5d 11 3c 8c d8 43 ba 3d 7a b8 3d
       0.10832398 0.008872486 -0.00074709277 0.0900769
000300 b0 e4 fe 3c fd 30 9d 3d 22 e7 a0 bd ba 3f cb bd
       0.031114906 0.076753594 -0.07856585 -0.09924264
000310 ae f2 18 3d b4 70 98 3d f8 70 cb bd 5d 08 8a 3d
       0.037340812 0.074433714 -0.099336565 0.067398764
000320 c6 8c bc bd b4 ea a3 bd 73 09 88 bd 2d 7c b7 bb
       -0.09206538 -0.080037504 -0.06642427 -0.0055995197
000330 4e 86 26 bc 5d 7f b9 bd a2 48 c8 bd d4 e3 c0 3d
       -0.010163857 -0.09057496 -0.097794786 0.09418455
000340 63 31 b8 bd 1d 4c 40 bd 9b 4f 89 bc f4 a1 c5 3c
       -0.08993795 -0.046947587 -0.016761592 0.024125077
000350 a9 54 6b bd a1 7d 38 bc 0c fc 05 3c a9 3d f3 bd
       -0.057453785 -0.011260421 0.008177768 -0.11876995
000360 73 3e 0d 3d fe ef c3 3d a3 bc 8c bd 1e 31 7c bc
       0.034483384 0.09567259 -0.06871917 -0.01539257
000370 8e bc d1 bd 15 15 29 3d ea 4d a8 bd d6 b1 a5 3c
       -0.10241042 0.04127987 -0.08217986 0.0202264
000380 5f 50 86 bd e7 fa 8d bd 4f 85 9f 3d 86 c7 79 3d
       -0.06558298 -0.069326214 0.077890985 0.060981296
000390 a2 14 9b bd 91 c2 73 bd 5f 0a 13 3d fc fb f6 3d
       -0.07572295 -0.059511725 0.035898563 0.12059781
0003a0 bf 7a a5 3c be 3f b4 3d 89 e3 8d 3b 1c a3 e1 bd
       0.020200131 0.0880122 0.004330103 -0.11017439
0003b0 95 9c b0 3d 9f f2 a0 bd f6 e0 c8 bd 32 d7 d5 3d
       0.08623616 -0.07858776 -0.09808533 0.10441436
0003c0 f2 23 88 3d 36 3a 48 bd e3 ed cd 3d ca 6c 8e bb
       0.06647481 -0.04888364 0.10055139 -0.0043464648
0003d0 dd b5 71 bd 9d 75 7e 3d 5a 2d 3a bc 55 6b 5d 3d
       -0.05901133 0.062123884 -0.011363352 0.054057438
0003e0 8b 67 b4 3b f2 e1 bc 3d e3 17 07 be 56 5d 18 bd
       0.0055055073 0.09222783 -0.13192706 -0.037198387
0003f0 81 4c 29 3d 98 9c db bd a1 c8 cc 3d 29 82 f1 3d
       0.041332725 -0.10723227 0.099992044 0.11792404

output.bias f4 [43]
000000 54 e8 f6 bd 8b 86 85 bd 20 6f ab 3d b4 65 e6 bc
       -0.12056032 -0.06519803 0.08370805 -0.028124668
000010 2c 63 d7 3d 67 17 4f 3c 6e e1 c1 3d 68 36 ed 3b
       0.105169624 0.012639857 0.094668254 0.0072391517
000020 76 b8 de bc b2 f3 65 bc f1 8c e7 3c 90 ad ad bd
       -0.027187567 -0.014035152 0.028265448 -0.0848037
000030 85 43 5d 3d 5b 3c 56 3d 96 22 eb 3c 86 84 ff 3b
       0.05401947 0.052303653 0.028703015 0.0077977804
000040 cc 98 8b 3d 76 4e 15 bc 1f d7 44 3d 44 1b 51 bd
       0.06816253 -0.009112945 0.048056718 -0.051051393
000050 b7 0f 11 bd cd 93 16 3d 74 5d 60 bd 82 b1 55 3d
       -0.035415377 0.036762048 -0.054776624 0.052171238
000060 f6 13 c0 bd 2b cb 10 3c 3d 47 a0 ba c4 51 64 bd
       -0.09378807 0.0088375015 -0.0012228262 -0.05574204
000070 2e dd 59 bd e6 84 f9 bd 0e 8f a3 bd 3f 93 d1 bb
       -0.05318945 -0.121835515 -0.0798627 -0.006395727
000080 da 9d 3d 3d e2 34 96 bb c2 0a 6d 3d 6f 24 93 3d
       0.046293117 -0.004583941 0.057871588 0.071846835
000090 20 60 9b 3d 87 b2 3d 3d fe 98 10 bb f9 49 5c 3d
       0.07586694 0.046312835 -0.0022063847 0.053781483
0000a0 b9 e4 4b bd 5f 2c 1a bd 4b 5f 9c 3d
       -0.049778674 -0.03763997 0.07635363

exp_avg f4 [6, 1, 5, 5]
000000 96 45 90 bc ac e0 8f bc 38 44 96 bc 06 6f 9a bc
       -0.017611306 -0.017563187 -0.018343076 -0.018851768
000010 6f 77 a1 bc 26 1b 3e bc 81 8c 03 bc a2 0c d2 bb
       -0.01971027 -0.011603152 -0.008029104 -0.0064101974
000020 cf 3b f2 bb 57 3f 31 bc ba 54 d1 bb 67 1c 0a 3a
       -0.0073923836 -0.010818324 -0.006388274 0.00052685145
000030 9b d6 87 3b 25 04 30 3b 79 d8 45 bb 9d c9 87 bb
       0.004145456 0.002685794 -0.0030188842 -0.004143907
000040 b2 24 9a 3b 26 c7 18 3c 3c 23 00 3c 11 01 7e 3a
       0.0047040815 0.009324824 0.0078209005 0.000968949
000050 27 97 c3 bb 62 b3 34 3b 34 02 f4 3b 2d d1 d0 3b
       -0.0059689465 0.002757274 0.0074465517 0.006372592
000060 50 65 bd b9 af 0e 3c bb 27 d4 21 b7 ba 00 95 ba
       -0.00036124373 -0.0028695276 -9.645743e-06 -0.0011368014
000070 69 62 9b bb 64 cc 18 bc 7a 63 c2 b8 eb 99 94 3b
       -0.004741956 -0.009326074 -9.26917e-05 0.00453495
000080 a6 a6 91 3b 02 20 05 3a 12 75 b4 bb 5a cc 2e ba
       0.004444915 0.0005078317 -0.00550712 -0.0006668024
000090 e1 51 ad 3b bc 94 d4 3b 95 9f 40 3b db d0 6a bb
       0.0052893017 0.006487457 0.0029391993 -0.0035830054
0000a0 f7 2b 90 bb bc 4e eb 3a 37 bf 6e 3b b0 f6 93 3a
       -0.0043997723 0.0017952542 0.003642989 0.0011288729
0000b0 2a 3a 8f bb 80 20 39 bc f1 f1 b9 bb a2 e9 61 bb
       -0.0043709474 -0.0112992525 -0.0056745936 -0.0034471531
0000c0 78 25 90 bb 57 56 fb bb a4 4e 53 3c 9f e4 b3 3b
       -0.004398998 -0.0076702046 0.012897167 0.0054899002
0000d0 ea 9a b7 3a e5 7d 09 3b d4 07 fa 3b 3f ce 4d 3c
       0.001400796 0.002097958 0.0076303277 0.01256138
0000e0 29 05 7c 3b 54 c7 b9 ba a7 2d b8 ba 61 4f 92 3b
       0.0038455224 -0.0014173784 -0.0014051691 0.004465029
0000f0 20 fc 78 3c 20 60 ce 3b 2f 41 ed 39 0a 72 28 ba
       0.01519683 0.00629808 0.00045252728 -0.00064256846
000100 30 ce 88 3b 5e c2 a0 3c ba b0 3b 3c 36 b8 b1 3b
       0.00417497 0.019623931 0.011455709 0.005423571
000110 e9 33 4f 3b 42 e6 c8 3b 70 49 cc 3c a3 16 96 3c
       0.0031616634 0.0061309645 0.024937361 0.01832134
000120 a4 a3 4d 3c 53 40 1a 3c 7b de 2a 3c c0 7b b2 bc
       0.012551222 0.00941475 0.01042902 -0.021787524
000130 e9 cd a5 bc 96 79 85 bc 29 49 30 bc 88 7a c9 bb
       -0.020239787 -0.016293328 -0.01075963 -0.00614864
000140 16 9c 8c bc a2 90 39 bc 5b 9b 94 bb 0f f0 d5 3a
       -0.017164271 -0.011325987 -0.0045351214 0.0016322153
000150 cf 88 8b 3b f8 ab 10 bc f0 e8 d7 39 6a a4 0f 3c
       0.004258252 -0.008830063 0.00041181548 0.008767227
000160 83 b1 66 3c da b0 62 3c fc 3d 3a b9 45 9f 2c 3c
       0.014080408 0.01383611 -0.00017761433 0.01053602
000170 5b 50 98 3c db 12 b4 3c ef 16 9a 3c 76 65 ab 3b
       0.018593004 0.021981647 0.018809764 0.005230601
000180 08 ed 79 3c 99 fa b0 3c e1 07 bb 3c 90 6b 8f 3c
       0.015254267 0.02160387 0.022830905 0.017507344
000190 6f 24 1d bc 58 b4 a5 bb e4 cf 08 bb f9 d3 d6 ba
       -0.009591206 -0.005056899 -0.0020875866 -0.0016390077
0001a0 18 0d 95 bb 89 de a9 bb 02 4c fa 3a 9c fa cd 3b
       -0.00454868 -0.005183999 0.0019096138 0.0062859785
0001b0 e0 8f ce 3b f6 da 9c 3a 25 a8 1b bb af 4c ce 3b
       0.0063037723 0.0011967111 -0.0023751345 0.0062957625
0001c0 4a 67 3b 3c e6 9c 37 3c 2f 42 9f 3b 59 33 1a bb
       0.0114382 0.011206841 0.0048601846 -0.002352914
0001d0 84 c0 d8 3b 74 f7 40 3c 9f 43 3c 3c 9f 0d a5 3b
       0.0066147465 0.011777747 0.0114907315 0.005037024
0001e0 36 dc c0 bb c2 ff 0b 3b 36 ab dd 3b b5 f1 dc 3b
       -0.005885626 0.002136216 0.0067647947 0.006742681
0001f0 45 d5 ad 3a 65 da 6d 3c cb 17 84 3c 79 5c 86 3c
       0.0013262412 0.014517401 0.016124627 0.016401516
000200 98 a6 80 3c 0b 26 7d 3c 8b 6e b1 3b 9e f5 98 3b
       0.015704438 0.015450965 0.005414789 0.0046679517
000210 2f e9 92 3b 83 98 af 3b 01 b6 06 3c 45 9d 22 bb
       0.004483364 0.005358757 0.008222104 -0.0024812978
000220 29 3b af bb 6a 1e bc bb 6f ee 56 bb 88 c9 02 3b
       -0.0053476286 -0.0057409303 -0.0032795926 0.0019956548
000230 78 ef d4 bb e0 d4 2e bc 26 b1 35 bc b9 f8 00 bc
       -0.0064982735 -0.010670871 -0.011089599 -0.0078718
000240 b3 2c bc ba 0e 76 b1 bb 44 56 2b bc 53 a1 36 bc
       -0.0014356583 -0.0054156845 -0.010457579 -0.011146861
000250 a9 60 03 bc 63 95 b1 ba
       -0.008018651 -0.0013548549

exp_avg_sq f4 [6, 1, 5, 5]
000000 59 cc ac 38 7a 84 a3 38 25 d4 9c 38 fb 84 99 38
       8.239662e-05 7.797121e-05 7.478175e-05 7.320378e-05
000010 d5 ef a2 38 28 2c 59 38 35 2f 2d 38 c3 44 15 38
       7.769434e-05 5.1777955e-05 4.129038e-05 3.5588408e-05
000020 e3 fd 12 38 78 7e 32 38 ef fe 07 38 2a 73 b8 37
       3.5045563e-05 4.255629e-05 3.2423934e-05 2.1988137e-05
000030 d3 ac 98 37 a3 6f 8d 37 86 3f b5 37 e7 15 d8 37
       1.820029e-05 1.6860495e-05 2.1606462e-05 2.5759406e-05
000040 1c 80 91 37 63 94 82 37 3d ac 5b 37 ce a0 77 37
       1.7345003e-05 1.5566306e-05 1.309352e-05 1.47597875e-05
000050 ae 06 e7 37 39 a3 98 37 40 a4 80 37 48 29 60 37
       2.7540456e-05 1.8195818e-05 1.5335274e-05 1.3361052e-05
000060 bb 8b 91 37 81 24 76 37 02 be 44 37 e9 1b 37 37
       1.7350414e-05 1.4671242e-05 1.172675e-05 1.0914148e-05
000070 30 7c 5d 37 23 f0 b0 37 2e 0d 78 37 dd f6 67 37
       1.3201541e-05 2.1092657e-05 1.47850205e-05 1.382615e-05
000080 f2 a9 49 37 53 b1 2f 37 27 5d 78 37 51 08 86 37
       1.2020102e-05 1.0472099e-05 1.4803641e-05 1.5977917e-05
000090 8b c4 83 37 fe bf 6c 37 7f b6 42 37 8c 80 75 37
       1.570794e-05 1.4111398e-05 1.1605792e-05 1.4633068e-05
0000a0 96 6a 9e 37 51 eb 8f 37 66 a1 86 37 e6 22 81 37
       1.88847e-05 1.7156506e-05 1.6049202e-05 1.539425e-05
0000b0 1d e2 a7 37 81 33 f9 37 24 5a d7 37 a6 e7 cf 37
       2.0013244e-05 2.9707096e-05 2.5671972e-05 2.4784193e-05
0000c0 ca 96 dc 37 ff 78 05 38 31 3f 06 38 75 6b 94 37
       2.629626e-05 3.1822357e-05 3.200694e-05 1.7693013e-05
0000d0 6e 68 6b 37 6a 4c 68 37 20 92 98 37 06 55 da 37
       1.4031406e-05 1.3846069e-05 1.8187857e-05 2.6027217e-05
0000e0 a7 32 7d 37 6b 9c 80 37 1d bd 85 37 19 1f 8d 37
       1.5091769e-05 1.5331627e-05 1.5942898e-05 1.682299e-05
0000f0 6e d7 e9 37 ad 59 88 37 39 e2 86 37 3b db 97 37
       2.7876082e-05 1.6254222e-05 1.6079388e-05 1.810269e-05
000100 38 f8 a9 37 0d 90 1b 38 be 41 c2 37 17 af ab 37
       2.0261956e-05 3.7089038e-05 2.3157216e-05 2.0466321e-05
000110 48 7b ca 37 e6 86 ff 37 27 f0 62 38 d9 b7 2e 38
       2.4137684e-05 3.0461186e-05 5.4106258e-05 4.1656054e-05
000120 f0 a6 1d 38 ef bf 2f 38 13 97 58 38 a3 78 b2 38
       3.758719e-05 4.1902003e-05 5.1639112e-05 8.510172e-05
000130 26 36 9c 38 ac 7c 7d 38 30 4a 46 38 07 34 21 38
       7.4487456e-05 6.043601e-05 4.727597e-05 3.8433845e-05
000140 91 45 80 38 2b 48 41 38 f7 9a 14 38 e6 9d f9 37
       6.1164734e-05 4.6081997e-05 3.5430272e-05 2.975664e-05
000150 d5 a3 d7 37 05 0f 24 38 fc 48 0a 38 ce 36 16 38
       2.5706287e-05 3.9114635e-05 3.2969736e-05 3.5813828e-05
000160 b5 5a 25 38 6d 9f 0e 38 d3 aa 0b 38 10 ee 2b 38
       3.9423543e-05 3.4003915e-05 3.3299275e-05 4.099129e-05
000170 02 24 6b 38 70 82 83 38 d5 e0 53 38 c6 e6 12 38
       5.60619e-05 6.270863e-05 5.051571e-05 3.5024037e-05
000180 9c ee 4e 38 27 51 8a 38 6e ac 90 38 4f 4e 5e 38
       4.933645e-05 6.5954686e-05 6.8985726e-05 5.3001855e-05
000190 e5 e6 1f 38 2b 4d f4 37 1d 01 d4 37 c6 7f c1 37
       3.812359e-05 2.9123e-05 2.5272888e-05 2.3066892e-05
0001a0 b8 d3 ca 37 76 ae e8 37 1f ca cb 37 f4 4c e1 37
       2.4178866e-05 2.7737795e-05 2.4293606e-05 2.6857924e-05
0001b0 a0 35 d5 37 6e 30 b4 37 5a 38 ca 37 f3 eb e3 37
       2.541655e-05 2.1480224e-05 2.4106517e-05 2.7170381e-05
0001c0 07 19 14 38 83 d8 10 38 10 e8 de 37 d4 b3 c3 37
       3.530926e-05 3.4533918e-05 2.6572525e-05 2.332955e-05
0001d0 81 73 ee 37 94 04 1f 38 e4 6e 21 38 c1 2b 08 38
       2.8425597e-05 3.7912818e-05 3.8488666e-05 3.2465676e-05
0001e0 c3 6c d0 37 2e 73 e0 37 81 ba 0d 38 14 12 1a 38
       2.4846178e-05 2.6756516e-05 3.3790715e-05 3.6733298e-05
0001f0 6b a9 22 38 11 72 6c 38 e6 39 82 38 81 85 83 38
       3.8781593e-05 5.6373017e-05 6.2096675e-05 6.271434e-05
000200 1a 2c 7b 38 0e 6e 76 38 1f d5 07 38 25 50 0b 38
       5.9884136e-05 5.8753467e-05 3.2384993e-05 3.3214823e-05
000210 61 32 09 38 50 81 06 38 20 21 11 38 cd b4 e8 37
       3.2710264e-05 3.206852e-05 3.4601544e-05 2.7740747e-05
000220 ca 87 e5 37 55 56 cf 37 96 c0 ae 37 cc 5c ab 37
       2.7362159e-05 2.4716524e-05 2.0832096e-05 2.0428e-05
000230 71 18 02 38 01 0a 01 38 78 50 d6 37 17 f4 91 37
       3.1017178e-05 3.0765314e-05 2.554826e-05 1.739901e-05
000240 7b 9d 65 37 e5 4b 04 38 af 94 00 38 b4 f2 ca 37
       1.368613e-05 3.1541935e-05 3.065605e-05 2.4193294e-05
000250 94 03 81 37 bb 0a 52 37
       1.5379665e-05 1.2519474e-05

exp_avg f4 [6]
000000 3f 94 47 3a 74 56 46 bb 21 58 c9 ba f9 83 1e 3b
       0.0007613338 -0.0030263932 -0.0015361347 0.0024187549
000010 fd 68 0c bb 63 75 f8 39
       -0.0021424883 0.00047389706

exp_avg_sq f4 [6]
000000 c9 61 22 38 74 c5 c0 37 21 7a 01 38 63 5b 54 38
       3.871488e-05 2.298013e-05 3.0869738e-05 5.062985e-05
000010 1b 29 17 38 33 58 f7 37
       3.6039488e-05 2.9485765e-05
