weights/weight_after_step20_5.pth (torch, 783165 bytes, 30 tensors)

conv1.weight f4 [6, 1, 5, 5]
00000000: 6909 723e ef0f a53c 3c6c 3ebc 2df4 393e
00000010: 41da 383e abcb 423e e857 563d a870 07be
00000020: 7329 64bd b2b7 553e f105 86bc acc7 03bd
00000030: bf96 69be 984b 693d 8c99 24be 5d78 963d
00000040: b504 15be 6ec5 47be 88a2 02be 10f7 9dbc
00000050: c102 2fbe 3651 4dbe 1a5e 1abe 8431 93bc
00000060: fea7 3a3b 1d92 6ebc c929 f3bd 31e5 97bd
00000070: d0bc aabc cff7 763d 2f49 c6bc d077 6fbe
00000080: 1d53 3abe 947a 2abe 7fcd 823d 8146 4abe
00000090: c1b1 d0bc 7c90 bc3c 1799 243e 78a9 f23d
000000a0: 0a39 8dbb 8103 24be ab11 5dbe 5522 003d
000000b0: eb86 9f3d b481 3b3e 2c63 2d3e 64c5 e3bd
000000c0: 60d3 a73d 3ab9 ebbc ef0f 133d 89da 323e
000000d0: 000c 3f3e cddb 003e f73f b33d 3ff8 69be
000000e0: 494f 343e 1844 4dbd 5992 ba3d fe1d 213e
000000f0: 061f b73d 890e c2bc 9cbe 853d 5cc2 453e
00000100: c889 96bd 11c3 55bc cf2e 3cbe 4681 153e
00000110: 67a9 193e 3920 f43d 033e 97be e788 82bd
00000120: afcd 2a3c 1368 4fbd b1fb 0dbe 4453 aa3d
00000130: 5e33 483e 47cd 00bd 3c68 6d3e 4083 3a3d
00000140: d834 8f3e 7699 eb3d 857a 043e 5c97 13be
00000150: 1f50 1ebe 280d 323d e38e 25bd d356 59be
00000160: 950f be3d 9645 a8bd f731 433e d895 3bbe
00000170: ca6a 84be 8942 7b3d 7ece 85be bdc4 2fbe
00000180: 98fc 81bc 1d52 02be 6525 2cbd 2214 4fbd
00000190: 4793 5f3d a480 f63d 31df c1bd 4197 303e
000001a0: 7e0c bfbd 8edc 713b 8783 60be 0f5e 81be
000001b0: e095 37bd 53ab 3a3d eb78 24be e765 033e
000001c0: 32a0 dcbd a86d 063d d7e3 24be 7990 373e
000001d0: bd1e fb3d 0aa8 db3c df0c cabd 728c 3abe
000001e0: e346 0dbe d016 cfbd 0b0d 68be 872d d0bc
000001f0: 29d3 1d3e 81fe 7bbe da89 65be 9e51 1dbd
00000200: d2d0 e9bd 6689 86be 5f63 363e 9ca1 cd3d
00000210: c20d 0bbd db41 48bd fc51 bf3d dc29 0d3d
00000220: 020c ca3d 0e84 eabc 2646 313d 0a9e f63d
00000230: 84ec b83d 35a6 7e3d ca10 233e ef1e 763e
00000240: e216 4c3d 096e 3b3e 54d2 023e 9513 09bd
00000250: 56b0 48bd 9543 f6bc
0.23636402 0.0201492 -0.011622485 0.18159552 0.18052007 0.19023006 0.052329928 -0.13226569
-0.05570359 0.20870855 -0.016360255 -0.032172844 -0.22811411 0.056956857 -0.16074198 0.07347176
-0.14552577 -0.19508907 -0.12757313 -0.019282848 -0.17090894 -0.20050511 -0.1507496 -0.017967947
0.0028481479 -0.014561203 -0.11873204 -0.07416762 -0.020841986 0.060294922 -0.024204819 -0.23385549
-0.18195768 -0.16648322 0.063868515 -0.19753458 -0.025475385 0.023018114 0.16074024 0.1184873
-0.004309778 -0.16016962 -0.21588771 0.03128274 0.077894054 0.18311197 0.16932362 -0.11121634
0.081946135 -0.028774846 0.035903867 0.17466177 0.18656921 0.12583847 0.08752435 -0.22848605
0.1760837 -0.050113767 0.09109945 0.15734097 0.08941464 -0.023688572 0.065304965 0.19312423
-0.073504984 -0.013046996 -0.18377231 0.14600095 0.15006028 0.119202085 -0.295395 -0.06373768
0.010425015 -0.050636362 -0.13865544 0.08316663 0.19550845 -0.031445768 0.23184294 0.045535326
0.27970004 0.1150388 0.12937362 -0.14413208 -0.15460251 0.043469578 -0.04041947 -0.21224527
0.09280316 -0.082163975 0.19062029 -0.1831888 -0.25862724 0.06134275 -0.26134104 -0.17164893
-0.015867516 -0.12726636 -0.04202785 -0.05055631 0.054583814 0.12036255 -0.094663985 0.17245199
-0.093285546 0.0036905142 -0.21925174 -0.25267074 -0.044820666 0.045573544 -0.16061752 0.12831841
-0.10772742 0.03281942 -0.16102539 0.17926206 0.12261722 0.026813526 -0.09865736 -0.18217638
-0.13796572 -0.10111773 -0.22661225 -0.025412334 0.15412582 -0.24608804 -0.22415867 -0.038407914
-0.114167824 -0.26276702 0.17811345 0.1004059 -0.033948667 -0.04889093 0.09341809 0.03446375
0.098655716 -0.028627422 0.04327979 0.12041862 0.09029487 0.062170226 0.15924373 0.24035238
0.04982651 0.18303694 0.12775546 -0.03346594 -0.048996292 -0.030061522

conv1.bias f4 [6]
00000000: e3f1 333d 7bfb 333e fa73 9dbd 2272 0e3d
00000010: 9be1 6fbc d2e4 4bbe
0.043931853 0.17576401 -0.076881364 0.034776814 -0.014641191 -0.19911507

conv2.weight f4 [16, 6, 5, 5]
00000000: 536c af3c 9779 be3d 5662 9ebc b4ec 80bb
00000010: 8690 3cbd 14e0 123e fddf aa3d 138b 1bbd
00000020: 9673 f9bc 1397 a1bc 4271 8b3d 978a 09bc
00000030: cf24 e73b cfe8 5dbc 420a ecbc f31f 34bc
00000040: a430 013e f1f0 413c 0ec6 423c 4cbd a9bd
00000050: d3ff b2bb 50c6 c23d 5d90 483d 2251 563d
00000060: 4e9b 30bd 1407 263d de6f f63d e21a f63d
00000070: 745f 9c3d b47e 403d 16bd 68bb 3993 663d
00000080: 8095 dcbc 8899 5b3c 2305 a2bd 4722 893d
00000090: e120 4d3d 5b26 3b3d 3e40 47bd 1a06 b9bd
000000a0: 261a b23d 653b a23d 29e5 2d3c 53a1 0fbe
000000b0: 9056 0cbe c6e2 063e e46e cd3d ea98 c43c
000000c0: 3773 02be 521f 8abd 11c1 5abd c120 363b
000000d0: bcf5 e5bd 0973 f93b 290d 84bd 3a40 3cbd
000000e0: 2872 23bd ec25 babd 22fe 5c3d 24df 59bd
000000f0: dee0 d7bd c000 b7bd 05cc 11bb e232 f13d
00000100: d0de 4fbd 9ae1 10bd 5a5b 163d f786 ae3d
00000110: ae0c 123e fdb5 c13d e758 0cbe 8092 afbd
00000120: abb9 043e 660c f13d fe50 6cbd 18b0 5f3d
00000130: b9ae 863d becf 12bd 4e2a 58bd 4422 05bd
00000140: 7825 883d cdbd adbd 4d56 2dbe 8576 88bd
00000150: 9aed c7bd bcfc 2e3d dfd6 41bd aade cabd
00000160: f192 e9bd 7676 9cbd 0b6e a83d c7a1 bdbd
00000170: ed0d 2cbd e49a cebd 6566 f53d 6711 713d
00000180: f2b8 5fbd 1e2a 48bd 0fa7 853d cfa8 823b
00000190: e3c3 323c 495a 4a3d 6488 323d 0d8a 8abd
000001a0: f0c4 38bd 4da0 953d 1abd aa3d 857a fdbc
000001b0: 058d bdbd 35da 97bd cb07 e23d 8724 0dbd
000001c0: 8e4b a7bd c25d 35bd 5bb2 91bd c478 2f3d
000001d0: 0100 983d 57a7 a2bd a387 96bd 8bd6 2b3d
000001e0: 0761 f3bb 7621 7a3a 21b4 cabd 4475 dcbd
000001f0: 5b1d 0b3d f84f 73bd 6c5d ffbd cebe 8bbd
00000200: f591 80bd d5ba 56bd f580 febd 94b8 b3bd
00000210: 841c e43c 0759 fc3c 023c 083e 3e51 90bb
00000220: 29e1 9e3c 2b44 203d 5578 6e3c a2ee ea3c
00000230: aa73 25bc 8c69 94bc c145 b53c d182 533b
00000240: 3d94 993c bd82 ceba 9d32 96bd c67a 27bd
00000250: 5c5e 9bbd d24e a8bc 20aa cd3d 0384 b03c
00000260: 213b c13d 14da d33d b7b0 d93d c574 0abe
00000270: 08bb 17bd 23f4 88bd 6491 6b3d 0604 b33d
00000280: 445d 07be b532 75bd 80bf 14be d21c 8cbd
00000290: 8ad5 f6ba 9a70 50bd e7dc 5b3d 0c13 ffbc
000002a0: f807 5cbd 416c b3bd 38f9 a63b 2983 d73d
000002b0: 09a2 2a3d 1d58 78bd 0a13 c8bd a300 1c3d
000002c0: bb4e e13d a2d3 d43b 1328 14bc c4d9 4b3d
000002d0: 01fd 113d d694 a73d b9ab 9e3d c649 033e
000002e0: 959f cd3c 86ed c8bd bfa7 a03b cc61 ac3a
000002f0: f25e 8f3c dd8f 5b3d d06e 1ebc e4ef 18be
00000300: 3333 64bd 3458 bfbd 8cfd a7bd 1126 01bd
00000310: 419a 43bd bf49 1dbd 019e 993c 81e6 61bd
00000320: cfa5 06be cdb3 59bc 0e4b dfbd 6d32 d23c
00000330: 53c1 a8bd 7d95 b0bd 5dbc c5bd 5969 1fbc
00000340: 238c 61bd 1538 0cbe dc20 6c3d aebf b93c
00000350: 125c 9bbd c297 11be 7b22 f8bd a7d1 e33d
00000360: daa2 543d b5c9 14bd 9820 48bd 3ffb 0e3c
00000370: d9c3 a33d 0d45 babc e5c6 f13d b564 ba3c
00000380: ef1a 20bc 4294 5bbc 2a9b f43c af90 173e
00000390: b31c 293e a59b de3d b34b d8bd 84b1 6fbd
000003a0: 126d 443d 04f6 a53d d529 0f3d d98e 18be
000003b0: dc68 21be ecbb 00be 55f3 c7bd 3bb6 2bbd
000003c0: dc23 2e3d c547 cc3d f8e1 c13d 7831 e1bd
000003d0: 29b9 19bd 1777 073e 3ebd d83d 0e7c c33c
000003e0: 64f5 493d 46aa 793d 8704 d43d 5555 f73d
000003f0: 272c c73d f5a0 8b3d c81b 123e 9fd8 63bc
0.021413958 0.09300535 -0.019334 -0.003934467 -0.046036266 0.14343292 0.083435036 -0.03797443
-0.030450623 -0.019725358 0.068087116 -0.008394859 0.0070539485 -0.013544275 -0.028813485 -0.010993945
0.12616211 0.01183723 0.01188804 -0.08288059 -0.0054626255 0.09510481 0.0489658 0.052323468
-0.04311686 0.040534094 0.12033056 0.12016846 0.07635394 0.046995834 -0.0035513095 0.056292746
-0.026926756 0.013403304 -0.07911136 0.06695991 0.050080184 0.045690876 -0.04864525 -0.09034367
0.08696394 0.07921485 0.010613718 -0.14026384 -0.13704896 0.13172445 0.10030916 0.023998696
-0.12739263 -0.06744255 -0.05340678 0.002779052 -0.11228511 0.00761259 -0.064478226 -0.04595969
-0.03990379 -0.09089264 0.053953297 -0.05319132 -0.10540937 -0.0893569 -0.002224685 0.11777283
-0.0507496 -0.0353714 0.036708213 0.08521836 0.1426265 0.0945854 -0.13705789 -0.085728645
0.12961452 0.11769943 -0.057694428 0.054611295 0.065762945 -0.03584265 -0.05277472 -0.03250338
0.066477716 -0.08483467 -0.16927452 -0.06663231 -0.09762116 0.042721495 -0.047324058 -0.09905751
-0.1140498 -0.07639782 0.08224114 -0.09259372 -0.04200547 -0.10088137 0.11982421 0.058854487
-0.054619737 -0.04886829 0.065260045 0.0039874087 0.010910961 0.04940251 0.043587103 -0.06764612
-0.04510969 0.073059656 0.083368495 -0.03094221 -0.09255413 -0.074146666 0.11036643 -0.034458663
-0.08168708 -0.044278868 -0.07114097 0.04283978 0.07421876 -0.07942074 -0.073500894 0.04195265
-0.007427338 0.0009541729 -0.09897638 -0.10764554 0.033963542 -0.059402436 -0.12468991 -0.068235025
-0.06277839 -0.05242427 -0.1242694 -0.0877544 0.027845629 0.03080417 0.13304141 -0.004404216
0.019394474 0.03912751 0.014555057 0.028678242 -0.010098377 -0.018116735 0.022127988 0.0032274018
0.018747443 -0.0015755516 -0.073338725 -0.04088857 -0.07586357 -0.020545397 0.100422144 0.021547323
0.09435106 0.103443295 0.10629409 -0.13521107 -0.0370436 -0.066871904 0.057511702 0.08741002
-0.13219172 -0.05986281 -0.14526176 -0.068414345 -0.001883195 -0.050888635 0.053677466 -0.031137012
-0.053718537 -0.08760882 0.005095627 0.10523064 0.041658435 -0.060630906 -0.097692564 0.038086545
0.11001345 0.006494955 -0.009042758 0.049768224 0.035641674 0.08182685 0.07747597 0.12821111
0.025100509 -0.09810929 0.0049028094 0.0013151704 0.017501328 0.053603996 -0.009669974 -0.14935261
-0.05571289 -0.09342995 -0.08202657 -0.031530444 -0.04775453 -0.038400408 0.0187521 -0.055151466
-0.13149188 -0.013287497 -0.109029874 0.02565881 -0.08239999 -0.086222626 -0.09655068 -0.009729707
-0.055065285 -0.13693269 0.057648525 0.022674408 -0.075859204 -0.14218047 -0.12115952 0.111239724
0.05191312 -0.036325175 -0.04885921 0.008726894 0.07996339 -0.022738004 0.11805514 0.022753099
-0.0097720465 -0.013402047 0.029859144 0.14801286 0.16514854 0.108695306 -0.105613135 -0.0585189
0.04795558 0.081035644 0.034952004 -0.14898242 -0.15762657 -0.12571687 -0.09763209 -0.041921835
0.042514667 0.099746265 0.09466928 -0.109957635 -0.037530098 0.13229023 0.1058297 0.023862865
0.04930629 0.0609534 0.10352426 0.12076823 0.09725218 0.068178095 0.1426841 -0.013906627

conv2.bias f4 [16]
00000000: 76be b13d cf04 38bd 0851 03bd 004c 123e
00000010: 8991 97bd e1d0 8f3d 6155 243d f48f cd3d
00000020: 8d80 8e3d b501 c13c 44b4 1cbd b20a ae3d
00000030: f0aa b93d 04cb 8a3c e5cf 693d 852a a1bd
0.08678906 -0.04492646 -0.0320597 0.14286804 -0.074008055 0.07022262 0.040120486 0.100372225
0.06958113 0.023560384 -0.038257852 0.08498134 0.09065807 0.016942509 0.05708303 -0.07869438

conv3.weight f4 [120, 16, 5, 5]
00000000: 1286 53bc 8aa8 003d 74f0 3f3c e653 3bbd
00000010: 8f5b a1bc 61d5 d93c 8186 2bba d905 0bbd
00000020: 926a b7bc 6e6e 34bd 783a 8e3d 9f63 6cbd
00000030: bad6 b7bd 81c3 f43d 3ae1 e3ba 103c ba3c
00000040: b5c9 bcbd acb3 a1bd e625 c9bb f38c a03c
00000050: df3b 643c 3f03 35bb a194 a33d 9d7a cebc
00000060: 53ee e13c 2cca 54bd 973a c0bc af0c d8bc
00000070: d375 86bc 6f1c 78bc 9469 273b fe44 c4bb
00000080: 52c5 52bd d42d 87bd 4bfa 42bd 536a 853d
00000090: f69c dd3d cfe2 cc3b 4d33 26bd 524a c03d
000000a0: 21aa 9dbd ceee fd3c 9cec 253c 1306 62bd
000000b0: a09d 98bd 3b77 b2bb 41cd 18bc a438 e43d
000000c0: 3296 f93d 7423 5a3c f283 703d 2e4b 96ba
000000d0: c9e8 043d 6910 a63d 8efd 953d fba5 e83c
000000e0: 83a3 b4bd 56f8 8abc 79d6 2b3d 446e aabd
000000f0: 4a75 ce3c 292b 9c3d b00f ce3c 5e88 c7bc
00000100: 3cab 903d 6a9a 363c 806a 923c 5b5c 48bc
00000110: 89a8 c0bc 2d4e 2a3d 0e86 05bd 383d 36bc
00000120: e2b6 083d 45d2 96bd e2e7 163c 83f5 013d
00000130: 0992 533d e3fa 0fbd 5f56 72bc f78a 9538
00000140: 909e 25bd 7e4f 9c3d 71d7 0dbc 01c5 fabc
00000150: 8aaa 153d 9c31 0dbd 036a b2bc 50e4 253d
00000160: 1e44 123d f833 e93c aa7e 38bd 53ea c3bd
00000170: 6e50 c53c 2455 8e3d 1804 3b3c b276 ef3b
00000180: ae60 47bd 1632 563c e954 d13d bcbc 7b3c
00000190: 45f7 1bbd 87cf 8e3b d784 d0bc d058 8cbc
000001a0: d79e 5fbd 0a01 f4bc 093a 37bc 0627 cfbd
000001b0: d9f4 c83c 3400 ef3b e0b0 483d fbd0 71bd
000001c0: e32e 96bd 17bd 843d 4282 ce3c 9455 8ebc
000001d0: 691c 29bd 3849 663d 52e2 223d 145b 08bd
000001e0: d6fe 2fbc 1792 d33c 6b27 c53c b725 0bbc
000001f0: bf4f 1e3d 6e6c fc3b 6b4c 323d 44ae 803d
00000200: 4e03 103d e90a 9bbc 4f6c 6a3c 4d2b 463d
00000210: 7057 7abd 8b14 babd 5c53 9abd ca06 423d
00000220: 0f22 84bc 40db 82bd 5437 9cbc fb09 213d
00000230: 1a79 d73c e8c6 b9bd d3c0 42bd 6a60 4e3d
00000240: 562f 7dbd 74aa 073b 71ce f8bc a2a1 a83c
00000250: 0887 743d d1ec e43c 76b3 8dbc eafa bfbc
00000260: 46e0 2b3d 44d0 933c ce85 9f3c bc58 0dbd
00000270: 86b6 993d b5ea 7cbd 4ae3 6abd e590 823c
00000280: 98ec 793c f4b4 b23d 4504 acbc 903f 65bd
00000290: bcf7 823d 86dc 0fbb 1957 cf3b 6e24 7fbc
000002a0: ce46 9dbd 68a8 d2bc 0b39 a5bc 01a3 d8bb
000002b0: 30c4 943b a7a6 293d 0318 eb3b ac2e ac3b
000002c0: 4267 6dbc f329 5cbc 1e53 2cbd ead1 abbd
000002d0: a3b4 f03c 924a dabc e595 9bbd 6ef4 04bc
000002e0: 4718 943d eaf0 9eba b376 1dbd d5be 6f3b
000002f0: 4975 7d3d a522 693d 10a2 1f3d 4597 0f3d
00000300: c2e0 aa3d 17ab 973d 3273 22bd b13e 5fbc
00000310: 03fb 7aba b83a a53d 7cce 873c 1b70 a13b
00000320: 96e0 a639 c1f9 90bd 4f68 d93c 7765 1f3c
00000330: 8735 ddba a682 073d b165 a6bd 8a7f adbd
00000340: e60a 45bd 4141 22bd 4f38 583d 5467 ad3c
00000350: 83dc 6a3c 2e22 e13c 96fd 4a3d d0d2 c0bd
00000360: 7af8 993d b6d1 a6bc d81c cbbd df22 043d
00000370: c18b e8bc cd5c 353d d25e 6f3d f038 be3c
00000380: d47c a53c 1c93 363d ac30 ec3c 4abe 2d3d
00000390: dd05 7c3d 2c57 f43c e10a eeba 750a 43bd
000003a0: 689d e33b 5269 6fbd d4d2 b5bc 7818 8a3d
000003b0: 64c8 6a3d a525 66bd 91c8 ddbc d583 91bc
000003c0: 85fa 003d 0d0f 0b3d e62e 30bc 898e 9bbc
000003d0: 2327 ecbc 84dc 08bd 9f93 e0bc f12a bbbc
000003e0: 2ea0 0a3d 1d34 a6bc fb5f 9dbc befe 0a3c
000003f0: c03a 033c 43c0 85bd 6209 9bbc 1912 be3c
-0.012910383 0.03141073 0.011715043 -0.04573431 -0.019696979 0.026591005 -0.0006543175 -0.033941124
-0.022389684 -0.044050626 0.06944746 -0.057712194 -0.08976503 0.11951352 -0.0017385848 0.022733718
-0.0921816 -0.07895598 -0.006138551 0.01959846 0.01393029 -0.0027620343 0.07987333 -0.025204951
0.027579462 -0.05195062 -0.023465438 -0.026373236 -0.016413605 -0.015143498 0.0025545107 -0.00598967
-0.05145771 -0.06600538 -0.04760198 0.0651442 0.108209535 0.0062526236 -0.040576268 0.093891755
-0.07698465 0.03099766 0.010127213 -0.055181574 -0.074519396 -0.0054463423 -0.00932628 0.11143616
0.121868506 0.013314117 0.058719583 -0.0011466497 0.032448564 0.08108599 0.07323752 0.028399458
-0.0882025 -0.016964119 0.041952584 -0.08321813 0.025202412 0.0762542 0.025153965 -0.024357017
0.0706391 0.011145214 0.017873049 -0.0122290505 -0.023517864 0.04157846 -0.032598548 -0.011122994
0.033377536 -0.073643245 0.009210559 0.03172828 0.05165294 -0.035151374 -0.0147911 7.130758e-05
-0.04043442 0.076323494 -0.008657322 -0.030611517 0.03653959 -0.03447114 -0.021779066 0.04050094
0.035709493 0.028467163 -0.04504267 -0.09566178 0.024086203 0.06949833 0.01141455 0.0073078508
-0.048676185 0.013073465 0.102212735 0.015364822 -0.03807761 0.0043582353 -0.025453968 -0.017132193
-0.05459484 -0.029785652 -0.01118327 -0.10114865 0.024530815 0.0072937254 0.048996806 -0.05903719
-0.07333162 0.064813785 0.025208596 -0.017374791 -0.04128686 0.05622217 0.039766617 -0.033289984
-0.01074191 0.025826497 0.024066648 -0.008492879 0.03865027 0.0077033555 0.04352991 0.062832385
0.0351594 -0.0189261 0.014308049 0.04838114 -0.061118543 -0.090859495 -0.07535431 0.047369756
-0.016129522 -0.06389475 -0.019069351 0.03931616 0.026302863 -0.090711415 -0.047547173 0.050384916
-0.06181272 0.0020700963 -0.030371876 0.020584885 0.05969909 0.027944954 -0.017297488 -0.023435075
0.04196193 0.018043645 0.019472983 -0.03450845 0.07505517 -0.06174727 -0.057345666 0.015938232
0.015254162 0.0872592 -0.02099813 -0.05596882 0.06394908 -0.002195151 0.0063275215 -0.01557265
-0.076795205 -0.025715068 -0.020168802 -0.0066112285 0.004539989 0.041418698 0.0071744933 0.005254587
-0.014489951 -0.013437736 -0.042071454 -0.08389647 0.02938301 -0.026646886 -0.075969495 -0.008114917
0.07231193 -0.0012126241 -0.03844328 0.003658225 0.06187943 0.056917805 0.038972914 0.03505637
0.083436504 0.0740568 -0.03966064 -0.013625787 -0.0009574147 0.0806784 0.016577952 0.004926694
0.00031829317 -0.07078887 0.026538996 0.009728781 -0.0016876914 0.03308358 -0.08124865 -0.08471592
-0.048106097 -0.039613012 0.052788075 0.021167435 0.014334801 0.027482118 0.049558245 -0.09415209
0.07518096 -0.02036367 -0.09917611 0.03225982 -0.028386952 0.044277955 0.058440037 0.02322051
0.020201124 0.04457389 0.028831802 0.042417802 0.06152903 0.029826723 -0.0018161201 -0.047617394
0.0069462545 -0.05845005 -0.022195257 0.06742948 0.057320014 -0.056188244 -0.027073177 -0.017763058
0.031488914 0.0339499 -0.010753369 -0.018988864 -0.028827256 -0.033413425 -0.027414141 -0.022847624
0.033844166 -0.020288521 -0.019210806 0.008483587 0.008009613 -0.06530812 -0.018925373 0.023201989

conv3.bias f4 [120]
00000000: a635 42bb 2b71 6e3d a365 433b e6ea 05bd
00000010: c7fe 783c dec7 6d3c 46f2 8f3b 4434 24bd
00000020: 3897 923d 9025 c6bc 82b4 b93b 7a90 a83c
00000030: adc0 f8bb 5a09 4b3d fca9 a7bd 6346 373c
00000040: 8ecc ca3c b813 2d3c 1e2e 7eba 3ea8 15bd
00000050: 4d17 3ebd e2d4 5d3b 2f54 0ebd 2457 fe3b
00000060: d7df 643c 5d22 8dbd 7ee2 493d 0078 f6bc
00000070: 71fa 783d db67 e13b a8de 033d bc5b a7bd
00000080: 0430 9cbd 921e 30bd 4bf6 9fbc 61bb c3bc
00000090: cab5 983d 76de 15bd fb24 823d aa1d e03c
000000a0: da32 53bd d370 0b3d 8990 bdbc 5db3 eebc
000000b0: 0855 163d 8d8a 223d 17ba ca3c 5f38 1e3d
000000c0: 816d b53b 421c 8dbc 7d66 3fbd 937a 9e3c
000000d0: a328 2bbc 2c7b a4bc 648a 293d 6f39 42bd
000000e0: 0714 6bbd 4615 e73a c5da 06bd ef83 f33c
000000f0: c0e6 0cbd fdb1 ea3c 712a 85bb e419 bebc
00000100: a095 cd3c b78d 85bd f357 a6bc 0e89 b4bc
00000110: 2476 21bd 41ff 7fbd f5b0 37bd f332 cdbc
00000120: 7a97 76bc 60f6 f4bc d02f 583c fd3a 53bb
00000130: 18d8 963d 281e e6bc 555b 9f3c 3757 71bd
00000140: 2077 4cbd 75f0 61bc 6cc9 213d 5c58 6b3c
00000150: 9bed f33c 2d59 0e3d b416 853b f2d0 ecbc
00000160: cc4b b93c 28ef b5bb f497 373d b492 a13d
00000170: b1f6 c53a 2b0c 8dbd 0519 a13c 2e15 d8bc
00000180: 884d 9bbc bebe cabc dc12 f03c a307 65bd
00000190: bd7e 8bbd 84d5 a83d 6390 b73c b74a d73c
000001a0: abc6 61bd f34a 803d 792e e4bc e72f dc3a
000001b0: b20f 30bb 145a 86bc 322d 5a3d 6f6b 153c
000001c0: b2e5 bc3b 38c0 39bd a139 1d3c f76b 28bd
000001d0: cf34 38bd d828 aabc 4e0c 603c 0fe4 1fbc
-0.0029634028 0.058213394 0.002981522 -0.03269472 0.015197462 0.014512984 0.004392895 -0.040088907
0.07157749 -0.024187833 0.00566727 0.020576704 -0.007591328 0.049569465 -0.08186719 0.011186215
0.024755742 0.010563783 -0.0009696203 -0.0365374 -0.04640894 0.0033848812 -0.034748252 0.007761853
0.013969383 -0.0689132 0.049288265 -0.030086517 0.060785715 0.0068788356 0.032194763 -0.08171794
-0.07626346 -0.042997904 -0.019526621 -0.02389306 0.074565485 -0.03658911 0.0635471 0.027357895
-0.051562168 0.034043144 -0.023140209 -0.029138261 0.036702186 0.039682914 0.024746938 0.03862798
0.0055367355 -0.017225388 -0.0467286 0.019345557 -0.0104467 -0.020078264 0.041391745 -0.047418054
-0.057392146 0.0017630241 -0.03292348 0.029725997 -0.034399748 0.028649325 -0.0040638973 -0.023205705
0.02509576 -0.065211706 -0.02030561 -0.022038009 -0.03941931 -0.06249929 -0.044846494 -0.025048709
-0.015050763 -0.029902637 0.013194993 -0.0032231205 0.07365435 -0.028090551 0.01945273 -0.058921065
-0.049918294 -0.01379024 0.03949873 0.014364328 0.029776385 0.034753013 0.0040615443 -0.028908227
0.02261915 -0.0055521913 0.04482265 0.078893095 0.0015103427 -0.068870865 0.01966525 -0.026377287
-0.018957868 -0.024749156 0.029305868 -0.055915486 -0.06811283 0.0824385 0.022407716 0.026280744
-0.055121105 0.062642954 -0.027854191 0.0016798944 -0.0026864824 -0.016400374 0.053265758 0.009119852
0.0057646865 -0.04534933 0.009596259 -0.04111859 -0.044972237 -0.020771429 0.013674809 -0.009758963

linear.weight f4 [84, 120]
00000000: 8d48 833c e61b 4fbd 4e4a 60bd 2a77 4dbc
00000010: be10 01be ae7f 993d 93ba 853d 1d35 56bd
00000020: 057c 053e a4b8 3fbe bdc9 a23d fdd7 993d
00000030: 06c3 733d cad6 8ebb 71c6 dabd da89 81bd
00000040: f772 cbbc 6597 e6bb ba7b fc3d fba4 be3d
00000050: e71e d53d 4df8 15be 919c 563b c9bb 0dbd
00000060: 68bc 9ebd 04f4 973c 1350 d4bd 820e ecbd
00000070: d370 8a3c e765 68bd 0bcd 26be 03fe a13c
00000080: 803a 813d f9ff 253b 91e6 083d 1fcc 7e3d
00000090: 78e4 7fbd 1779 ed3d 1c9c 1ebd 2228 3a3d
000000a0: 9d26 963c 3567 1dbe 52e8 dc3d e932 c23d
000000b0: 445a c1bd 6a5a 353c a6d8 b73d 8802 aabc
000000c0: c6f8 033d 4a76 3e3d cc1c 8ebc 19f4 893d
000000d0: 63d8 dabc 02a0 c93b 3c1c 06be bb24 3a3d
000000e0: b0a1 d43d 0f28 6d3d 81b8 3bbd b364 a5bc
000000f0: 6a9f 203d c656 89bd 26f4 933d 3d3b 34bd
00000100: 8ccf 6e3d 7527 213b 7b94 dd3d 53c9 a2bd
00000110: 1cfb 6e3d f083 f23d 8286 7ebd cbba d8bd
00000120: 7330 03be d064 96bd 2600 ff3c 82d5 953d
00000130: 2f49 69bc 1ddc 08bd aad4 a4bc ecc2 b7bd
00000140: ba19 d0bc ff93 4c3d ecac a4bd c8e5 05bd
00000150: 7c02 f6bd ab7c 58bd 4de8 b83d f8ee 97bd
00000160: 1bf3 dc3a 43ab e0bc 85c6 f8bb 7af7 2fbd
00000170: 45de dfbc f56d acbd d50e 33bd 2427 73bc
00000180: d337 873d 5b16 5abd a57f 7a3d 59fa 65bd
00000190: c534 be3c 3dad 79bc c5d0 633d 0457 86bd
000001a0: 3444 f0bd dd53 9b3d 5f64 d43d 54d3 55bd
000001b0: 81b1 97bd adec 55bc 98c9 7fbd a9be a93d
000001c0: 177b 063e 3095 03bd b262 2a3d 296e 4f3d
000001d0: e8ae f13b 42d0 cb3d 36c3 40bd a56d b0bb
000001e0: 7230 80bc 1745 89bc 1438 50bd e026 b3bd
000001f0: 4e7d 05bd 819b 283c af7c d4bc 6175 5f3b
00000200: a27c ddbd a161 d9bd da52 b83d 7c30 13be
00000210: 83af 94bb 89b1 923c db18 693d e9fc a7bb
00000220: 74a9 113d 5fc6 683c 5c4b 593d a0b9 073d
00000230: 9557 ecbb 7fea 303e 169a 083c 720a af3a
00000240: f6ac c33d fc9b 193d 5ace 353b 31af 56bd
00000250: 683f bb3b 6820 c83d da56 233d 8387 89bc
00000260: 1cca 373d 7ef0 aa3d d435 8abc 7e06 da3d
00000270: 3824 bf3d a75f 45bd 159b ffbd 556f 703b
00000280: e162 62bd 6029 013e 0bac 23be cd1f 20be
00000290: 6e51 c9bd 462b ddbd e613 dcbd 9dc1 44bd
000002a0: 757a 5e3d 29e2 773c 0f6d 3dbd c281 653d
000002b0: 20e4 893c 3a07 933d c844 89bd 261a ca3d
000002c0: 3649 143e 630d 203d 7429 2dbd 46ed 40be
000002d0: a922 0ebd 2c52 1b3e 412a 9abd b0e5 c83d
000002e0: 41b1 cc3d 41cd afbc 4318 e83d c2aa c5bd
000002f0: 2f83 1ebd 28af cf3d dde0 9e3d c595 d3bd
00000300: 4254 26bd 9ded 933d 3cb8 ff3d 3c5c 1c3d
00000310: 7fd7 a5bb 6d6a 9ebb d000 973c 99f8 363e
00000320: dd26 b6bd 2dba c33d 78e2 67bd a426 3c3d
00000330: 758d 2b3e 6855 ccbd 97a5 3cbd b3dd c73d
00000340: aa07 3ebe 8f3e 623d 245d 58bd 3257 9b3c
00000350: 7e8d 85bc 6479 a33c 1212 623d 058b b5bd
00000360: edd9 913d 2513 1c3e 33c2 0bbe 6ea8 c33d
00000370: 78f5 cd3d 3f2b 21be 7b99 223d b9f3 c0bd
00000380: 90f6 2fbd 77a4 ebbc 3a75 ccbd 0b35 293d
00000390: 3113 1d3e db81 89bd ac7a 163e 9412 93bc
000003a0: 381c 9f3c 978b 73bd 7ab4 273d e08e ccbb
000003b0: e32a ecbc 0ceb e5bd 4981 4f3c f0f3 2b3c
000003c0: 63bd b3bb 205c c33d 6360 c73d dbe4 8abd
000003d0: a845 213d 36a2 153d 4e84 4ebd 217e ae3d
000003e0: 5de9 983c ec27 a5bc 6870 b3bd 25f1 073e
000003f0: bd3b fa3c 0d0f 593d cdac f5bd 15d7 af3d
0.016025806 -0.050563715 -0.054758362 -0.012540618 -0.12604043 0.07495056 0.06529727 -0.052296747
0.13035591 -0.18722779 0.07948635 0.075118996 0.05951216 -0.004359101 -0.10682381 -0.06325121
-0.024835093 -0.0070370906 0.123282865 0.09308811 0.10406285 -0.146455 0.003274713 -0.034602914
-0.077507794 0.018548973 -0.103668354 -0.11526205 0.016899502 -0.056737807 -0.16289155 0.019774443
0.06309986 0.0025329574 0.03342301 0.062206384 -0.062473744 0.11595362 -0.038723096 0.04544843
0.01832896 -0.15371402 0.10786499 0.094823666 -0.09441045 0.01106892 0.08976869 -0.02075316
0.03221967 0.046499528 -0.017347716 0.06736011 -0.02671451 0.0061531076 -0.13096708 0.045445185
0.10382402 0.05789953 -0.045830254 -0.020189619 0.03921453 -0.06706004 0.07224302 -0.044001807
0.0583034 0.0024590169 0.10819336 -0.07948556 0.058344945 0.11841571 -0.062139995 -0.10582503
-0.1281145 -0.07343447 0.031128 0.07316114 -0.01423864 -0.03341304 -0.020120937 -0.08972725
-0.025402892 0.049945828 -0.08040795 -0.03268984 -0.120121926 -0.052853268 0.09028683 -0.074186265
0.0016857119 -0.027425414 -0.0075920247 -0.04296062 -0.027327666 -0.0841941 -0.043715317 -0.014840875
0.066024445 -0.053243976 0.061156888 -0.056146953 0.023218522 -0.015239057 0.05561902 -0.06559566
-0.11731759 0.07584355 0.10370707 -0.05220349 -0.07406903 -0.013056916 -0.062448114 0.08288319
0.13132893 -0.0321247 0.04159803 0.050642166 0.007375587 0.099518314 -0.047061168 -0.0053841644
-0.0156481 -0.016756577 -0.05083473 -0.08747649 -0.032590203 0.010290981 -0.02593836 0.0034097063
-0.108147874 -0.10614324 0.09000178 -0.14373964 -0.004537524 0.017906921 0.05690847 -0.005126585
0.035561994 0.014207452 0.053050384 0.03313601 -0.007212589 0.17276953 0.008337518 0.0013354553
0.09554474 0.037502274 0.0027741403 -0.05241317 0.0057143457 0.09771806 0.03987775 -0.01678825
0.04487048 0.083466515 -0.01687137 0.106457695 0.0933308 -0.048186924 -0.124807514 0.0036687453
-0.05527008 0.1261344 -0.15983598 -0.15637131 -0.098299846 -0.107992694 -0.10745983 -0.048036207
0.054316003 0.015129604 -0.046246585 0.05603195 0.016832411 0.07179113 -0.06702572 0.09868269
0.14481053 0.039075267 -0.04227586 -0.18840513 -0.034701023 0.15168065 -0.075275905 0.098094344
0.09994746 -0.021460177 0.113327526 -0.0965171 -0.038699325 0.1014083 0.07757733 -0.10331301
-0.0406077 0.072230555 0.12486312 0.0381739 -0.0050610895 -0.0048344643 0.018433005 0.1786827
-0.08894131 0.095569946 -0.05661246 0.045935288 0.1675318 -0.099772274 -0.046056356 0.09759083
-0.18557611 0.05523544 -0.0528232 0.018962476 -0.01630282 0.019955344 0.055193014 -0.088644065
0.07121644 0.15241678 -0.136483 0.0955361 0.10056585 -0.15739153 0.03969715 -0.094214864
-0.04295975 -0.028764946 -0.09983297 0.04131035 0.15339352 -0.06714221 0.14695233 -0.017953195
0.019422635 -0.059459295 0.0409436 -0.006242618 -0.028829044 -0.11226472 0.012665101 0.010495171
-0.005485223 0.09539056 0.09735181 -0.06781932 0.03937307 0.03653165 -0.050419144 0.08520151
0.018665964 -0.020160638 -0.08761674 0.13275583 0.030546064 0.05299287 -0.1199585 0.085859455

linear.bias f4 [84]
00000000: f070 853d 4b7c 84bd d3c2 9cbc 14f6 2c3d
00000010: 0d21 20bb 4eca 8ebd 3458 793d 2301 95bd
00000020: 6c8c 6bbd 6bfb 13bd 016f bb3d 16c8 2c3d
00000030: dd52 cbbc 35a7 bbbd f1a7 e93d 6a8c 48bd
00000040: d551 e53d d334 393c e671 e63c dce9 433d
00000050: 96f8 8abd 6854 a13d 406e 3fbd 4f59 d9bd
00000060: 7f50 2e3d cb46 cc3c 3505 743d 0ef4 06be
00000070: 54c8 ce3c 13ed a4bc d6e0 61bd 0720 503b
00000080: cc35 ae3d d97d 9fbd 038e ca3c b85b 29bb
00000090: d4cb c33d 91d9 84bd c0d2 9abd 875f 7a3d
000000a0: 1d37 923d 9589 8fbd 17ac 8bbd 5f8a 2bbd
000000b0: d442 8d3c 0795 e53d 1820 633c 048f 80bc
000000c0: f87c 3f3d ca88 243d 9c5e 75bd 33fe e2bc
000000d0: e306 bb3d d447 f53d 6cba 86bd 620a 59bd
000000e0: 3911 0b3d e8fd a63d f2ad 91bc 2515 d2bd
000000f0: 1ff7 853d b821 273d 7749 8fbc 061d 9b3d
00000100: 691b 1a3d f45d d53d b793 c0bd e3f5 c0bc
00000110: 41e9 bdbb 5397 27bd cbf7 ccbc 7e60 66bd
00000120: d5f7 9c3d adcd a93d b3de 723d 2fc7 93bd
00000130: 95ca abbc 6ccb 8abd 7525 8c3d 27b6 a0ba
00000140: 17b4 093d 92be 493d 8555 2ebd 111f 50bd
0.06515682 -0.064690195 -0.019135868 0.042226866 -0.0024433762 -0.0697218 0.060875133 -0.072756074
-0.057506964 -0.036128443 0.09152032 0.042183004 -0.024819786 -0.091627516 0.114089854 -0.048962034
0.11197249 0.011304098 0.028130483 0.047830448 -0.06785695 0.07877427 -0.046736002 -0.106127374
0.042557236 0.0249361 0.05957528 -0.13179037 0.025242008 -0.020132577 -0.05514606 0.003175737
0.08506355 -0.077876754 0.02472592 -0.0025842022 0.095603615 -0.0648681 -0.075597286 0.06112626
0.07139418 -0.070086636 -0.06819933 -0.041880008 0.01724378 0.11210065 0.013862632 -0.015693195
0.04675004 0.040169515 -0.05990468 -0.027709102 0.09132173 0.11976591 -0.06578526 -0.052988417
0.03395197 0.081538975 -0.017783139 -0.10257939 0.06541275 0.04080364 -0.017491085 0.07573895
0.037623797 0.10418311 -0.09403174 -0.023554748 -0.0057956283 -0.0409158 -0.0250205 -0.056244366
0.07664458 0.08291183 0.059294414 -0.07215726 -0.020970622 -0.06777081 0.06843082 -0.0012261317
0.033619013 0.049254008 -0.042562027 -0.050810877

output.weight f4 [43, 84]
00000000: d6d5 733d 5e97 76bd 3961 ec3d 9979 88bd
00000010: e378 b5bd be6c 153e 6439 2f3d ef0c 22bd
00000020: e581 243d e3e0 743d 16da f4bd 05aa ad3d
00000030: e636 423c 1f28 f03d 4358 293d b3d9 133e
00000040: f430 1f3d 34c1 ae3d 3b31 80bd 4978 843d
00000050: 77b4 713d ba8b ab3b 0147 2d3d a0ca ea3c
00000060: 87c4 eebd 6e16 6cbd 9465 dabd c920 ccbc
00000070: 63a0 83bd ad88 5b3d 9bff 893d 890f 083e
00000080: 450d 47bd 2d20 d13c ea44 03be b051 5ebd
00000090: 4883 03bd e16e 91bd 7ed8 34bd 6395 a3bd
000000a0: 8626 b5bd 1f62 bf3d 7421 aebd 4861 a2bc
000000b0: 9a52 b4bc a01c d7bc edbb 843c 562d b9bd
000000c0: b5b3 023d 2391 04be b020 32bd ac8e 90bb
000000d0: d466 22be aaf8 babc 8abf fbbd e3b4 36bd
000000e0: 3927 e4bd 79dc 07be 444d a33d 54f0 44bd
000000f0: 4afe 63bd f935 8ebd 00e1 183d 64c0 b93d
00000100: d18d 913d e3e7 7cbc f093 c6bc 7cea ffbd
00000110: e847 f9bc 5b9b 803d 30fd e73b 4b1c f93c
00000120: dcb9 f43d 6b08 6abc 8b3a edbd 1b90 823d
00000130: bc9a 00bd cb5c 253d 069b f23c 357e e83d
00000140: e198 bb3d 534a c13d 2f92 9cbc b10b e13d
00000150: 0dc2 f4bd 7860 b7bd 7c51 5aba fc39 df3d
00000160: 3302 5ebd bc0a 183d f1df cfbd bdda 9c3d
00000170: 128f dabd dedf c93d 9596 e9bd 015f af3d
00000180: 074c 53bd 9812 383d 6c9b 62bd 833a a83d
00000190: be9b 24be 3f9a d23d 6edc 17bd 7ac7 7fbd
000001a0: a01c f83d 28d8 71bd 52a8 b3bd 4850 09be
000001b0: a5e2 cabd 8c58 fc3c 6b95 4c3d 15be 87bd
000001c0: 3a0e a1bd b180 023e e17d 5fbc 1987 f43d
000001d0: f4a0 543d 2ddd a73d 8e0e c3bd b864 073e
000001e0: d484 edbd b76e ecbd 60fe 8d3d 2978 233e
000001f0: 64bf f7bd 5a19 05be 532d 9bbd 273a 02ba
00000200: fc03 b9bd d3de 05be a95a 72bc e059 953d
00000210: 8ac8 79bd 7b70 0f3c 42ee df3b a465 7b3c
00000220: 4b2b 16be a75f 12bd bc5d 6bbd 87ff 16bd
00000230: 488c 6d3a 4aa6 a3bc 4016 993d 8bef bebd
00000240: be6f 0bbe c162 dc3d f00d c33d 608c cc3b
00000250: 4e5d 593d 6f4a f2bd db41 8a3d 125b d6bb
00000260: 7c5b a63d dc0a ddba 90ba afbd b11b 9c3c
00000270: 006c 0c3e 8b4f be3d 5751 01be d48b d13c
00000280: a929 b4bd 40c9 1b3d 991f fd3b 884d b43d
00000290: 68ac edbc a6c1 b53b f0fa 37bd ed0c 8c3d
000002a0: 3c73 21bd 11e1 af3d 797f e2bd 3503 91bc
000002b0: 84c7 bcbd a642 d73d 4fb6 a33d 8764 89bd
000002c0: 98f7 7abd f806 d23c 7190 c33b aa92 94bc
000002d0: 5e67 03be 1210 79bd 601a babc cd9b fabd
000002e0: 9a14 f4bd e454 dabd a34f 49bd 06a5 bdbd
000002f0: 6897 fe3d d7f7 323d 2c8e 643c 55dd f33d
00000300: c048 263d 1f66 c63d 571a a3bd e364 dabd
00000310: c069 1c3d 3de9 a13d 57a4 efbd 1f1a c03d
00000320: 21ef e0bd 1377 afbd 9f95 5fbd 1827 14bc
00000330: ff1d afbc 3327 ddbd 27b9 d5bd 922b d23d
00000340: 111a d4bd 332a 6abd c7e9 a9bb 2034 413d
00000350: 4671 8fbd 1280 e6bc c977 203d 9a63 17be
00000360: d4b3 cc3c 6e8a e83d c311 babd d7ed 9b3c
00000370: 2f27 f2bd b1c3 4b3d c66c b7bd cf14 493d
00000380: 35b8 adbd 6997 80bd 018c c53d 39b3 6d3d
00000390: bb6d a8bd f39a 47bd 8cdf 8c3d 5413 063e
000003a0: de44 5b3c 9535 d13d b44a 723a 2643 f7bd
000003b0: cdba b63d 02e5 a0bd 4c92 01be aebe e93d
000003c0: a452 983d 1bfb 39bd 2332 233e 0065 bbbc
000003d0: 42cd 82bd a10f 8d3d fb39 2fbc 97f3 6e3d
000003e0: 4270 af3c 15a2 b43d 5a22 17be c3b1 5ebd
000003f0: 31ee 983c bab4 efbd 9da3 093e c50c 023e
0.0595301 -0.06020295 0.11541981 -0.06663818 -0.08860948 0.14592263 0.04277934 -0.039563116
0.04016294 0.05978478 -0.11955659 0.08479694 0.011853909 0.117264025 0.04134394 0.14438514
0.038865045 0.08532944 -0.0625939 0.06468255 0.059009995 0.0052351626 0.042304043 0.028661072
-0.11658578 -0.057638578 -0.10663906 -0.024917977 -0.06427076 0.05359714 0.06738206 0.13287176
-0.04859664 0.025528038 -0.12819257 -0.054277122 -0.03210762 -0.071012266 -0.044151776 -0.07987478
-0.088452384 0.09344887 -0.085024744 -0.019821778 -0.022012044 -0.026258767 0.016202891 -0.0904185
0.031909663 -0.1294599 -0.043488204 -0.004411539 -0.15859538 -0.02282365 -0.122923926 -0.0446061
-0.11140294 -0.13267697 0.079737216 -0.048080757 -0.05566243 -0.06943888 0.03732395 0.09069899
0.071071275 -0.0154361455 -0.024240464 -0.12495896 -0.030429795 0.06279632 0.007079743 0.030408999
0.11949512 -0.014284234 -0.11583432 0.06375142 -0.031397566 0.040371697 0.029614937 0.11352197
0.09160019 0.09438004 -0.019112675 0.10988558 -0.11951075 -0.08953947 -0.0008328182 0.108997315
-0.054201316 0.037119612 -0.10150135 0.076589085 -0.1067182 0.098571524 -0.11405674 0.085630424
-0.051586177 0.044939607 -0.055324003 0.08214285 -0.16075036 0.10283326 -0.037075453 -0.062446095
0.12114835 -0.059044033 -0.08772339 -0.13409531 -0.0990651 0.030803941 0.049947184 -0.06628052
-0.078640416 0.12744404 -0.013640852 0.1193983 0.05191131 0.08196483 -0.095242605 0.13222015
-0.115976006 -0.11544555 0.06933284 0.15963806 -0.12097052 -0.12997952 -0.07577004 -0.0004967772
-0.09033963 -0.13073282 -0.014792123 0.07292533 -0.060982265 0.008754845 0.0068338225 0.015344057
-0.14664952 -0.035735752 -0.05746244 -0.036864784 0.0009061736 -0.019976754 0.07474947 -0.09323033
-0.13616845 0.10761023 0.09524143 0.00624232 0.053067498 -0.11830603 0.06750842 -0.006541618
0.08122918 -0.0016864198 -0.08580506 0.019056173 0.13713074 0.09292515 -0.12628685 0.02557937
-0.087970085 0.038033724 0.007724714 0.088038504 -0.029012874 0.0055467663 -0.044917047 0.06838403
-0.039416537 0.0858785 -0.1105947 -0.017701725 -0.09217742 0.10510759 0.07993757 -0.06708627
-0.06127128 0.025638089 0.0059681465 -0.018136341 -0.128324 -0.06080634 -0.022717655 -0.12236748
-0.11917992 -0.10660723 -0.049148213 -0.09259991 0.12431222 0.04369339 0.013949912 0.1190745
0.040596724 0.09687447 -0.07964008 -0.10663774 0.03818679 0.07905815 -0.11701267 0.09379982
-0.1098311 -0.085676335 -0.05458605 -0.009042524 -0.021376608 -0.10798492 -0.10435706 0.10262217
-0.10356534 -0.05716915 -0.005185339 0.04716885 -0.07004027 -0.02813724 0.039176736 -0.14784089
0.024988092 0.11354528 -0.09085419 0.01903431 -0.1182388 0.049747173 -0.08956294 0.04909211
-0.084824 -0.06278879 0.09645844 0.05803225 -0.082240544 -0.048731755 0.06878576 0.1309331
0.013383118 0.10215298 0.0009242699 -0.120733544 0.08922348 -0.0785618 -0.12653464 0.114133224
0.074376374 -0.04540549 0.15937094 -0.022875309 -0.06386806 0.068877466 -0.010694976 0.058337774
0.021415833 0.08819977 -0.14759198 -0.054368746 0.018668266 -0.11704393 0.1344132 0.12700184

output.bias f4 [43]
00000000: e672 e3bd ae34 93bd b4c5 a23d 193d cabc
00000010: cb2a c83d 0d15 5e3c fa3c b93d 697d 6abb
00000020: 43ac adbc 2bdd e2bc 6d29 863c 05e3 c7bd
00000030: b2dc 953d e56c 6a3d d203 d33c 92d4 ba3c
00000040: 001b 813d c509 80bc 9fe4 2a3d f2ef 47bd
00000050: 67a1 5bbc e48a 4d3d 4eaa 3ebd 9eae 723d
00000060: b263 bbbd 73d2 ee3b 6c2f a1bb f3e5 5fbd
00000070: c41a 31bd 5ce9 fcbd aca6 b0bd e6d7 0dbc
00000080: e039 3e3d 76b3 51bc 64a1 843d c617 7e3d
00000090: a415 9e3d 9bf9 383d e787 46bc 0214 733d
000000a0: 8983 16bd fbe2 1abd 93d8 9a3d
-0.111058995 -0.07187782 0.07947865 -0.024687337 0.09773787 0.013554824 0.090448335 -0.0035780317
-0.021200305 -0.027693352 0.016377175 -0.097600974 0.07317485 0.057232756 0.025758658 0.02280644
0.06303978 -0.015629658 0.041721936 -0.048812814 -0.013405181 0.050181285 -0.046549134 0.05924856
-0.09149875 0.007288271 -0.004918983 -0.054662656 -0.043238416 -0.12349197 -0.0862554 -0.008657431
0.046441913 -0.0127991345 0.06476095 0.06203439 0.07718971 0.045159917 -0.012117363 0.059345253
-0.036746535 -0.03781412 0.075608395

exp_avg f4 [6, 1, 5, 5]
00000000: 0135 a6bc d878 b3bc c2ca c0bc 209b d5bc
00000010: 545c f6bc 7388 95bc 077e 8bbc 0e22 89bc
00000020: e302 a2bc ab28 d4bc 40c5 80bc 86a5 39bc
00000030: c268 14bc 2d00 45bc b199 9dbc a653 79bc
00000040: b8cf 0bbc 54a8 9cbb b2d2 d1bb b7e7 4fbc
00000050: 4305 8abc d560 24bc 60d4 b4bb 1d28 99bb
00000060: d2e0 0dbc a29c 3fbc ee0d 1abc 5806 2abc
00000070: e536 5ebc e0c6 96bc d0db 04bc f254 7cbb
00000080: e0b5 63bb aa5a d0bb 271a 43bc 2805 d8bb
00000090: 743a bdba 7199 67b9 3d0d 1abb 4b26 f5bb
000000a0: cfea 03bc e036 67bb 0221 0ebb fac9 46bb
000000b0: 03ca cdbb ccab 4abc 6a05 1cbc 3b6c 06bc
000000c0: c236 f1bb cd14 01bc a8ae 3b3c 7406 aa3b
000000d0: fd97 0d3b 092f 023b 7579 a13b a900 293c
000000e0: 932e 103b 83b1 40bb 1d1f a5bb b668 38bb
000000f0: 2ddb 303c 342f 1c3b 03d1 77bb ac2c efbb
00000100: 5ba0 cebb 398a 4b3c 0a48 aa3b 1bbb 88ba
00000110: d5cc afbb 85d0 c3bb ab43 5a3c 787a 043c
00000120: 4105 403b d5a7 87ba 707e 40bb a2c3 69bc
00000130: 1c90 72bc e300 5cbc b7af 30bc 45e8 f8bb
00000140: 30dd 63bc 632c 2fbc 2df5 dcbb 7322 67bb
00000150: c565 0fbb 9645 2cbc 7a62 70bb fd7f 103b
00000160: 385e aa3b 4361 873b e7ce d5bb 630c 293b
00000170: 2d45 103c 1209 323c 9aa1 053c 3904 21bb
00000180: d532 e23b 0e2a 403c 8d39 493c 66bf 0c3c
00000190: 2bb0 22bc 0fab f7bb 3755 e8bb b0ee 0abc
000001a0: 86fe 2abc 1f10 07bc afda 6fbb b17c d1ba
000001b0: aba2 31bb dfc8 b8bb 6fb8 dabb 9c9d 0bba
000001c0: 42c0 2d3b 59b9 043b 8c9a c6ba e5a9 d4bb
000001d0: fbf9 fe39 aa17 8f3b 6015 903b e811 873a
000001e0: 843b edbb 0d40 6eba 6861 353b 4eed 563b
000001f0: f49f 3c3a 1923 a73c 316b c63c a5c5 e03c
00000200: e8d5 f93c 3ee7 093d 422f 8c3c 770b 973c
00000210: e827 a83c 138c c53c bb7a ef3c ee77 693c
00000220: 8518 4f3c 12df 563c e110 873c 2d57 b73c
00000230: 2029 5e3c 11a8 1b3c bae0 043c 9b14 273c
00000240: 6927 7f3c ccdd 713c 9171 193c 08a0 cd3b
00000250: 2411 d13b c1dd 293c
-0.020288946 -0.021908209 -0.023534182 -0.026074946 -0.030073322 -0.01825354 -0.017027868 -0.016739871
-0.019776767 -0.025898298 -0.015719056 -0.011330968 -0.009058179 -0.012023968 -0.019238325 -0.015217697
-0.008533411 -0.0047808085 -0.0064032907 -0.0126895225 -0.016848212 -0.010032852 -0.005518481 -0.0046739713
-0.008659558 -0.011695059 -0.009402735 -0.010377489 -0.013562893 -0.018405378 -0.008109048 -0.003850278
-0.0034745857 -0.0063584642 -0.011908091 -0.0065924115 -0.0014436976 -0.00022087038 -0.0023506426 -0.0074813715
-0.008051588 -0.003528051 -0.0021687155 -0.003033279 -0.006280185 -0.012370061 -0.009522775 -0.008204515
-0.007361264 -0.007878494 0.0114552155 0.0051887576 0.0021605485 0.001986446 0.004927809 0.010315099
0.0022000417 -0.002940268 -0.0050391094 -0.0028138584 0.010794443 0.0023831846 -0.003781379 -0.0072990265
-0.006305737 0.012423092 0.005196576 -0.0010431738 -0.005364994 -0.005975785 0.013321797 0.008085839
0.0029300007 -0.00103497 -0.0029372238 -0.014267834 -0.014804866 -0.013427946 -0.010784081 -0.007596048
-0.013907716 -0.010691735 -0.0067430944 -0.0035268336 -0.0021880728 -0.010514637 -0.003667979 0.0022048943
0.00519922 0.0041314675 -0.006524909 0.0025794737 0.008805555 0.01086642 0.008156205 -0.0024569167
0.0069030323 0.011728777 0.012281788 0.008590555 -0.009929697 -0.0075582336 -0.0070902365 -0.008479759
-0.01043666 -0.00824359 -0.0036598851 -0.0015982596 -0.0027105014 -0.00563918 -0.006674818 -0.0005325915
0.00265123 0.0020252077 -0.001515226 -0.0064899796 0.00048632905 0.0043668346 0.0043970793 0.0010305019
-0.007239761 -0.0009088524 0.0027676467 0.0032795253 0.0007195466 0.020402478 0.024221035 0.027437994
0.030497506 0.033667795 0.017112378 0.018438084 0.020526841 0.024114644 0.029233327 0.014249785
0.012640123 0.013114708 0.01648754 0.022380436 0.01355961 0.009500519 0.00811022 0.010197784
0.015573361 0.014762353 0.009365455 0.0062751807 0.006380217 0.010367812

exp_avg_sq f4 [6, 1, 5, 5]
00000000: 8e77 8539 6c0e 9439 2821 a039 9c1e a939
00000010: d90f b339 73ee 4d39 b808 5d39 bfde 6839
00000020: 5b42 6f39 635c 7f39 4cff 1a39 2bb8 1c39
00000030: 1255 2239 0c6e 1d39 a95b 2139 b1eb ff38
00000040: 1797 de38 7587 dc38 ced4 cb38 7406 c738
00000050: 63d0 0039 0ffb b238 d345 9e38 20ed 9838
00000060: e1d0 a738 10c5 8e38 d088 6638 b2a4 7e38
00000070: e921 b038 ddc3 0439 ebc6 4a38 a57e 1438
00000080: 8b0e 1c38 41d0 5838 09e8 af38 1ed2 7238
00000090: ef3c 4638 84bc 4338 6e1d 6838 0b25 a738
000000a0: 76e2 c038 83c0 a438 f013 9a38 8876 a738
000000b0: 8444 d938 66e9 2139 9492 0939 0b3d f538
000000c0: 235e f638 8e9b 1039 b9f0 4939 3bb4 0d39
000000d0: f35f d438 bb0b c738 7604 0139 75f1 2939
000000e0: e7d2 e738 0273 b338 0fbf a738 9ab9 cf38
000000f0: 9130 2c39 a861 f538 3c18 d138 24e7 d338
00000100: 6a2e fc38 563f 4c39 48ec 1e39 fbea 0f39
00000110: 7eaf 1639 e5e6 2e39 b066 8239 529a 6239
00000120: c825 5439 4570 5939 c54d 7139 c40d 9e39
00000130: 8766 9839 01e5 8f39 61df 8739 6ab7 8239
00000140: bcbb 9039 1fe4 8439 f673 7339 2647 6239
00000150: 240b 5339 c862 7f39 a74d 6739 4de9 5739
00000160: 12e7 4739 4e61 2e39 7201 6839 47ce 5939
00000170: 811a 5439 c8cf 4339 c24a 2139 57c0 5139
00000180: a864 4f39 8d01 5439 1359 4939 eedb 2b39
00000190: d7b2 0139 77d0 d738 868f c438 8269 c038
000001a0: 0e6d d238 8505 b438 f97f 8638 acb0 6d38
000001b0: c324 5838 560d 6238 44b4 8138 934d 4038
000001c0: 87a7 3e38 e25a 2f38 ae32 2c38 3ad3 5d38
000001d0: 02b6 2d38 a87e 4438 c3c4 4e38 0785 6538
000001e0: 8cd2 8a38 93d1 6238 2852 7838 5e8e 8d38
000001f0: 0360 b338 23ee 8039 2864 9739 a5f0 a839
00000200: 8b2c b539 26da b739 621d 4939 3d27 6239
00000210: 2bb5 7639 b97d 8439 0238 8a39 71b6 1f39
00000220: cd1b 2b39 eefe 3139 a260 3739 bc60 3f39
00000230: a467 0039 f42a 0139 e094 ff38 fa5b f838
00000240: 595e 0039 6ad6 e638 cf39 d438 88f1 ce38
00000250: ed2e ca38 4173 d638
0.00025456812 0.00028239505 0.00030542281 0.00032256998 0.00034153348 0.00019639153 0.0002107945 0.00022208224
0.00022817536 0.00024353112 0.0001478169 0.00014945927 0.00015481215 0.00015013682 0.00015388303 0.000122032485
0.000106139276 0.00010515648 9.719432e-05 9.4902614e-05 0.00012284661 8.534465e-05 7.547033e-05 7.292093e-05
8.002087e-05 6.8077934e-05 5.496369e-05 6.0711704e-05 8.39865e-05 0.00012661466 4.834581e-05 3.5403897e-05
3.7206843e-05 5.1692365e-05 8.38787e-05 5.7892983e-05 4.7263627e-05 4.666719e-05 5.534052e-05 7.97008e-05
9.197455e-05 7.8559875e-05 7.347006e-05 7.985259e-05 0.00010360128 0.00015441104 0.00013119943 0.000116938805
0.000117477284 0.00013790859 0.0001925853 0.00013513949 0.0001012682 9.4912444e-05 0.0001230406 0.00016207046
0.00011054222 8.556807e-05 7.998768e-05 9.9051e-05 0.0001642129 0.000117007 9.9704106e-05 0.00010104317
0.00012024942 0.0001947855 0.00015156076 0.0001372508 0.0001437049 0.00016679948 0.0002487204 0.00021610528
0.0002023197 0.00020736556 0.00023012522 0.00030146365 0.00029068088 0.00027445707 0.00025915637 0.00024932186
0.00027605693 0.00025346965 0.00023217485 0.00021579544 0.00020126678 0.00024355494 0.00022058804 0.00020590909
0.000190642 0.00016630182 0.00022125783 0.00020771577 0.00020227769 0.00018674054 0.00015382006 0.00020003445
0.00019778556 0.00020218473 0.00019202036 0.00016389761 0.00012369022 0.000102908285 9.3727416e-05 9.174926e-05
0.00010033893 8.584097e-05 6.413455e-05 5.666974e-05 5.153265e-05 5.389502e-05 6.1847764e-05 4.5848614e-05
4.5455552e-05 4.1807893e-05 4.1055195e-05 5.2887226e-05 4.1415922e-05 4.6848e-05 4.9297476e-05 5.4721746e-05
6.61957e-05 5.407778e-05 5.920432e-05 6.749922e-05 8.553269e-05 0.00024591488 0.00028875587 0.0003222275
0.00034556197 0.00035067013 0.000191798 0.00021567657 0.00023527879 0.00025270673 0.0002636314 0.00015231386
0.00016318187 0.00016975004 0.00017488239 0.00018251216 0.0001224564 0.000123184 0.00012187078 0.000118426935
0.00012242178 0.000110071924 0.000101197154 9.867834e-05 9.640851e-05 0.00010225783

exp_avg f4 [6]
00000000: 17c3 e73b ad7a 5cbc 1c81 ba3b 2005 483c
00000010: 3573 1c3b 6f64 803b
0.007072817 -0.013456983 0.0056916606 0.012208253 0.002387238 0.0039182226

exp_avg_sq f4 [6]
00000000: b268 f538 748c 4f38 3fb4 9738 c582 2a39
00000010: d4f9 6638 9857 e938
0.000117020114 4.9483453e-05 7.2338145e-05 0.00016261179 5.5068944e-05 0.000111266214
