weights/weight_after_step20_0.pth (torch, 783165 bytes, 30 tensors)

conv1.weight f4 [6, 1, 5, 5]
0.15499954 -0.05950739 -0.091919765 0.09948869 0.095779836 0.12379759 0.00050589244 -0.17736937
-0.10880172 0.13750172 -0.056280438 -0.033851765 -0.20960999 0.059747558 -0.20406355 0.05309448
-0.11150732 -0.13506095 -0.08265396 -0.03789366 -0.20090678 -0.1835788 -0.107546136 0.012711379
-0.024662482 -0.021194965 -0.11020693 -0.082405135 -0.05729814 -0.0017976847 -0.003704232 -0.18506083
-0.14312556 -0.16642295 0.01487432 -0.18475403 0.0200844 0.06803442 0.17163141 0.07219835
-0.025064107 -0.15313505 -0.2077575 0.013331873 0.018236589 0.11897965 0.120105475 -0.15992653
0.021096623 -0.10763207 0.09947253 0.1868397 0.16835152 0.11770146 0.12124852 -0.16706847
0.16901053 -0.09413191 0.05154143 0.16658765 0.16611925 -0.0067719216 0.042422246 0.16728307
-0.059654836 0.08274579 -0.123683244 0.17119145 0.16517726 0.1559006 -0.1909646 0.02481197
0.079010144 0.004703634 -0.080313906 -0.01674899 0.09909051 -0.114722736 0.1691566 0.0013873124
0.19067606 0.04706301 0.094460346 -0.14661278 -0.1439352 -0.010364883 -0.04622129 -0.17432354
0.15465498 -0.019611694 0.18319511 -0.13796149 -0.18454835 0.14466015 -0.18681926 -0.15442434
0.045594092 -0.048382305 0.037781816 0.012832135 0.0060758283 0.09581493 -0.10441623 0.16178016
-0.12121543 -0.021601753 -0.20114912 -0.21463887 -0.0117665725 0.04663442 -0.16968817 0.16980366
-0.04855701 0.08536671 -0.14509249 0.16853994 0.1622667 0.08258448 -0.051292587 -0.17244567
-0.16854167 -0.08907039 -0.20008741 -0.008600105 0.13724613 -0.18179135 -0.15458734 0.032051105
-0.044503715 -0.19186018 0.20217755 0.12376765 -0.0090186475 -0.016430084 0.14269376 0.013110611
0.06726083 -0.059508666 0.028282573 0.1402277 0.050107673 0.0053066504 0.10024157 0.19733088
0.051642694 0.15406632 0.0777821 -0.0880072 -0.08794545 -0.019416623
00000000: 33b8 1e3e 05be 73bd 6e40 bcbd bac0 cb3d
00000010: 3828 c43d 9789 fd3d de9d 043a 51a0 35be
00000020: 70d3 debd 40cd 0c3e 5186 66bd 26a8 0abd
00000030: 00a4 56be dbb9 743d 09f6 50be 9979 593d
00000040: f35d e4bd 6b4d 0abe 7b46 a9bd 6236 1bbd
00000050: 82ba 4dbe 15fc 3bbe 2641 dcbd 6343 503c
00000060: f908 cabc 10a1 adbc 2cb4 e1bd 06c4 a8bd
00000070: 74b1 6abd 4aa0 ebba b3c2 72bb 9680 3dbe
00000080: 828f 12be c76a 2abe 6bb3 733c 2930 3dbe
00000090: 0a88 a43c a155 8b3d 25c0 2f3e bbdc 933d
000000a0: 3e53 cdbc 6fcf 1cbe 62be 54be ee6d 5a3c
000000b0: e664 953c 9aab f33d dcf9 f53d c8c3 23be
000000c0: d3d2 ac3c 346e dcbd 41b8 cb3d e852 3f3e
000000d0: 5764 2c3e 770d f13d 2551 f83d ff13 2bbe
000000e0: 1911 2d3e 3bc8 c0bd 1b1d 533d f495 2a3e
000000f0: 2a1b 2a3e ffe6 ddbb f3c2 2d3d 414c 2b3e
00000100: a158 74bd a076 a93d a44d fdbd d04c 2f3e
00000110: 3a24 293e 68a4 1f3e 398c 43be 7942 cb3c
00000120: 12d0 a13d f120 9a3b 9e7b a4bd 2e35 89bc
00000130: f7ef ca3d c1f3 eabd 6337 2d3e 7bd6 b53a
00000140: 9640 433e 25c5 403d 6d74 c13d a921 16be
00000150: c063 13be 78d1 29bc 8952 3dbd df81 32be
00000160: e05d 1e3e b4a8 a0bc 8097 3b3e c745 0dbe
00000170: 3efa 3cbe ca21 143e 8c4d 3fbe 6a21 1ebe
00000180: dfc0 3a3d 862c 46bd 1bc1 1a3d e03d 523c
00000190: be17 c73b 9e3a c43d 2dd8 d5bd b3a9 253e
000001a0: cc3f f8bd 29f6 b0bc 09fa 4dbe 4bca 5bbe
000001b0: 95c8 40bc bc03 3f3d bcc2 2dbe 03e1 2d3e
000001c0: b7e3 46bd bed4 ae3d 2093 14be bc95 2c3e
000001d0: 3e29 263e 0d22 a93d 2d18 52bd 9995 30be
000001e0: 3096 2cbe 896a b6bd b7e3 4cbe 74e7 0cbc
000001f0: 408a 0c3e 8327 3abe 254c 1ebe 0548 033d
00000200: 8749 36bd ff76 44be a207 4f3e e579 fd3d
00000210: f3c2 13bc 6298 86bc 501e 123e e3cd 563c
00000220: 0cc0 893d 5cbf 73bd dbb0 e73c da97 0f3e
00000230: b43d 4d3d 69e3 ad3b 744b cd3d 1b11 4a3e
00000240: 4a87 533d 90c3 1d3e 394c 9f3d 1e3d b4bd
00000250: be1c b4bd 9c0f 9fbc

conv1.bias f4 [6]
0.02700389 0.13659878 -0.073656164 0.052213527 -0.031023156 -0.17821883
00000000: 4337 dd3c 8de0 0b3e 0bd9 96bd dadd 553d
00000010: 4624 febc ff7e 36be

conv2.weight f4 [16, 6, 5, 5]
-0.026788801 0.0383802 -0.056552365 -0.013865112 -0.03863157 0.087297656 0.035393488 -0.023954054
0.014578042 0.0114029255 0.028790923 -0.02920128 0.053147595 0.044826493 0.0028113688 -0.04843529
0.07638292 0.013135852 0.04799875 -0.070449084 -0.006600653 0.062333595 0.015402282 0.041461624
-0.058338847 0.026400646 0.091110766 0.08184768 0.03816914 0.025989387 -0.04740947 0.00425533
-0.069862925 -0.011143433 -0.08537474 0.008232748 -0.010848688 0.02986423 -0.018507259 -0.06070794
0.031697 0.016361462 0.015639095 -0.086394094 -0.0973262 0.088784605 0.034985404 -0.0043636016
-0.09137373 -0.038816094 -0.032210458 0.033799138 -0.0780311 0.030391147 -0.052122377 -0.00324652
-0.003035628 -0.06979614 0.06481722 -0.037904833 -0.050584678 -0.06572411 -0.027795264 0.09510434
-0.04057294 0.02319015 0.048288267 0.033312973 0.101857424 0.099824496 -0.07513678 -0.042193133
0.098636985 0.08092935 -0.05568893 -0.021131312 0.00032254617 -0.054227173 -0.017870933 0.003831189
-0.004623141 -0.08507205 -0.098941945 0.020962676 -0.056944467 0.019394787 0.010838245 -0.0046787206
-0.026964473 -0.07168833 0.047332354 -0.06628564 0.020678855 -0.07185375 0.07142223 0.06834357
-0.035468277 -0.025070786 0.042335942 -0.041284427 -0.029383762 0.0022731246 0.0066340594 -0.077393055
-0.03965722 0.0127809 0.030689327 -0.04056649 -0.06810728 -0.060847823 0.051587347 -0.066104025
-0.054092538 0.0010954693 -0.05334537 -0.00633218 0.05611815 -0.04034101 -0.027500542 0.05291673
-0.04888111 -0.03678581 -0.09595434 -0.08853662 0.029626949 -0.012847136 -0.07276519 -0.02383865
-0.038339376 -0.04421553 -0.05616086 -0.026013693 0.03311031 -0.008783296 0.10118396 0.026192375
0.026238488 -0.0045360476 -0.043925922 -0.01112569 0.028029835 0.0250058 0.027430763 -0.029596137
-0.0028103972 0.0040487833 -0.038347688 0.0115405535 -0.034837894 0.0037540898 0.06007002 -0.015811004
0.039749395 0.03080617 0.037660908 -0.08891031 0.013166108 -0.053308822 0.015372187 0.037043903
-0.07453868 0.004205346 -0.08782914 -0.021465532 0.029359128 -0.043483507 0.06417176 -0.015637686
-0.012089696 -0.044370394 -0.026137978 0.06985057 0.021203317 -0.038367033 -0.06670153 0.009389736
0.07226841 -0.023033023 -0.034642726 0.025451628 0.018298948 0.050223164 0.039430343 0.07291463
-0.039811317 -0.057940353 0.04784847 0.016367896 -0.02127259 -0.0030033868 0.042320654 -0.089194424
-0.012002544 -0.06965875 -0.07254428 -0.014552289 -0.023886047 -0.017052952 0.052669875 -0.015357695
-0.085588336 0.023595752 -0.07743704 0.051518157 -0.076592825 -0.04035927 -0.03801674 0.06254702
0.014430026 -0.090683095 0.028719503 0.027385384 -0.02378646 -0.07839511 -0.066697024 0.05656475
0.00974212 -0.054344974 -0.04800209 0.0248187 0.057321075 -0.0525334 0.085092716 -0.011996449
-0.023842467 -0.05666873 -0.00092629367 0.06800295 0.071005106 0.027372 -0.034129184 0.00786001
0.047321156 0.034250595 0.020470398 -0.06792183 -0.07822602 -0.07800697 -0.045135837 0.028728154
0.04387977 0.06917022 0.078066155 -0.06975602 0.011844656 0.08367068 0.051727492 -0.0017585973
0.07404543 0.06949788 0.058379415 0.07732999 0.040961266 -0.00024173287 0.09004759 -0.006322075
00000000: 3074 dbbc 8e34 1d3d 74a3 67bd 7f2a 63bc
00000010: 233c 1ebd 1dc9 b23d c3f8 103d 4b3b c4bc
00000020: bdd8 6e3c 56d3 3a3c f1da eb3c 8637 efbc
00000030: 4bb1 593d fc9b 373d f13e 383b 1564 46bd
00000040: a66e 9c3d c237 573c 569a 443d 9c47 90bd
00000050: 4a4a d8bb 8351 7f3d da59 7c3c aad3 293d
00000060: b7f4 6ebd 2b46 d83c 4898 ba3d c29f a73d
00000070: 3f57 1c3d b2e7 d43c 6f30 42bd 4c70 8b3b
00000080: 4b14 8fbd f292 36bc f4d8 aebd a6e2 063c
00000090: b2be 31bc d4a5 f43c 899c 97bc e4a8 78bd
000000a0: b7d4 013d 7908 863c 8f1d 803c 63ef b0bd
000000b0: f552 c7bd b4d4 b53d db4c 0f3d 8bfc 8ebb
000000c0: 2622 bbbd a0fd 1ebd 1def 03bd f770 0a3d
000000d0: c5ce 9fbd dbf6 f83c 467e 55bd 91c3 54bb
000000e0: 63f1 46bb 47f1 8ebd e4be 843d 1942 1bbd
000000f0: e131 4fbd 5d9a 86bd e5b2 e3bc 10c6 c23d
00000100: d02f 26bd 45f9 bd3c ebc9 453d 2f73 083d
00000110: a09a d03d c970 cc3d 50e1 99bd b5d2 2cbd
00000120: 3002 ca3d 49be a53d 131a 64bd 931b adbc
00000130: 6a1b a939 501d 5ebd 1066 92bc af14 7b3b
00000140: b87d 97bb 413a aebd 13a2 cabd ebb9 ab3c
00000150: 9a3e 69bd d1e1 9e3c e592 313c f44f 99bb
00000160: 99e4 dcbc 55d1 92bd 92df 413d c4c0 87bd
00000170: b466 a93c 0f28 93bd d145 923d b7f7 8b3d
00000180: 2f47 11bd 4061 cdbc 7468 2d3d dc19 29bd
00000190: 37b6 f0bc b4f8 143b 8662 d93b 4080 9ebd
000001a0: 9c6f 22bd fb66 513c 2f68 fb3c 0c29 26bd
000001b0: d47b 8bbd 913b 79bd 414d 533d 8c61 87bd
000001c0: 2390 5dbd da95 8f3a ad80 5abd 2d7e cfbb
000001d0: 25dc 653d 9d3c 25bd d148 e1bc 37bf 583d
000001e0: 8f37 48bd b8ac 16bd b683 c4bd b052 b5bd
000001f0: 37b4 f23c cb7c 52bc ea05 95bd 4649 c3bc
00000200: c009 1dbd 581b 35bd ee08 66bd ab1a d5bc
00000210: ad9e 073d d0e7 0fbc 8939 cf3d 6491 d63c
00000220: 19f2 d63c 20a3 94bb abeb 33bd 8748 36bc
00000230: d39e e53c f7d8 cc3c 7bb6 e03c 9973 f2bc
00000240: a42e 38bb a8ab 843b 7712 1dbd 9714 3d3c
00000250: 2eb2 0ebd 2d07 763b fb0b 763d 1486 81bc
00000260: 43d0 223d 395d fc3c 5342 1a3d 9c16 b6bd
00000270: a9b6 573c 5a5a 5abd a0db 7b3c 59bb 173d
00000280: bca7 98bd 00cd 893b c4df b3bd 7cd8 afbc
00000290: 8e82 f03c c31b 32bd 7c6c 833d 9b1a 80bc
000002a0: dc13 46bc bbbd 35bd 501f d6bc d10d 8f3d
000002b0: 94b2 ad3c c026 1dbd d09a 88bd 68d7 193c
000002c0: 7601 943d c0af bcbc 88e5 0dbd ef7f d03c
000002d0: ade7 953c ceb6 4d3d b681 213d 4454 953d
000002e0: 3111 23bd dd52 6dbd c2fc 433d f715 863c
000002f0: db43 aebc 78d4 44bb 6c58 2d3d 91ab b6bd
00000300: 51a6 44bc 3fa9 8ebd 1892 94bd b96c 6ebc
00000310: acac c3bc a2b2 8bbc 5ebc 573d d79e 7bbc
00000320: f048 afbd e14b c13c 5097 9ebd b404 533d
00000330: b3dc 9cbd c34f 25bd 71b7 1bbd a718 803d
00000340: ea6b 6c3c 0fb8 b9bd 2a45 eb3c 5057 e03c
00000350: d2db c2bc 9e8d a0bd 7398 88bd 70b0 673d
00000360: 6a9d 1f3c d698 5ebd d79d 44bd 9650 cb3c
00000370: 81c9 6a3d 432d 57bd 1745 ae3d c18c 44bc
00000380: 4751 c3bc 781d 68bd 84d2 72ba 2145 8b3d
00000390: 206b 913d 3f3b e03c 0bcb 0bbd 45c7 003c
000003a0: d4d3 413d 5a4a 0c3d 89b1 a73c 9a1a 8bbd
000003b0: f734 a0bd 1ec2 9fbd 5be0 38bd 4e57 eb3c
000003c0: 46bb 333d 1ea9 8d3d 26e1 9f3d 3fdc 8ebd
000003d0: 1710 423c 895b ab3d 35e0 533d bc80 e6ba
000003e0: 21a5 973d e854 8e3d 411f 6f3d 305f 9e3d
000003f0: 00c7 273d ac79 7db9 df6a b83d 6929 cfbb

conv2.bias f4 [16]
0.06345231 -0.019893313 -0.02634796 0.08719117 -0.068056874 0.05201407 0.021098467 0.043872423
0.075695075 0.042121306 -0.05746616 0.08010826 0.091927566 0.024526758 0.054488096 -0.05121884
00000000: 49f3 813d 4df7 a2bc add7 d7bc 4991 b23d
00000010: 6761 8bbd b50c 553d b1d6 ac3c 92b3 333d
00000020: 0506 9b3d 6487 2c3d a361 6bbd cd0f a43d
00000030: 8544 bc3d 57ec c83c e92e 5f3d d9ca 51bd

conv3.weight f4 [120, 16, 5, 5]
-0.0029335164 0.040012818 0.0048394585 -0.03250526 -0.0058083236 0.024109537 0.02240631 0.00691186
-0.011904325 -0.01970766 0.039653044 -0.034228105 -0.060429383 0.037581317 -0.03335337 0.020541234
-0.06252827 -0.04001932 -0.010410478 0.027004547 0.019911647 -0.009042505 0.040981106 -0.011003254
0.011128621 -0.043967105 0.021783704 -0.008581216 -0.0044259354 0.0017256305 0.01342738 0.023263937
-0.015478911 -0.0459072 -0.031978637 0.047817286 0.055547606 -0.028819613 -0.048501257 0.04562618
-0.044153795 0.011476559 0.0056441464 -0.0025495254 -0.06183862 -0.021996168 -0.017927136 0.050400726
0.058653083 -0.030292852 0.03870898 0.014323903 -0.004001322 0.0663358 0.05992792 0.026652161
-0.031224614 -0.0043497696 0.032042604 -0.04162695 0.006338699 0.044204406 0.043495428 -0.034956113
0.0507722 0.023962017 -0.0073180115 0.025280546 0.027911752 0.021785153 -0.01710684 -0.023127953
0.03703611 -0.045095645 0.0073368344 0.05274663 0.05122725 -0.0002898539 0.0087258555 0.011349077
-0.029522886 0.045296475 -0.0022358955 0.007272113 -0.0021004265 -0.041591946 0.001685005 0.026097711
0.019428488 0.046060223 -0.05483654 -0.058632582 -0.002565117 0.012454155 0.039060272 -0.019126507
-0.030949648 -0.002689443 0.053386886 0.0046362705 -0.030386172 0.014322188 0.0023368539 0.031701047
-0.03201849 -0.03885967 0.005573797 -0.056232225 -0.0034952639 0.00893972 0.03643481 -0.012165776
-0.02629947 -0.005342808 0.026764534 -0.012788285 -0.0043330854 0.058061555 0.0220481 -0.039392676
-0.0067572114 -0.0002764932 -0.021290734 -0.019819869 0.01575538 0.017737994 0.044010967 0.06002196
0.043251153 -0.0050163725 0.030571682 0.044343367 -0.03406709 -0.051706817 -0.049899615 0.015594943
-0.021416493 -0.051377308 -0.03521113 0.026527856 0.011320946 -0.0614476 -0.014508952 0.040736064
-0.0320643 -0.017670522 -0.024577888 0.0133298235 0.04257599 0.008870154 -0.022041641 -0.0054149614
0.04684743 0.027650451 0.027355094 -0.0055230907 0.053044233 -0.0435215 -0.024613943 0.023221757
0.006154279 0.039849542 -0.031624995 -0.041409686 0.039414525 0.00012877566 -0.011850308 -0.007911825
-0.05419774 -0.025147678 -0.031566594 -0.0052551385 -0.02306462 -0.0013504358 -0.00277192 0.013086051
-0.003187406 0.019864177 -0.017657598 -0.031202275 0.009390981 -0.046570122 -0.045742527 -0.04322578
0.030304976 -0.015283219 -0.030680537 0.012219589 0.032978367 0.034896433 0.050529294 0.04589304
0.053354483 0.05770977 -0.03151382 -0.020491378 -0.01380522 0.022826768 -0.0134027 -0.0041275956
0.0029201433 -0.044447564 0.03548149 0.02495624 0.027220394 0.018157003 -0.02670539 -0.06008161
-0.04726028 -0.00039820824 0.011647229 -0.014805403 -0.021570427 -0.014164697 -0.0020854294 -0.048550565
0.06079517 -0.0077896253 -0.05040215 0.034029115 -0.022136373 -0.0071485257 -0.00684831 -0.00018042303
-0.009978227 0.03828587 0.029046185 0.031913716 0.056423105 0.026785871 0.029831402 -0.04328186
0.021111805 -0.02883143 0.018974256 0.040545225 0.042022616 -0.047369998 -0.018389374 -0.02196209
0.013349859 0.036518026 0.0061520897 -0.008508578 -0.020932985 -0.032742474 -0.032455523 -0.02584681
0.025119977 -0.038780097 -0.019149322 0.008926693 0.038282856 -0.046355296 0.02183633 0.014851274
00000000: 3d40 40bb 7be4 233d 5294 9e3b 3c24 05bd
00000010: c053 bebb 5d81 c53c 708d b73c e27c e23b
00000020: 5c0a 43bc f571 a1bc 3b6b 223d c532 0cbd
00000030: cd84 77bd deee 193d 8b9d 08bd 1746 a83c
00000040: d20e 80bd 4ceb 23bd b690 2abc a438 dd3c
00000050: c01d a33c 0427 14bc cedb 273d fe46 34bc
00000060: d254 363c da16 34bd bd73 b23c 3b98 0cbc
00000070: 7007 91bb 8d2e e23a 83fe 5b3c 0394 be3c
00000080: 429b 7dbc 3009 3cbd 08fc 02bd 0fdc 433d
00000090: e385 633d 1c17 ecbc 41a9 46bd 84e2 3a3d
000000a0: 9cda 34bd 2d08 3c3c 88f2 b83b f015 27bb
000000b0: 7e4a 7dbd 4f31 b4bc eedb 92bc fe70 4e3d
000000c0: 373e 703d b728 f8bc 4f8d 1e3d ceae 6a3c
000000d0: 861d 83bb 10db 873d fb76 753d a255 da3c
000000e0: c3ca ffbc 8388 8ebb 1b3f 033d 0581 2abd
000000f0: dcb4 cf3b ae0f 353d 4328 323d 242e 0fbd
00000100: 83f6 4f3d fe4b c43c eecb efbb 2619 cf3c
00000110: 30a7 e43c c776 b23c a523 8cbc d576 bdbc
00000120: 2db3 173d 36b6 38bd d469 f03b da0c 583d
00000130: aad3 513d 88f7 97b9 e4f6 0e3c 7bf1 393c
00000140: fbd9 f1bc cc88 393d 1a88 12bb e84a ee3b
00000150: 4fa7 09bb 515c 2abd 63db dc3a deca d53c
00000160: 7e28 9f3c a5a9 3c3d 489c 60bd b828 70bd
00000170: 861b 28bb 830c 4c3c aafd 1f3d 31af 9cbc
00000180: 1e8a fdbc 5e41 30bb 35ac 5a3d dbeb 973b
00000190: 6cec f8bc 9ca7 6a3c e725 193b f5d8 013d
000001a0: d225 03bd 512b 1fbd 66a4 b63b c353 66bd
000001b0: cc10 65bb e777 123c ab3c 153d f752 47bc
000001c0: fc71 d7bc b912 afbb 4c41 db3c f485 51bc
000001d0: 8efc 8dbb f4d1 6d3d 389e b43c 375a 21bd
000001e0: 996b ddbb 4af6 90b9 e869 aebc 475d a2bc
000001f0: 6d11 813c 454f 913c d844 343d 96d9 753d
00000200: 1f28 313d 6260 a4bb 7771 fa3c 64a1 353d
00000210: ef89 0bbd 87ca 53bd 8a63 4cbd ef81 7f3c
00000220: a471 afbc 0371 52bd 8c39 10bd f250 d93c
00000230: 7d7b 393c 7bb0 7bbd f5b6 6dbc dcda 263d
00000240: db55 03bd c5c1 90bc 9157 c9bc 5565 5a3c
00000250: 2964 2e3d 1f54 113c ac90 b4bc fd6f b1bb
00000260: 17e3 3f3d 3383 e23c ca17 e03c 0bfb b4bb
00000270: e944 593d 9a43 32bd 2ea3 c9bc 8e3b be3c
00000280: d6a9 c93b 4639 233d 3689 01bd 349d 29bd
00000290: 2071 213d f407 0739 cb27 42bc 99a0 01bc
000002a0: 73fe 5dbd 8102 cebc f94b 01bd 4c33 acbb
000002b0: 04f2 bcbc 1b01 b1ba 1aa9 35bb e066 563c
000002c0: cde3 50bb 33ba a23c aba6 90bc ea9b ffbc
000002d0: a1dc 193c 50c0 3ebd 845c 3bbd 840d 31bd
000002e0: 2442 f83c 7766 7abc c055 fbbc ac34 483c
000002f0: 5314 073d 90ef 0e3d cef7 4e3d 57fa 3b3d
00000300: 3b8a 5a3d 1461 6c3d a314 01bd 89dd a7bc
00000310: 4a2f 62bc 34ff ba3c 0097 5bbc c840 87bb
00000320: e05f 3f3b a60e 36bd 0a55 113d 0771 cc3c
00000330: 4efd de3c ffbd 943c 43c5 dabc 2218 76bd
00000340: ff93 41bd 9bc6 d0b9 05d4 3e3c 5c92 72bc
00000350: 77b4 b0bc 0c13 68bc b3ab 08bb f5dc 46bd
00000360: 5b04 793d 1d40 ffbb 7c72 4ebd 1d62 0b3d
00000370: 5757 b5bc 2e3e eabb ca67 e0bb f02f 3db9
00000380: b87b 23bc a5d1 1c3d 44f2 ed3c f5b7 023d
00000390: ea1b 673d 0b6e db3c fc60 f43c 5248 31bd
000003a0: aaf2 ac3c e42f ecbc e66f 9b3c c012 263d
000003b0: e81f 2c3d 0b07 42bd 50a5 96bc d7e9 b3bc
000003c0: 5eb9 5a3c ed93 153d 7897 c93b 9067 0bbc
000003d0: a77b abbc f91c 06bd 15f0 04bd b0bc d3bc
000003e0: 69c8 cd3c e1d7 1ebd 0adf 9cbc 4441 123c
000003f0: 7cce 1c3d 0ddf 3dbd 1ae2 b23c c252 733c

conv3.bias f4 [120]
-0.008002619 0.02919545 -0.043536995 -0.03624519 -0.004001994 -0.0013598106 0.03409082 -0.048866086
0.05133774 -0.014223778 -0.0061581032 -0.002855888 -0.021536795 0.018437702 -0.028631017 -0.0350052
0.008912268 0.057870433 -0.0078276135 -0.044100996 -0.048515785 0.008968649 -0.030671177 0.0051365956
0.033805232 -0.01606326 0.03151919 -0.0036207065 0.047321714 0.018278813 0.021616548 -0.03216123
-0.06551681 -0.022405926 -0.0417434 -0.030986823 0.04433898 -0.010273749 0.044254508 0.04411899
-0.026777681 0.008178692 -0.006937292 0.016290942 0.058495548 0.032426666 0.048237834 0.035705037
-0.0019907563 0.023530342 -0.02256387 0.034852777 0.015264862 -0.008594146 0.012291403 -0.035802223
-0.03696864 -0.0310582 -0.039426167 0.04948476 0.020739332 0.032111928 0.000915708 -0.040247742
0.030203005 -0.007887456 -0.01672414 0.008195432 -0.024621138 -0.051823515 -0.040499743 -0.0004535008
-0.006474913 -0.0011606994 -0.00204105 0.0018091972 0.04292071 -0.009378591 0.034946688 -0.035339206
-0.028913172 0.009399916 -0.010074055 -0.0016821759 0.023926852 0.009899863 -0.0247022 -0.048981655
0.011885731 0.027782014 -0.008674738 0.057679597 -0.0005920398 -0.030367486 0.0056325733 -0.030274298
-0.026577804 -0.031185195 0.0055728834 -0.04975957 -0.04008694 0.05113424 0.03516578 0.020757582
-0.0136592975 0.066858135 -0.049694702 -0.046531994 -0.0028515437 0.021305444 0.014488883 0.011539149
0.0043506073 -0.04544065 0.0098763695 -0.040593825 -0.0036882996 -0.029494673 -0.023341877 -0.0058251224
00000000: 6b1d 03bc 4c2b ef3c d953 32bd d675 14bd
00000010: 2923 83bb ac3b b2ba d1a2 0b3d ce27 48bd
00000020: 8647 523d d90a 69bc eac9 c9bb da29 3bbb
00000030: ef6d b0bc aa0a 973c 988b eabc 9d61 0fbd
00000040: c304 123c 8c09 6d3d 643f 00bc 3fa3 34bd
00000050: 7db8 46bd 3ef1 123c 1f42 fbbc e350 a83b
00000060: 5b77 0a3d 1997 83bc 441a 013d 6049 6dbb
00000070: 6ad4 413d 73bd 953c 3015 b13c 7ebb 03bd
00000080: ad2d 86bd a28c b7bc 21fb 2abd 14d8 fdbc
00000090: ca9c 353d 3a53 28bc 3744 353d 1db6 343d
000000a0: de5c dbbc ecff 053c 3952 e3bb 9574 853c
000000b0: 0799 6f3d d3d1 043d 0995 453d 723f 123d
000000c0: 5977 02bb b4c2 c03c ddd7 b8bc c9c1 0e3d
000000d0: 7919 7a3c 76ce 0cbc e161 493c 5aa5 12bd
000000e0: 6e6c 17bd c46d febc 557d 21bd 88b0 4a3d
000000f0: 88e5 a93c cc87 033d 200c 703a d1da 24bd
00000100: 4b6c f73c 633a 01bc 1001 89bc 2246 063c
00000110: 45b2 c9bc e544 54bd 0fe3 25bd d9c3 edb9
00000120: 822b d4bb 9c22 98ba 23c3 05bb 9622 ed3a
00000130: a0cd 2f3d a9a8 19bc 4224 0f3d d8bf 10bd
00000140: 51db ecbc 1b02 1a3c a60d 25bc 757c dcba
00000150: 3f02 c43c 0933 223c 455c cabc fda0 48bd
00000160: 5ebc 423c 1b97 e33c 7d20 0ebc 7141 6c3d
00000170: 1e33 1bba 3cc5 f8bc 7391 b83b ce01 f8bc
00000180: b2b9 d9bc 1878 ffbc bc9c b63b b1d0 4bbd
00000190: 3432 24bd 2372 513d fe09 103d ce0b aa3c
000001a0: 3fcb 5fbc ebec 883d ac8c 4bbd 5598 3ebd
000001b0: f7e0 3abb c188 ae3c c862 6d3c b30e 3d3c
000001c0: 8a8f 8e3b fa1f 3abd 7fd0 213c b645 26bd
000001d0: 66b7 71bb d09e f1bc 7737 bfbc abe0 bebb

linear.weight f4 [84, 120]
0.012732817 -0.074580796 -0.02568645 -0.024049733 -0.088401414 0.07840449 0.08260782 -0.025768848
0.09154411 -0.09165591 0.020473009 0.031705115 0.049150515 0.016256602 -0.08493793 -0.02195788
0.019695215 -0.0070539955 0.09166331 0.083656326 0.08422787 -0.09715867 -0.008042748 -0.058344573
-0.09063349 -0.026038803 -0.090143904 -0.08290461 -0.00042501732 -0.050728828 -0.10862816 -0.020030145
0.034211967 0.022670688 0.008290503 0.028890675 -0.0056950734 0.08571843 -0.033682436 0.017467344
-0.02662033 -0.084969945 0.05519706 0.07754727 -0.098012745 -0.014671542 0.039503053 0.00018505054
0.062673345 0.039512604 -0.025254328 0.0788797 -0.050053813 0.0043226937 -0.07307164 0.06621221
0.06319475 0.034630656 -0.040269047 -0.0008419287 0.04468306 -0.05240102 0.06433134 -0.06682677
0.0402168 -0.045087654 0.08583924 -0.06539472 0.06887487 0.08922285 -0.05749525 -0.07469934
-0.0925779 -0.07575577 -0.017538358 0.02942892 0.01112664 -0.065781415 -0.04518202 -0.059075918
-0.03371273 0.04531855 -0.03926898 -0.02564105 -0.063852966 -0.0472419 0.04905122 -0.07530389
-0.03679367 -0.06512995 0.027173027 -0.039250784 -0.036848363 -0.07550106 -0.025095085 0.009916784
0.083277084 -0.025332317 0.05548375 -0.035585813 -0.024487808 -0.0015805605 0.03227615 -0.054310646
-0.10489488 0.049807377 0.0443771 -0.05627908 -0.04819712 -0.010837816 -0.07588225 0.05042102
0.0828123 0.009395514 0.035521604 0.020581447 -0.023313666 0.07506695 -0.03851535 -0.006503748
-0.030316059 0.051658697 -0.039138008 -0.068375446 0.041064948 -0.0008768242 0.0022507785 -0.0027166873
-0.0052016806 -0.08947961 0.04901616 -0.07615178 0.00626128 -0.012190837 0.012500332 -0.012077554
0.04357504 0.02617927 0.047831647 0.053211395 -0.010477184 0.09420961 0.0012275074 -0.003807048
0.06083593 0.039143 -0.0015729424 -0.030457009 0.024160905 0.07881939 0.026959537 -0.022456868
0.034592986 0.041344464 -0.05113036 0.09224207 0.052159358 -0.079087235 -0.07194573 0.027473664
0.017854122 0.06224606 -0.09766194 -0.105596706 -0.061957795 -0.051129926 -0.044984184 -0.05058308
0.07260651 0.036940552 -0.014507656 -0.009957037 0.03663157 0.04640287 -0.07664118 0.082703374
0.097029425 0.00507314 -0.06055299 -0.10034023 -0.040184025 0.08623806 -0.017468514 0.08026888
0.08021404 -0.008441335 0.062293515 -0.07842402 0.0036450666 0.0816043 0.024724336 -0.06698308
-0.061732255 0.011595015 0.065888345 0.0681042 -0.033743188 -0.031233963 0.03355092 0.09996849
-0.047665328 0.005666083 -0.011402543 0.031804804 0.080000974 -0.079879336 0.003959619 0.053133473
-0.08322173 0.04479711 -0.06462797 0.026632234 -0.03329679 0.015692383 0.05088923 -0.05309966
0.012934705 0.07845485 -0.09645439 0.07017585 0.05482797 -0.09690165 0.07822766 -0.09166519
-0.047233112 -0.016756114 -0.07555121 0.03194202 0.08078811 -0.07429649 0.09745221 0.011235675
0.0043004346 -0.013993768 0.015249855 -0.04228258 -0.009702407 -0.094612986 0.009680116 0.038928356
-0.01230899 0.07313688 -0.0053871437 -0.053673014 0.013737117 0.04235465 -0.05133193 0.057548866
0.010204402 -0.023105986 -0.07876881 0.07181755 0.025076747 0.019368788 -0.0838733 0.05613518
00000000: 4e9d 503c d1bd 98bd 646c d2bc f203 c5bc
00000010: cd0b b5bd 8992 a03d 4a2e a93d 3119 d3bc
00000020: 7a7b bb3d 18b6 bbbd 03b7 a73c 39dd 013d
00000030: 0d52 493d 912c 853c f0f3 adbd 03e1 b3bc
00000040: dc57 a13c 3425 e7bb f9b9 bb3d 0254 ab3d
00000050: a97f ac3d 20fb c6bd bbc5 03bc b8fa 6ebd
00000060: 0d9e b9bd 544f d5bc 5e9d b8bd e4c9 a9bd
00000070: dcd4 deb9 08c9 4fbd 7178 debd 4216 a4bc
00000080: d921 0c3d e1b7 b93c e4d4 073c 23ac ec3c
00000090: bd9d babb 258d af3d 98f6 09bd ad17 8f3c
000000a0: e112 dabc b904 aebd 5016 623d 1ad1 9e3d
000000b0: e8ba c8bd e860 70bc f4cd 213d 200a 4239
000000c0: e25a 803d f8d7 213d 2ae2 cebc ae8b a13d
000000d0: 3a05 4dbd 62a5 8d3b 96a6 95bd 449a 873d
000000e0: 406c 813d e0d8 0d3d 28f1 24bd e1b4 5cba
000000f0: 9605 373d 74a2 56bd 26c0 833d 79dc 88bd
00000100: 5fba 243d d5ad 38bd 7ccc af3d abed 85bd
00000110: 450e 8d3d 78ba b63d 2480 6bbd f8fb 98bd
00000120: 7b99 bdbd d725 9bbd 9aac 8fbc eb14 f13c
00000130: 834c 363c 68b8 86bd c810 39bd 97f9 71bd
00000140: 5c16 0abd f29f 393d 83d8 20bd 2e0d d2bc
00000150: 58c5 82bd b980 41bd efe9 483d ed38 9abd
00000160: f6b4 16bd da62 85bd f899 de3c 6ec5 20bd
00000170: 4fee 16bd 4da0 9abd 3594 cdbc 027a 223c
00000180: 2d8d aa3d b885 cfbc ee42 633d 6ec2 11bd
00000190: a89a c8bc cf2a cfba ff33 043d d774 5ebd
000001a0: 20d3 d6bd d202 4c3d c3c4 353d e584 66bd
000001b0: 586a 45bd 1891 31bc 2768 9bbd 4586 4e3d
000001c0: 7f99 a93d a4ef 193c 1a7f 113d 6c9a a83c
000001d0: 4dfc bebc b3bc 993d 46c2 1dbd 641d d5bb
000001e0: 6259 f8bc 1298 533d 2d4f 20bd 6d08 8cbd
000001f0: b833 283d adda 65ba cc81 133b 730a 32bb
00000200: dc72 aabb 1641 b7bd 2bc5 483d 77f5 9bbd
00000210: 6c2b cd3b 14bc 47bc 31ce 4c3c efe0 45bc
00000220: be7b 323d e975 d63c 1eeb 433d 31f4 593d
00000230: 7fa8 2bbc f8f0 c03d 50e4 a03a ab7f 79bb
00000240: 192f 793d 6954 203d 302b ceba fa80 f9bc
00000250: 17ed c53c 0f6c a13d 3fda dc3c 77f7 b7bc
00000260: 60b1 0d3d d058 293d 126e 51bd 69e9 bc3d
00000270: 0da5 553d 7df8 a1bd 4858 93bd 7310 e13c
00000280: cf42 923c baf5 7e3d fc02 c8bd 1643 d8bd
00000290: 75c7 7dbd 9d6d 51bd 5641 38bd 3430 4fbd
000002a0: b9b2 943d fa4e 173d 85b1 6dbc d722 23bc
000002b0: fc0a 163d f010 3e3d 0df6 9cbd 6360 a93d
000002c0: 5db7 c63d 953c a63b 6906 78bd 2e7f cdbd
000002d0: 0198 24bd 949d b03d 211a 8fbc 0364 a43d
000002e0: 4247 a43d 864d 0abc 7c27 7f3d c69c a0bd
000002f0: 12e2 6e3b 2820 a73d b18a ca3c 6d2e 89bd
00000300: f6da 7cbd 05f9 3d3c 78f0 863d 377a 8b3d
00000310: 4c36 0abd 5ede ffbc b16c 093d 48bc cc3d
00000320: b83c 43bd 8daa b93b bbd1 3abc c145 023d
00000330: 8dd7 a33d c797 a3bd b1bf 813b 7ca2 593d
00000340: 2870 aabd 2d7d 373d ab5b 84bd d82b da3c
00000350: 3762 08bd 508d 803c 3a71 503d 077f 59bd
00000360: 16ec 533c f0ac a03d e189 c5bd 5bb8 8f3d
00000370: 4b93 603d 5f74 c6bd d335 a03d f6ba bbbd
00000380: 8277 41bd 1e44 89bc 98ba 9abd a3d5 023d
00000390: 3d74 a53d c228 98bd 0695 c73d d615 383c
000003a0: a9ea 8c3b 1e46 65bc 87da 793c 8030 2dbd
000003b0: d8f6 1ebc 74c4 c1bd 5999 1e3c 5773 1f3d
000003c0: a5ab 49bc cac8 953d a386 b0bb 3cd8 5bbd
000003d0: a511 613c 127c 2d3d 6e41 52bd 5cb8 6b3d
000003e0: 5d30 273c c448 bdbc 8b51 a1bd 1415 933d
000003f0: c06d cd3c 4bab 9e3c c4c5 abbd 01ee 653d

linear.bias f4 [84]
0.07208859 -0.04798796 -0.060975317 0.07363568 0.0062138606 -0.05955323 0.09035063 -0.044647604
-0.07456253 -0.04571977 0.07571916 0.011873321 -0.03380418 -0.07482849 0.071546175 -0.01472038
0.079076536 0.008342703 0.052664794 0.04290088 -0.05133063 0.057440802 -0.06120658 -0.08772041
0.0313485 0.055340275 0.034764614 -0.10598195 0.045364916 0.005066278 -0.04248399 0.027579973
0.091807306 -0.08004471 0.0021333594 0.016259646 0.096069194 -0.062918045 -0.07762989 0.05800514
0.084019996 -0.06586542 -0.05368803 -0.01867459 0.014258655 0.09189991 -0.010936078 -0.015870549
0.019369239 0.02503377 -0.07547358 -0.009422722 0.09063663 0.107449435 -0.0863734 -0.040107224
0.011400682 0.060253147 -0.0024964525 -0.06239687 0.048722893 0.052972913 -0.01701246 0.063480325
0.045786507 0.10264592 -0.10332502 -0.01265521 0.0383603 -0.06914615 0.005099572 -0.041893855
0.071191594 0.06774137 0.05495652 -0.07299343 -0.005492046 -0.075145856 0.060168058 0.003817458
0.042048328 0.0806549 -0.06660358 -0.03766153
00000000: 2fa3 933d 068f 44bd 41c1 79bd 4ece 963d
00000010: a49d cb3b 16ee 73bd c009 b93d 68e0 36bd
00000020: 3db4 98bd a744 3bbd a612 9b3d 5188 423c
00000030: 4076 0abd ae3f 99bd cd86 923d c02d 71bc
00000040: e1f2 a13d d5af 083c 0ab7 573d d5b8 2f3d
00000050: 1140 52bd 0c47 6b3d c0b3 7abd c2a6 b3bd
00000060: 4967 003d 7cac 623d 5765 0e3d 110d d9bd
00000070: 90d0 393d 0503 a63b b103 2ebd 65ef e13c
00000080: 7805 bc3d 7bee a3bd d5cf 0b3b f332 853c
00000090: edbf c43d 2ddb 80bd 6bfc 9ebd cc96 6d3d
000000a0: ad12 ac3d 73e4 86bd fbe7 5bbd 74fb 98bc
000000b0: 229d 693c 0536 bc3d 3c2d 33bc f402 82bc
000000c0: 3dac 9e3c 9f13 cd3c e491 9abd c361 1abc
000000d0: b39f b93d 730e dc3d 8ae4 b0bd 7947 24bd
000000e0: edc9 3a3c 01cc 763d 869b 23bb dc93 7fbd
000000f0: a891 473d 20fa 583d b75d 8bbc f901 823d
00000100: a28a 3b3d 0638 d23d 119c d3bd cc57 4fbc
00000110: b11f 1d3d 7f9c 8dbd 4f1a a73b e498 2bbd
00000120: e6cc 913d fdbb 8a3d 171a 613d 947d 95bd
00000130: 9ff6 b3bb 12e6 99bd c872 763d 512e 7a3b
00000140: de3a 2c3d 652e a53d 7567 88bd fa42 1abd

output.weight f4 [43, 84]
0.007281602 -0.018602008 0.070456766 -0.09243546 -0.048163686 0.085326366 0.06493001 -0.021938527
-0.004859357 0.037552617 -0.067562975 0.09230343 0.05507766 0.09125444 -0.011331348 0.07958768
0.0793882 0.07148194 -0.03475215 0.0199608 0.016220313 0.0635986 0.034157522 0.080268025
-0.088747405 -0.09703651 -0.07858425 0.014375778 -0.030789476 0.028467895 0.07573378 0.07234807
0.0016996433 -0.038375046 -0.08386953 -0.08859912 -0.05440221 -0.04076929 -0.044636644 -0.11570631
-0.057012603 0.1029385 -0.050054822 -0.0128616365 0.018387502 -0.011594988 0.040535733 -0.09277169
0.03686566 -0.120990835 -0.09505438 0.035675585 -0.114337154 0.054249123 -0.08977421 -0.01244799
-0.03388349 -0.056013737 0.10501526 -0.026761295 -0.01570937 -0.08312996 0.089173265 0.08960245
0.036901165 0.053755414 -0.029957736 -0.09779687 -0.056203358 0.060636457 0.050010268 0.015061526
0.0722656 -0.03934513 -0.03377837 0.017375493 -0.010553114 0.035905212 0.020637436 0.085927956
0.09679511 0.07886686 0.018188879 0.07196142 -0.10337103 -0.096764676 -0.02457238 0.10626689
-0.028034888 -0.012830271 -0.10270372 0.086439215 -0.10295084 0.086769916 -0.065776885 0.03765195
-0.01396334 0.040186167 -0.07893995 0.07644167 -0.07461713 0.07069309 -0.014975067 -0.032390144
0.08862557 -0.037610006 -0.08109262 -0.07988693 -0.103169456 -0.007001748 0.06768388 -0.048037667
-0.05763337 0.10267961 -0.009904526 0.021884026 0.070060745 0.034754224 -0.07922526 0.10790465
-0.09810836 -0.09406502 0.056605577 0.11447999 -0.08289621 -0.11823427 -0.053039555 0.009051181
-0.09532495 -0.11879181 -0.059500035 0.081528805 -0.07243829 0.022581935 0.0011388327 0.032304082
-0.10582227 0.0074082282 -0.03697712 -0.0028046055 0.02117117 0.024257058 0.08079407 -0.06368935
-0.104653694 0.0944027 0.118044026 -0.012085249 0.032549873 -0.07042306 0.022013808 0.014468404
0.07238425 0.011604856 -0.026805768 0.007970171 0.099600665 0.08076842 -0.08068018 0.012170181
-0.056786947 0.020781085 -0.00027281616 0.08310505 -0.02908455 0.011629473 0.0046468037 0.045240812
-0.029855257 0.09440824 -0.07137636 -0.014005054 -0.07297204 0.036907997 0.101422206 -0.054299805
-0.03727739 0.047504764 -0.0073330253 0.0012476825 -0.085439146 -0.06257115 -0.005565747 -0.094317
-0.04877322 -0.047731116 -0.03654592 -0.09254913 0.09539747 0.020177292 -0.013951962 0.080240116
0.026103357 0.05247599 -0.07724618 -0.088964485 0.0405584 0.07558793 -0.08567489 0.062455628
-0.083191425 -0.08300726 -0.07283491 -0.0057394262 -0.012785106 -0.07527107 -0.09792288 0.08781545
-0.08928676 -0.04573585 -0.018471625 0.006378147 -0.041447412 -0.0031152624 0.010033374 -0.106505275
0.03904901 0.0907736 -0.058919523 -0.026507195 -0.08645951 0.046154965 -0.07850977 0.008543763
-0.06057037 -0.06733692 0.05522042 0.07156348 -0.064418785 -0.06654709 0.021944059 0.116393246
0.018468788 0.08979189 -0.0053029903 -0.10154189 0.08793455 -0.081829995 -0.0743728 0.10209475
0.045548733 -0.052152157 0.10994756 0.016301757 -0.06787348 0.060180113 -0.009984482 0.053941064
-0.005863814 0.09508825 -0.11642328 -0.030849604 0.049613062 -0.08354351 0.09379122 0.10143174
00000000: 819a ee3b 3d63 98bc a34b 903d cd4e bdbd
00000010: 4947 45bd 97bf ae3d 06fa 843d 6db8 b3bc
00000020: 3e3b 9fbb c6d0 193d 755e 8abd 9509 bd3d
00000030: 1d99 613d 9ce3 ba3d 1ea7 39bc defe a23d
00000040: 4896 a23d 2065 923d 4558 0ebd d584 a33c
00000050: 76e0 843c fc3f 823d c2e8 0b3d 9063 a43d
00000060: 33c1 b5bd 14bb c6bd c7f0 a0bd 6288 6b3c
00000070: 363a fcbc 8135 e93c 501a 9b3d 3a2b 943d
00000080: 91c6 de3a 272f 1dbd cac3 abbd 7573 b5bd
00000090: dad4 5ebd b3fd 26bd ead4 36bd 6ef7 ecbd
000000a0: 0c86 69bd 6cd1 d23d 4906 4dbd 9db9 52bc
000000b0: 63a1 963c e8f8 3dbc cc08 263d 15ff bdbd
000000c0: 7200 173d 0bca f7bd dfab c2bd 9020 123d
000000d0: 9929 eabd 5434 5e3d 8adb b7bd a7f2 4bbc
000000e0: 6ac9 0abd a96e 65bd 3e12 d73d 813a dbbc
000000f0: f0b0 80bc 0a40 aabd 79a0 b63d 7d81 b73d
00000100: ad25 173d a32e 5c3d ed69 f5bc ba49 c8bd
00000110: 7e35 66bd ef5d 783d 91d7 4c3d 9ec4 763c
00000120: fdff 933d 5c28 21bd 305b 0abd 0d57 8e3c
00000130: f8e6 2cbc 5811 133d d70f a93c fffa af3d
00000140: 843c c63d f384 a13d d800 953c 8260 933d
00000150: 31b4 d3bd 8f2c c6bd 044c c9bc 75a2 d93d
00000160: 6ca9 e5bc 0f36 52bc 5456 d2bd 0b07 b13d
00000170: e4d7 d2bd 6db4 b13d 08b6 86bd ee38 1a3d
00000180: 7ec6 64bc 409a 243d 45ab a1bd 738d 9c3d
00000190: ded0 98bd 8ac7 903d fc59 75bc 87ab 04bd
000001a0: 5381 b53d f30c 1abd e313 a6bd c29b a3bd
000001b0: 824a d3bd eb6e e5bb d99d 8a3d 25c3 44bd
000001c0: f810 6cbd b049 d23d 9846 22bc 2146 b33c
000001d0: 027c 8f3d 725a 0e3d da40 a2bd 1dfd dc3d
000001e0: 09ed c8bd 29a5 c0bd 40db 673d 7c74 ea3d
000001f0: 7dc5 a9bd cf24 f2bd 0140 59bd 684b 143c
00000200: ba39 c3bd 1f49 f3bd 4fb6 73bd 93f8 a63d
00000210: 875a 94bd c0fd b83c e244 953a 4951 043d
00000220: 59b9 d8bd b9c0 f23b 5275 17bd 79cd 37bb
00000230: 296f ad3c bdb6 c63c 5d77 a53d 906f 82bd
00000240: ad54 d6bd 3456 c13d 11c1 f13d 3501 46bc
00000250: 0453 053d f739 90bd 4d56 b43c e30c 6d3c
00000260: 323e 943d 4b22 3e3c c597 dbbc 5295 023c
00000270: 6ffb cb3d ea69 a53d a63b a5bd 7065 473c
00000280: 6e99 68bd 183d aa3c c408 8fb9 fb32 aa3d
00000290: b942 eebc 8c89 3e3c 3744 983b 6e4e 393d
000002a0: 0393 f4bc 1b59 c13d c52d 92bd 7475 65bc
000002b0: 5d72 95bd d72c 173d 72b6 cf3d 7969 5ebd
000002c0: 2db0 18bd 5b94 423d e049 f0bb 4789 a33a
000002d0: b8fa aebd 4e25 80bd df60 b6bb 4529 c1bd
000002e0: 6ec6 47bd b481 43bd 2db1 15bd 668a bdbd
000002f0: c05f c33d d94a a53c c596 64bc ee54 a43d
00000300: b5d6 d53c 10f1 563d 3f33 9ebd 0333 b6bd
00000310: 9120 263d d8cd 9a3d 5176 afbd 79d1 7f3d
00000320: 4460 aabd b6ff a9bd 782a 95bd cc11 bcbb
00000330: 9f78 51bc b827 9abd ca8b c8bd 96d8 b33d
00000340: fadb b6bd 8455 3bbd ce51 97bc c6ff d03b
00000350: c3c4 29bd 6e29 4cbb 0563 243c 701f dabd
00000360: dbf1 1f3d 82e7 b93d 9955 71bd 9e25 d9bc
00000370: af11 b1bd fd0c 3d3d bbc9 a0bd 24fb 0b3c
00000380: a318 78bd f0e7 89bd cf2e 623d e08f 923d
00000390: ffed 83bd d749 88bd 07c4 b33c 955f ee3d
000003a0: db4b 973c cfe4 b73d b5c4 adbb 32f5 cfbd
000003b0: 0817 b43d 7c96 a7bd c450 98bd 0d17 d13d
000003c0: 4f91 3a3d 809d 55bd 302c e13d 438b 853c
000003d0: 4001 8bbd 6c7f 763d f495 23bc 4ef1 5c3d
000003e0: 3d25 c0bb a1bd c23d 546f eebd 4fb8 fcbc
000003f0: 1137 4b3d dc18 abbd 9c15 c03d 72bb cf3d

output.bias f4 [43]
-0.10619909 -0.06531923 0.086912476 -0.03383756 0.108710766 0.008067357 0.09836897 0.017165523
-0.03699348 -0.009477836 0.035953954 -0.09364678 0.030707158 0.04110248 0.026833324 0.0053278366
0.07040392 -0.015820563 0.027074784 -0.02932803 -0.04325624 0.042492114 -0.051773645 0.047449693
-0.07662434 0.00026117175 0.008462316 -0.03880232 -0.05478732 -0.10834719 -0.091020346 0.017847506
0.050623972 -0.007625704 0.054948684 0.0743794 0.08577612 0.0689791 0.0053296993 0.06903609
-0.049693752 -0.028213121 0.08382585
00000000: e97e d9bd 17c6 85bd 2bff b13d 4199 0abd
00000010: c0a3 de3d f32c 043c ac75 c93d b69e 8c3c
00000020: 7a86 17bd ed48 1bbc 7444 133d e2c9 bfbd
00000030: 948d fb3c 135b 283d 8fd1 db3c 2295 ae3b
00000040: ee2f 903d 209a 81bc f0cb dd3c 5641 f0bc
00000050: 752d 31bd 360c 2e3d 9a10 54bd 9c5a 423d
00000060: 39ed 9cbd e1ed 8839 87a5 0a3c 2eef 1ebd
00000070: ab68 60bd 22e5 ddbd e068 babd ef34 923c
00000080: 155b 4f3d 0be1 f9bb df11 613d 3a54 983d
00000090: 64ab af3d ea44 8d3d c2a4 ae3b cb62 8d3d
000000a0: ad8b 4bbd 341f e7bc e3ac ab3d

exp_avg f4 [6, 1, 5, 5]
-0.005849281 -0.004620103 -0.0042274278 -0.0046015396 -0.006374479 0.0009088184 0.0030452223 0.0039293184
0.0030851227 -7.931875e-05 0.007346694 0.0102948155 0.011504598 0.009970006 0.0054294094 0.012314634
0.015722735 0.016796641 0.0145713445 0.009302506 0.014033729 0.017335169 0.017909689 0.015242666
0.010135438 0.0108786905 0.012602765 0.0118755195 0.008884908 0.0048248 0.014835533 0.016798165
0.01606171 0.01279813 0.008225171 0.015746875 0.01763677 0.016937198 0.013769803 0.009192049
0.013372952 0.014979174 0.014324575 0.011496864 0.0074099707 0.008411852 0.009628523 0.009068171
0.0067682248 0.0035256995 0.0024279861 -0.005972678 -0.012350641 -0.014023653 -0.010587392 0.0011580123
-0.007891231 -0.014672393 -0.016318962 -0.012304312 0.0015273893 -0.0068620704 -0.012892537 -0.014208185
-0.010345868 0.0038930776 -0.0026631493 -0.0071796956 -0.008203994 -0.0052436795 0.008108061 0.0039761853
0.0010316654 0.000113685994 0.0018307769 -0.011592349 -0.007300259 -0.0034188756 -0.0014434021 -0.0017371459
-0.006801561 -0.0013005992 0.0036107786 0.0062817014 0.006059321 0.00089434243 0.0071548303 0.012772937
0.015953768 0.015671436 0.008117242 0.014840852 0.020866478 0.02424423 0.023694694 0.012079885
0.018772297 0.024632448 0.027744012 0.026842998 0.010563901 0.015800307 0.019122945 0.018986907
0.015212437 0.015563242 0.022203676 0.026156403 0.025762703 0.020810425 0.018985368 0.026581915
0.030902822 0.03032825 0.024670433 0.01929661 0.027018113 0.03125353 0.030595282 0.024867684
0.015912859 0.022887599 0.026612233 0.025880693 0.02057908 0.00081419526 0.0019351293 0.0024765034
0.0029721297 0.0039047874 -0.009400981 -0.0082744025 -0.006518781 -0.0039690034 -0.0009090911 -0.018938037
-0.017847287 -0.014883424 -0.010293685 -0.0052499683 -0.025084477 -0.024173412 -0.020320874 -0.014226248
-0.007748198 -0.026790718 -0.026317557 -0.022183605 -0.015452767 -0.008289376
00000000: 53ab bfbb 3c64 97bb 3c86 8abb 83c8 96bb
00000010: 01e1 d0bb c53d 6e3a 5a92 473b 83c1 803b
00000020: c52f 4a3b ee57 a6b8 89bc f03b 96ab 283c
00000030: c87d 3c3c 3c59 233c 30e9 b13b 52c3 493c
00000040: f7cc 803c 1c99 893c a6bc 6e3c 8a69 183c
00000050: baed 653c 7c02 8e3c 57b7 923c 60bc 793c
00000060: 1c0f 263c 893c 323c d47b 4e3c 8a91 423c
00000070: 0192 113c 5b19 9e3b bc10 733c 4e9c 893c
00000080: d993 833c 3faf 513c dec2 063c 97ff 803c
00000090: fd7a 903c e1bf 8a3c bd9a 613c 3f9a 163c
000000a0: 3a1a 5b3c 366b 753c 9fb1 6a3c 585d 3c3c
000000b0: 57cf f23b ddd1 093c f4c0 1d3c aa92 143c
000000c0: fcc7 dd3b 6c0f 673b d91e 1f3b 74b6 c3bb
000000d0: 585a 4abc 77c3 65bc be76 2dbc 72c8 973a
000000e0: 394a 01bc 7a64 70bc 58af 85bc 0698 49bc
000000f0: ae32 c83a 38db e0bb 383b 53bc 72c9 68bc
00000100: b781 29bc 0123 7f3b 3b88 2ebb a743 ebbb
00000110: 0b6a 06bc 2cd3 abbb acd7 043c a94a 823b
00000120: f238 873a b46a ee38 aef6 ef3a d6ed 3dbc
00000130: 0337 efbb 370f 60bb 8a30 bdba f2b0 e3ba
00000140: a1df debb de78 aaba d0a2 6c3b bbd6 cd3b
00000150: 458d c63b 4e72 6a3a 1173 ea3b 9545 513c
00000160: 7ab1 823c 6261 803c 2efe 043c 0b27 733c
00000170: 2df0 aa3c d69b c63c 601b c23c b6ea 453c
00000180: 5cc8 993c fdc9 c93c 6947 e33c d9e5 db3c
00000190: 3614 2d3c a56f 813c b9a7 9c3c 6e8a 9b3c
000001a0: 963d 793c f8fc 7e3c 7ce4 b53c f445 d63c
000001b0: 4e0c d33c a07a aa3c 3487 9b3c 51c2 d93c
000001c0: ea27 fd3c f372 f83c a619 ca3c ed13 9e3c
000001d0: 1755 dd3c b403 003d f5a2 fa3c 50b7 cb3c
000001e0: af5b 823c c67e bb3c e601 da3c bf03 d43c
000001f0: 7595 a83c b86f 553a 2aa4 fd3a d54c 223b
00000200: 10c8 423b 76e7 7f3b 9206 1abc 5c91 07bc
00000210: 809b d5bb 6a0e 82bb 1250 6eba f123 9bbc
00000220: 7934 92bc 9bd9 73bc d8a6 28bc ed07 acbb
00000230: f67d cdbc 5207 c6bc f677 a6bc 3515 69bc
00000240: 99e4 fdbb 3578 dbbc eb97 d7bc 64ba b5bc
00000250: 9a2d 7dbc 2ad0 07bc

exp_avg_sq f4 [6, 1, 5, 5]
2.4354986e-06 1.8439722e-06 1.5105318e-06 1.3497006e-06 1.703039e-06 1.6991637e-06 1.5964731e-06 1.4849485e-06
1.1022755e-06 7.483635e-07 2.9000878e-06 3.8454173e-06 4.2571205e-06 3.301104e-06 1.5867657e-06 5.2360433e-06
7.2597218e-06 7.94044e-06 6.2241525e-06 3.2687087e-06 6.6087723e-06 8.9194855e-06 9.307204e-06 7.158512e-06
4.0617324e-06 3.5158996e-06 4.4932335e-06 4.1895905e-06 2.842305e-06 1.6678983e-06 5.8900564e-06 7.4165614e-06
6.9934213e-06 4.8983516e-06 2.725995e-06 6.940673e-06 8.481878e-06 7.9804795e-06 5.7278667e-06 3.1983793e-06
5.7899642e-06 6.918375e-06 6.4480237e-06 4.6363157e-06 2.6088574e-06 3.4111242e-06 4.040665e-06 3.7512336e-06
2.7193432e-06 1.6625484e-06 8.953368e-07 1.9897186e-06 5.4531315e-06 7.0618007e-06 5.1163165e-06 7.603891e-07
2.7682154e-06 7.2735884e-06 9.216449e-06 6.6185034e-06 9.969253e-07 2.7731237e-06 6.4835244e-06 8.056911e-06
5.933064e-06 1.5264537e-06 2.033044e-06 3.7897516e-06 4.736855e-06 3.8896032e-06 2.6478756e-06 1.9290985e-06
2.0480668e-06 2.471928e-06 2.6657453e-06 3.999533e-06 2.4213803e-06 1.5925725e-06 1.3718069e-06 1.4226473e-06
2.3201885e-06 1.3990445e-06 1.6119928e-06 2.1339404e-06 2.0900354e-06 1.6006588e-06 2.561371e-06 4.8270385e-06
6.714599e-06 6.5549402e-06 3.1220072e-06 6.1455803e-06 1.0531118e-05 1.3728174e-05 1.3277588e-05 4.902855e-06
8.9012065e-06 1.404361e-05 1.7513728e-05 1.6703778e-05 5.396423e-06 8.388284e-06 1.1114764e-05 1.1036508e-05
7.758155e-06 8.385835e-06 1.39926415e-05 1.8584327e-05 1.8389355e-05 1.2888787e-05 1.14148015e-05 1.9499852e-05
2.5717149e-05 2.5392379e-05 1.8010098e-05 1.2173762e-05 2.0929145e-05 2.7514332e-05 2.728028e-05 1.96854e-05
9.783244e-06 1.6827864e-05 2.2269434e-05 2.2290295e-05 1.6374068e-05 1.6534644e-06 1.6581316e-06 1.7470795e-06
1.9098115e-06 2.2403494e-06 3.3743534e-06 2.7010258e-06 2.0406376e-06 1.5111112e-06 1.3581135e-06 9.298286e-06
8.061945e-06 5.7390907e-06 3.1683003e-06 1.5123682e-06 1.548354e-05 1.4123706e-05 1.0093744e-05 5.3050708e-06
2.0620168e-06 1.7900278e-05 1.7000846e-05 1.2287149e-05 6.4565866e-06 2.4250257e-06
00000000: 8c71 2336 677e f735 7abd ca35 5c27 b535
00000010: f993 e435 d20e e435 6646 d635 714e c735
00000020: e6f1 9335 26e3 4835 219f 4236 e207 8136
00000030: 63d8 8e36 8988 5d36 dbf8 d435 45b1 af36
00000040: 8998 f336 ee37 0537 10d9 d036 fd5b 5b36
00000050: ecc0 dd36 e6a4 1537 2326 1c37 2633 f036
00000060: 044a 8836 b2f2 6b36 95c4 9636 4f94 8c36
00000070: 6ebe 3e36 8ddc df35 33a3 c536 c7db f836
00000080: 08a9 ea36 855c a436 3df0 3636 ede3 e836
00000090: 634d 0e37 e6e3 0537 0032 c036 bda3 5636
000000a0: 6a47 c236 6424 e836 1a5c d836 a691 9b36
000000b0: d413 2f36 abea 6436 0c95 8736 b4bd 7b36
000000c0: f67d 3636 ba24 df35 1457 7035 1b87 0536
000000d0: 0bfa b636 68f4 ec36 d3ac ab36 8b1d 4c35
000000e0: 94c5 3936 a60f f436 59a0 1a37 8314 de36
000000f0: 18ce 8535 e719 3a36 0d8d d936 2b2c 0737
00000100: a214 c736 8de0 cc35 6e6f 0836 7053 7e36
00000110: 46f1 9e36 7083 8236 28b2 3136 a975 0136
00000120: 8571 0936 66e3 2536 28e5 3236 ba33 8636
00000130: ff7e 2236 60c0 d535 ed1e b835 caf1 be35
00000140: 89b4 1b36 cec6 bb35 a75b d835 d134 0f36
00000150: 8942 0c36 38d6 d635 05e4 2b36 f2f7 a136
00000160: f74d e136 82f2 db36 ad83 5136 2236 ce36
00000170: cfae 3037 0f52 6637 cec2 5e37 3483 a436
00000180: 6456 1537 d89c 6b37 72ea 9237 171f 8c37
00000190: ec12 b536 68bb 0c37 8c79 3a37 7129 3937
000001a0: 0629 0237 e3b0 0c37 f0c1 6a37 8ae5 9b37
000001b0: d742 9a37 eb3c 5837 3382 3f37 9d93 a337
000001c0: 28bb d737 b801 d537 6414 9737 e93d 4c37
000001d0: ff90 af37 94ce e637 f5d7 e437 1322 a537
000001e0: b722 2437 9029 8d37 3fcf ba37 0bfc ba37
000001f0: 0b5b 8937 9bec dd35 f88c de35 327d ea35
00000200: 502a 0036 e958 1636 f372 6236 4543 3536
00000210: e3f1 0836 63d1 ca35 6d48 b635 d6ff 1b37
00000220: ca41 0737 6a92 c036 fc9e 5436 93fc ca35
00000230: a6e2 8137 dbf4 6c37 4d58 2937 3602 b236
00000240: 2e61 0a36 8e28 9637 0a9d 8e37 e724 4e37
00000250: a8a5 d836 a0bd 2236

exp_avg f4 [6]
-0.0084614055 -0.010865946 0.0043659913 -0.0026315593 -5.658881e-05 0.0058973017
00000000: b5a1 0abc 1507 32bc 9710 8f3b 3d76 2cbb
00000010: c659 6db8 273e c13b

exp_avg_sq f4 [6]
5.0424155e-06 5.4174216e-06 8.3791265e-06 3.5045166e-06 1.9526717e-05 2.3283842e-06
00000000: 0532 a936 4cc7 b536 1394 0c37 232f 6b36
00000010: 4ecd a337 5641 1c36
