weights/weight_after_step20_4.pth (torch, 783165 bytes, 30 tensors)

conv1.weight f4 [6, 1, 5, 5]
0	0x3e6bfea6	0.2304636
1	0x3c6b1408	0.014348038
2	0xbc8e5a96	-0.01737718
3	0x3e33e617	0.17568241
4	0x3e322665	0.17397459
5	0x3e3df63d	0.18550964
6	0x3d49c44d	0.049259473
7	0xbe09c471	-0.13453843
8	0xbd719b3b	-0.05898593
9	0x3e4fd177	0.20294748
10	0xbc9a0210	-0.018799812
11	0xbcf57d9b	-0.02996712
12	0xbe65196e	-0.22372982
13	0x3d7379ff	0.059442516
14	0xbe27b31a	-0.16376916
15	0x3d933fea	0.07189925
16	0xbe0e8253	-0.13916902
17	0xbe3d4233	-0.18482284
18	0xbdf36ae6	-0.11885624
19	0xbc94d4bc	-0.018167846
20	0xbe33c960	-0.17557287
21	0xbe4a5543	-0.19759087
22	0xbe11cbc1	-0.14237882
23	0xbc175ffc	-0.009239193
24	0x3ba6fa44	0.005095752
25	0xbc8d7ab6	-0.017270427
26	0xbdf757a1	-0.12077261
27	0xbda2be96	-0.07946508
28	0xbce7af07	-0.028281702
29	0x3d5435de	0.051809184
30	0xbcd6d3e3	-0.026224082
31	0xbe6d10b9	-0.2315091
32	0xbe39dacc	-0.1814987
33	0xbe2e696a	-0.170324
34	0x3d653a33	0.055963706
35	0xbe4e0b1d	-0.20121427
36	0xbcbf60e6	-0.023361634
37	0x3cd1c1ba	0.025605071
38	0x3e237213	0.15961485
39	0x3de49ea6	0.11163072
40	0xbc313518	-0.010815881
41	0xbe263790	-0.16232133
42	0xbe5e2eed	-0.21697588
43	0x3ce8947c	0.028391115
44	0x3d91a000	0.07110596
45	0x3e31b7d0	0.17355275
46	0x3e25c0bf	0.16186808
47	0xbdf12e78	-0.11776441
48	0x3d9a5d05	0.07537273
49	0xbd15eca6	-0.03660264
50	0x3d20e97b	0.039285164
51	0x3e32364e	0.17403528
52	0x3e3d1746	0.1846591
53	0x3e00baeb	0.12571304
54	0x3dbba55b	0.091623984
55	0xbe6392cd	-0.22223969
56	0x3e352333	0.17689209
57	0xbd591fac	-0.05300872
58	0x3db334ca	0.08750303
59	0x3e221e12	0.15831783
60	0x3dcca56c	0.09992489
61	0xbc9283e6	-0.01788516
62	0x3d87a0ec	0.0662249
63	0x3e438c71	0.19096543
64	0xbd964ac8	-0.07338482
65	0x395758c9	0.00020537073
66	0xbe31efcb	-0.1737663
67	0x3e1af67a	0.15133086
68	0x3e1afb8e	0.15135023
69	0x3df69470	0.12040031
70	0xbe90403f	-0.28174016
71	0xbd56156c	-0.052266523
72	0x3c9675b2	0.018366668
73	0xbd3d4c1d	-0.046215165
74	0xbe0adc0b	-0.13560502
75	0x3d929e09	0.07159049
76	0x3e3bc865	0.18338163
77	0xbd2bcb0d	-0.04194169
78	0x3e665f9e	0.22497413
79	0x3d2ff552	0.042958565
80	0x3e89b5d8	0.26896548
81	0x3dd8a3c3	0.1057811
82	0x3dfc9f31	0.12335051
83	0xbe15c7f9	-0.14627065
84	0xbe1dd315	-0.15412553
85	0x3d0f7e52	0.035032578
86	0xbd353f87	-0.044250038
87	0xbe585d28	-0.21129286
88	0x3dc6bb55	0.097036995
89	0xbd9f3355	-0.07773463
90	0x3e3d5923	0.18491034
91	0xbe39ffa6	-0.18163928
92	0xbe813679	-0.25236872
93	0x3d8e00a3	0.06933715
94	0xbe82a51d	-0.25516596
95	0xbe347333	-0.1762207
96	0xbc4b175f	-0.012395709
97	0xbdf69c90	-0.12041581
98	0xbd0f2c23	-0.0349542
99	0xbd3f0264	-0.04663314
100	0x3d5439ad	0.051812816
101	0x3df38fc4	0.118926555
102	0xbdc56929	-0.09639198
103	0x3e2d60fa	0.16931525
104	0xbdc7f1f0	-0.09762943
105	0x3ac5c086	0.0015087284
106	0xbe5f16a6	-0.21785983
107	0xbe8030ee	-0.2503733
108	0xbd36846c	-0.04455988
109	0x3d2c68e9	0.042092238
110	0xbe2759b5	-0.16342814
111	0x3e065a5d	0.13120408
112	0xbdd29799	-0.10282821
113	0x3d140718	0.036139578
114	0xbe26dffd	-0.16296382
115	0x3e3214e3	0.1739078
116	0x3dfdc58d	0.123911954
117	0x3cfd529e	0.030923184
118	0xbdc39f2a	-0.095518425
119	0xbe3c3ebd	-0.18383308
120	0xbe163774	-0.14669591
121	0xbdd6726f	-0.10471045
122	0xbe68bbd4	-0.227279
123	0xbcd644a2	-0.026155774
124	0x3e19f36c	0.15034264
125	0xbe78b1e1	-0.24286605
126	0xbe606cef	-0.21916555
127	0xbd053d0f	-0.032528933
128	0xbddcee22	-0.10787608
129	0xbe8303aa	-0.25588733
130	0x3e36f925	0.17868479
131	0x3dd0ae59	0.10189504
132	0xbd008976	-0.031381093
133	0xbd389412	-0.045063086
134	0x3dcb0244	0.099125415
135	0x3d01a37b	0.031650048
136	0x3dc2716a	0.09494288
137	0xbd00b86d	-0.031425882
138	0x3d2f5882	0.042809017
139	0x3dfd30a8	0.12362796
140	0x3db12afd	0.086507775
141	0x3d630f3f	0.05543446
142	0x3e1c3c6e	0.15257427
143	0x3e71b115	0.23602708
144	0x3d4e1544	0.05031325
145	0x3e3b817b	0.18311112
146	0x3dfd0878	0.12355131
147	0xbd1f3164	-0.038865462
148	0xbd5a58e1	-0.053307418
149	0xbcf78c45	-0.030218253

conv1.bias f4 [6]
0	0x3d36dfa7	0.044646885
1	0x3e27f84c	0.16403311
2	0xbda06fcb	-0.07833823
3	0x3d11be49	0.03558186
4	0xbc386616	-0.011254808
5	0xbe48d073	-0.19610767

conv2.weight f4 [16, 6, 5, 5]
0	0x3c8ddb92	0.017316613
1	0x3db37cd7	0.08764046
2	0xbcbd0174	-0.023071982
3	0xbb9bf0c9	-0.0047589284
4	0xbd31430a	-0.043276824
5	0x3e0d319c	0.13788456
6	0x3d9e79f0	0.077381015
7	0xbd248f9f	-0.04017603
8	0xbcebe56c	-0.02879592
9	0xbc9e48ca	-0.019321818
10	0x3d831454	0.06400362
11	0xbc57bf6e	-0.013168199
12	0x3c109ad6	0.008825978
13	0xbc20aead	-0.009807271
14	0xbcef6adf	-0.029225765
15	0xbc8183c6	-0.015809905
16	0x3def5968	0.11686975
17	0x3c0810f9	0.008304828
18	0x3c582e69	0.013194659
19	0xbda9ceca	-0.08291395
20	0xbb43d8ec	-0.0029883934
21	0x3dbd7065	0.09249953
22	0x3d41a25b	0.047273975
23	0x3d5706c3	0.052496683
24	0xbd2dfe2d	-0.04247873
25	0x3d13debf	0.0361011
26	0x3decdab4	0.11565152
27	0x3ded3ba7	0.115836434
28	0x3d9917db	0.07475253
29	0x3d4c86d6	0.049933277
30	0xbc2358de	-0.009969918
31	0x3d497fef	0.049194273
32	0xbd08e3e9	-0.033420477
33	0x3c2109f1	0.00982903
34	0xbd9e065b	-0.07716056
35	0x3d6f9721	0.058493737
36	0x3d27548f	0.040852126
37	0x3d1fb274	0.038988546
38	0xbd4c6a78	-0.049906224
39	0xbdb6e9de	-0.089313254
40	0x3da1782e	0.078842506
41	0x3d8a6277	0.06757062
42	0x3bacaab0	0.005269371
43	0xbe0d6248	-0.13807023
44	0xbe0bebfc	-0.1366424
45	0x3e011d49	0.12608828
46	0x3db4ba09	0.08824546
47	0x3c7e4ad4	0.01552077
48	0xbe028fad	-0.1275012
49	0xbd8b4fcf	-0.06802332
50	0xbd4f30ef	-0.050583776
51	0x3b97c386	0.0046314625
52	0xbde7d2ac	-0.11319479
53	0x3b76c94d	0.0037656606
54	0xbd8bf7e7	-0.06834393
55	0xbd28b6ce	-0.04118996
56	0xbd1733cb	-0.036914628
57	0xbdbb5c8c	-0.09148511
58	0x3d5096ca	0.050925054
59	0xbd63712f	-0.055527862
60	0xbdc85c2a	-0.09783204
61	0xbdb0369c	-0.08604166
62	0xbb84242f	-0.0040326337
63	0x3def1a8d	0.11674986
64	0xbd48c2a1	-0.049013738
65	0xbcd1dabe	-0.025617
66	0x3d23b658	0.03996882
67	0x3da4ade6	0.08040981
68	0x3e103dde	0.140861
69	0x3dca1993	0.09868159
70	0xbe0163c5	-0.12635715
71	0xbd9f50f2	-0.07779111
72	0x3e0289a9	0.12747826
73	0x3dec83cb	0.11548575
74	0xbd657e01	-0.05602837
75	0x3d44b724	0.04802622
76	0x3d7c4a2e	0.06159418
77	0xbd0d7938	-0.03453943
78	0xbd416778	-0.047217816
79	0xbcf9db2d	-0.030500019
80	0x3d7637b9	0.060111735
81	0xbdb1ee40	-0.08688021
82	0xbe28b2e4	-0.16474491
83	0xbd751ae2	-0.05984009
84	0xbdcf72d0	-0.101293206
85	0x3d1d2f6d	0.038375307
86	0xbd3928ac	-0.045204803
87	0xbdb7bc6e	-0.08971487
88	0xbddc50d1	-0.10757602
89	0xbda96236	-0.082706854
90	0x3d96c8a2	0.073624864
91	0xbdc39306	-0.09549527
92	0xbd19fd4c	-0.03759508
93	0xbdcb8297	-0.099370174
94	0x3def573d	0.11686561
95	0x3d73c207	0.05951121
96	0xbd4f69b6	-0.050637923
97	0xbd31c413	-0.04339988
98	0x3d871783	0.065962814
99	0x3ba10f35	0.004915143
100	0x3bca5eeb	0.006175866
101	0x3d365613	0.04451568
102	0x3d27cab6	0.040964805
103	0xbd854fa1	-0.06509329
104	0xbd254464	-0.040348426
105	0x3d86be5b	0.06579276
106	0x3d9c3db4	0.076289564
107	0xbd08f2f4	-0.033434823
108	0xbdb85c75	-0.0900201
109	0xbd93a604	-0.07209399
110	0x3dd3f5a0	0.103495836
111	0xbd254267	-0.04034653
112	0xbda95a3b	-0.08269163
113	0xbd2f18e3	-0.042748343
114	0xbd92ecaa	-0.07174046
115	0x3d1279c7	0.035760667
116	0x3d8d7678	0.06907362
117	0xbda24fed	-0.07925401
118	0xbd940a5a	-0.07228537
119	0x3d275888	0.040855914
120	0xbc533f6f	-0.012893542
121	0xbba83f83	-0.0051345243
122	0xbdce881b	-0.10084554
123	0xbdda3b18	-0.106558025
124	0x3d0ff06a	0.035141386
125	0xbd624e5d	-0.055250514
126	0xbdf69673	-0.12040415
127	0xbd835209	-0.06412131
128	0xbd76d5ab	-0.060262363
129	0xbd590610	-0.052984297
130	0xbded4db5	-0.11587087
131	0xbda078db	-0.07835551
132	0x3d0cdeb0	0.03439206
133	0x3d070c2b	0.03297059
134	0x3e09f871	0.13473679
135	0xba16ebe2	-0.0005757195
136	0x3cc79ffd	0.02436828
137	0x3d259e73	0.040434312
138	0x3c5dabb0	0.013529703
139	0x3cf9b828	0.03048332
140	0xbb991a08	-0.0046722926
141	0xbc0cd237	-0.008595041
142	0x3cee31bf	0.029076455
143	0x3b980d46	0.004640254
144	0x3c9ffe87	0.019530548
145	0xbb6e52d2	-0.0036365283
146	0xbd909971	-0.070605166
147	0xbd0dc013	-0.034607004
148	0xbd932c6a	-0.07186206
149	0xbca8a6a1	-0.020587267
150	0x3dc83642	0.09775974
151	0x3c986302	0.018601898
152	0x3dbb5886	0.09147744
153	0x3dcb8234	0.09936944
154	0x3dcf9d6e	0.10137449
155	0xbe040ae2	-0.12894776
156	0xbcf46347	-0.029832495
157	0xbd7fd923	-0.062462937
158	0x3d62be97	0.055357542
159	0x3da88ed4	0.08230367
160	0xbdff6a06	-0.12471394
161	0xbd4e4315	-0.050356943
162	0xbe0ab5e9	-0.13545956
163	0xbd73b6ed	-0.059500623
164	0x3b7f1701	0.0038923624
165	0xbd4eec8e	-0.050518565
166	0x3d608e95	0.054823477
167	0xbce3e490	-0.027818948
168	0xbd3af5b7	-0.04564449
169	0xbda1e5f3	-0.079051875
170	0x3bccc98e	0.006249613
171	0x3dd4fe6f	0.10400092
172	0x3d27aff7	0.040939298
173	0xbd6534fc	-0.055958733
174	0xbdb97f1d	-0.09057448
175	0x3d264951	0.040597264
176	0x3de179ed	0.110095836
177	0x3bda48a2	0.0066614905
178	0xbc159641	-0.009130062
179	0x3d47bb05	0.04876234
180	0x3d1b3d4a	0.037900247
181	0x3da3a7eb	0.07991012
182	0x3d9d0aaf	0.07668053
183	0x3e02caff	0.1277275
184	0x3cab07ff	0.020877836
185	0xbdbcde87	-0.09222131
186	0x3c2fc859	0.010728919
187	0x3bdfa8cd	0.0068255425
188	0x3c96f8a8	0.018429115
189	0x3d4a6bc0	0.049419165
190	0xbb153eaf	-0.0022772958
191	0xbe0ea34d	-0.13929482
192	0xbd3f2e7a	-0.046675183
193	0xbdb2580e	-0.08708201
194	0xbda19bd2	-0.078910485
195	0xbce59a31	-0.028027626
196	0xbd2f7be7	-0.04284277
197	0xbd06d4ac	-0.032917663
198	0x3cd4e754	0.025989212
199	0xbd4017de	-0.04689776
200	0xbe03cc66	-0.1287094
201	0xbc390f2d	-0.011295122
202	0xbddace31	-0.10683859
203	0x3ceccaaf	0.02890524
204	0xbda6984f	-0.08134519
205	0xbda66aa5	-0.081258096
206	0xbdb8a890	-0.09016526
207	0xbb2c2661	-0.0026267993
208	0xbd42c24b	-0.047548573
209	0xbe06c650	-0.13161588
210	0x3d5ee193	0.054414343
211	0x3cc2a520	0.023760378
212	0xbd9054e5	-0.07047442
213	0xbe09d6ed	-0.13460894
214	0xbde569fc	-0.112018555
215	0x3dd17ec3	0.10229256
216	0x3d35cf44	0.044387117
217	0xbd24099f	-0.040048238
218	0xbd4734cb	-0.04863433
219	0x3c5ab90c	0.013349783
220	0x3d9a6417	0.07538622
221	0xbcf50194	-0.02990798
222	0x3de2b2a2	0.11069228
223	0x3c82b988	0.015957609
224	0xbc3e78b7	-0.01162546
225	0xbc8e5348	-0.017373696
226	0x3ccf5431	0.0253087
227	0x3e105cee	0.1409795
228	0x3e21f3fc	0.15815729
229	0x3dd27b5d	0.10277436
230	0xbdcba259	-0.09943075
231	0xbd520d55	-0.051282246
232	0x3d44d980	0.048058987
233	0x3d9adb31	0.07561339
234	0x3cedc47b	0.029024353
235	0xbe0f9abf	-0.14023875
236	0xbe174781	-0.1477337
237	0xbdf4917b	-0.11941811
238	0xbdbbb2e5	-0.09164981
239	0xbd11823e	-0.0355246
240	0x3d2917ef	0.04128259
241	0x3dc88cba	0.097924665
242	0x3dc34792	0.09535135
243	0xbdd396ff	-0.103315346
244	0xbd057803	-0.032585155
245	0x3e06a24f	0.13147853
246	0x3dd2c95c	0.102923125
247	0x3cc37792	0.023860727
248	0x3d5d1543	0.053975355
249	0x3d7fe834	0.062477306
250	0x3dd0a76f	0.101881854
251	0x3df3ac84	0.11898139
252	0x3dc3008c	0.09521589
253	0x3d82a17e	0.063784584
254	0x3e0d1da2	0.13780835
255	0xbc336338	-0.010948949

conv2.bias f4 [16]
0	0x3da4a8e4	0.08040026
1	0xbd21c9e1	-0.039499167
2	0xbced5551	-0.028971346
3	0x3e009de9	0.12560238
4	0xbd848b37	-0.064718656
5	0x3d847639	0.06467862
6	0x3d12810c	0.0357676
7	0x3db7fc6f	0.08983695
8	0x3d82b1b1	0.06381548
9	0x3cad9dd7	0.021193428
10	0xbd201f86	-0.039092563
11	0x3da28450	0.07935393
12	0x3dae5d23	0.08513858
13	0x3cb7c58d	0.022433067
14	0x3d539a13	0.05166061
15	0xbd889d61	-0.06670643

conv3.weight f4 [120, 16, 5, 5]
0	0xbc45d9f5	-0.012075891
1	0x3d1159fb	0.035486203
2	0x3c29d1ca	0.010364959
3	0xbd4e17a4	-0.050315514
4	0xbcae9ccd	-0.021315003
5	0x3ce90c2e	0.02844819
6	0x3a3de82c	0.0007244374
7	0xbd04d7de	-0.03243243
8	0xbce5d104	-0.028053768
9	0xbd3a694e	-0.045510583
10	0x3d8b5537	0.06803363
11	0xbd755ee2	-0.05990494
12	0xbdb93bda	-0.09044619
13	0x3ddb92fb	0.10721394
14	0xbbd03070	-0.0063534304
15	0x3ccb8362	0.024842922
16	0xbdc2f126	-0.09518652
17	0xbd9b7bce	-0.07591973
18	0xbc13cf0b	-0.009021531
19	0x3ca36711	0.019946607
20	0x3c371df5	0.011176576
21	0xbb18373b	-0.002322628
22	0x3da1f734	0.079084784
23	0xbcef1327	-0.029183937
24	0x3cbc6643	0.022997981
25	0xbd5437a8	-0.05181089
26	0xbca373b0	-0.019952625
27	0xbcb02436	-0.021501642
28	0xbc224a28	-0.009905376
29	0xbc138071	-0.009002791
30	0x3c1692a9	0.00919024
31	0x3906d989	0.00012860274
32	0xbd435e61	-0.04769743
33	0xbd83f7a9	-0.06443722
34	0xbd398f3c	-0.045302615
35	0x3d867ff0	0.06567371
36	0x3dd26bbd	0.10274456
37	0x3b91a2da	0.0044444622
38	0xbd1db579	-0.038503144
39	0x3dbe10b9	0.09280533
40	0xbd9b000d	-0.07568369
41	0x3d00ad32	0.031415172
42	0x3baf0b9d	0.0053419606
43	0xbd5a87f3	-0.053352308
44	0xbd99ca35	-0.07509271
45	0xbc018c6b	-0.007907013
46	0xbc54e11a	-0.0129931215
47	0x3dd53b42	0.10411693
48	0x3dec1109	0.11526687
49	0x3bcc96bd	0.0062435553
50	0x3d5cb900	0.053887367
51	0xbb96db60	-0.0046037883
52	0x3d00e46f	0.03146785
53	0x3dae46f4	0.08509627
54	0x3d8f73f4	0.07004538
55	0x3ccbad15	0.024862805
56	0xbda9fa64	-0.08299711
57	0xbc835f8a	-0.016036768
58	0x3d31adb7	0.043378558
59	0xbda09ad4	-0.07842031
60	0x3cc6eb3e	0.024282094
61	0x3d995b7b	0.07488152
62	0x3d0437b5	0.03227969
63	0xbcc5a306	-0.024125587
64	0x3d8fd2c2	0.07022621
65	0x3c6be9c0	0.014398992
66	0x3ca53dd8	0.020171091
67	0xbc0e06f0	-0.008668646
68	0xbc9d584e	-0.019207146
69	0x3d2bf535	0.041981895
70	0xbd02f836	-0.031974994
71	0xbc245a66	-0.010031318
72	0x3d117f24	0.03552164
73	0xbd8ce4fa	-0.06879611
74	0x3c05ee5d	0.008174506
75	0x3d0e778b	0.034781974
76	0x3d603108	0.05473426
77	0xbd055d86	-0.032559894
78	0xbc91274c	-0.017718934
79	0x3afe1dc3	0.0019387532
80	0xbd17b83c	-0.037040934
81	0x3d9b0041	0.07568408
82	0xbc0e2abd	-0.008677182
83	0xbd06bf78	-0.032897443
84	0x3d037b80	0.0321002
85	0xbd07eebe	-0.033186667
86	0xbcad2e6e	-0.021140303
87	0x3d08574e	0.033286385
88	0x3d041532	0.032246776
89	0x3cdd366e	0.027003493
90	0xbd3e4384	-0.046451107
91	0xbdc94ea6	-0.09829454
92	0x3ca0b9cc	0.019619845
93	0x3d84c046	0.06481986
94	0x3c360497	0.011109493
95	0x3b79c699	0.0038112758
96	0xbd4ef7df	-0.050529357
97	0x3c3017f0	0.010747895
98	0x3dc26f33	0.09493866
99	0x3c5b6407	0.013390548
100	0xbd15f72d	-0.03661268
101	0x3c149517	0.009068749
102	0xbcb12137	-0.021622283
103	0xbc69984f	-0.014257505
104	0xbd5ba693	-0.053625654
105	0xbcdf2fcd	-0.027244473
106	0xbc0f9bbc	-0.008765157
107	0xbdc54b9e	-0.096335635
108	0x3cc14708	0.02359344
109	0x3c1c67f2	0.009546267
110	0x3d51bcc3	0.051205408
111	0xbd667097	-0.056259718
112	0xbd8fa349	-0.07013566
113	0x3d6e14ba	0.058125235
114	0x3ce1272e	0.027484503
115	0xbc6d03a4	-0.0144662
116	0xbd326c4d	-0.043560315
117	0x3d8269d9	0.06367845
118	0x3d225b52	0.03963787
119	0xbd0ecb3e	-0.034861796
120	0xbc5cef4d	-0.013484788
121	0x3cd9ff50	0.026611
122	0x3cd99359	0.026559519
123	0xbc5a43f9	-0.01332187
124	0x3d0b536a	0.034015097
125	0x3bea8625	0.0071571046
126	0x3d417bb9	0.04723713
127	0x3d825c43	0.06365254
128	0x3cffd3cf	0.031228928
129	0xbca0c019	-0.01962285
130	0x3c9a8acb	0.01886501
131	0x3d4c422a	0.049867786
132	0xbd69c2fe	-0.057070725
133	0xbdb881fe	-0.09009169
134	0xbd9de2f6	-0.07709305
135	0x3d3c7462	0.04600943
136	0xbc92ba68	-0.017911151
137	0xbd85977a	-0.065230325
138	0xbcc02095	-0.023453036
139	0x3d1a309f	0.037644025
140	0x3cf11fa1	0.029434027
141	0xbdb98df6	-0.0906028
142	0xbd3662df	-0.044527885
143	0x3d4d3ff9	0.050109837
144	0xbd6b252d	-0.0574085
145	0xbab47d24	-0.0013770205
146	0xbd088fc0	-0.033340216
147	0x3cb9e065	0.022690007
148	0x3d70194a	0.058617868
149	0x3cc8c965	0.024510095
150	0xbcaa5243	-0.020791179
151	0xbcaa7c14	-0.020811118
152	0x3d3ce7c0	0.04611945
153	0x3cc18633	0.023623561
154	0x3cb394f4	0.021921612
155	0xbcf8bdd2	-0.03036395
156	0x3d9b288f	0.07576095
157	0xbd739049	-0.059463773
158	0xbd58dbab	-0.052943867
159	0x3c97fcf5	0.018553236
160	0x3c6e84f0	0.014558062
161	0x3dae7a04	0.085193664
162	0xbcb0a670	-0.021563739
163	0xbd5ae1b4	-0.053437904
164	0x3d812438	0.06305736
165	0x3a1aab91	0.0005900199
166	0x3bb4a118	0.005512368
167	0xbc90ed3e	-0.01769125
168	0xbd947767	-0.07249337
169	0xbcc7ac3f	-0.024374126
170	0xbc9b0c4d	-0.018926764
171	0xbc275e7b	-0.010215397
172	0x3b52db59	0.0032174198
173	0x3d2bcf96	0.041946016
174	0x3bf80419	0.007568848
175	0x3c08c80b	0.008348475
176	0xbc3a13ac	-0.011357229
177	0xbc307646	-0.010770386
178	0xbd2c5f47	-0.04208305
179	0xbd9c4df3	-0.07632055
180	0x3cff0a1c	0.03113275
181	0xbcea9497	-0.028635306
182	0xbd99e650	-0.07514632
183	0xbc80e95e	-0.015736278
184	0x3d8fa00e	0.0701295
185	0x38657a1d	5.471158e-05
186	0xbd2ad910	-0.041710913
187	0xb805b790	-3.1880627e-05
188	0x3d631d54	0.05544789
189	0x3d549bc7	0.051906373
190	0x3d15744b	0.03648786
191	0x3cf95098	0.030433938
192	0x3da7f12b	0.08200296
193	0x3d92dee3	0.071714185
194	0xbd2d192a	-0.042260326
195	0xbca93297	-0.020654006
196	0xbb29f206	-0.002593161
197	0x3d998ed3	0.07497945
198	0x3c367749	0.011136838
199	0x3b042211	0.0020161907
200	0x3b26bd76	0.0025442517
201	0xbd8a91d0	-0.06766093
202	0x3cfd2c7a	0.030904997
203	0x3c8794b8	0.016550407
204	0x3ba13e2b	0.004920741
205	0x3d08bd96	0.03338393
206	0xbd99a6a2	-0.07502486
207	0xbdab8901	-0.08375741
208	0xbd42bd6f	-0.04754394
209	0xbd09c922	-0.03363908
210	0x3d469df9	0.0484905
211	0x3c81c58b	0.015841266
212	0x3c25ec29	0.010127106
213	0x3cc8cc19	0.024511384
214	0x3d37a406	0.04483416
215	0xbdbc8a50	-0.092060685
216	0x3d9f7070	0.077851176
217	0xbca1d6f5	-0.01975582
218	0xbdc67a06	-0.09691243
219	0x3d037be4	0.032100573
220	0xbd00981f	-0.031395074
221	0x3d2abfd9	0.041686866
222	0x3d532f00	0.051558495
223	0x3c8f3647	0.017481936
224	0x3c651667	0.013982392
225	0x3d2b6830	0.041847408
226	0x3cfcf594	0.03087882
227	0x3d378094	0.044800356
228	0x3d8181da	0.06323595
229	0x3ccf2566	0.025286388
230	0x3b77d7e6	0.0037817894
231	0xbd3728dc	-0.0447167
232	0x3c34c91f	0.011034279
233	0xbd569d74	-0.052396253
234	0xbc86d028	-0.016456679
235	0x3d8ce493	0.068795346
236	0x3d757804	0.05992891
237	0xbd5ca348	-0.053866655
238	0xbcc7e02d	-0.024398888
239	0xbc80904b	-0.015693804
240	0x3d10d8f9	0.03536317
241	0x3d149319	0.036273096
242	0xbc155bd0	-0.009116128
243	0xbc834315	-0.016023198
244	0xbcd232b5	-0.025658945
245	0xbd06767c	-0.03282784
246	0xbce8c984	-0.028416403
247	0xbca8e1e3	-0.020615524
248	0x3d117ea7	0.035521176
249	0xbcb2d3ce	-0.021829512
250	0xbc96248e	-0.018327978
251	0x3c318187	0.010834104
252	0x3c55df53	0.013053733
253	0xbd870148	-0.06592041
254	0xbc3af42d	-0.011410755
255	0x3cd506d3	0.02600423

conv3.bias f4 [120]
0	0xbc144499	-0.009049558
1	0x3d5ec8c0	0.05439067
2	0xba17829c	-0.0005779655
3	0xbd02372a	-0.03179089
4	0x3c7ce9db	0.015436615
5	0x3c1bbca8	0.009505428
6	0x3c412b76	0.011790147
7	0xbd269623	-0.040670525
8	0x3d8e4d58	0.06948346
9	0xbcad8a75	-0.021184186
10	0xb9a036be	-0.00030558364
11	0x3ca19b05	0.01972724
12	0xbbda05f2	-0.006653541
13	0x3d45226b	0.048128527
14	0xbd91cf07	-0.071195655
15	0x3b6160f6	0.0034390069
16	0x3cb9773c	0.022639863
17	0x3cb288ee	0.021793809
18	0xbba4fb2e	-0.0050348258
19	0xbd1ae764	-0.037818328
20	0xbd41236e	-0.04715293
21	0x3ade976c	0.0016982383
22	0xbd07b777	-0.03313395
23	0x3c0c6091	0.008567945
24	0x3c4475ef	0.011991008
25	0xbd6dbd2e	-0.058041744
26	0x3d3d7c87	0.046261337
27	0xbcbac946	-0.022801053
28	0x3d68d87c	0.05684708
29	0x3b94c309	0.0045398516
30	0x3d03d9dd	0.032190192
31	0xbd9a96de	-0.07548307
32	0xbd9bbe3d	-0.076046444
33	0xbd2c2978	-0.042031735
34	0xbcd6a48d	-0.02620151
35	0xbcb1b65d	-0.021693403
36	0x3d8ae25d	0.067814566
37	0xbcffce70	-0.031226367
38	0x3d7f3503	0.062306415
39	0x3ce4b54c	0.02791848
40	0xbd35bbd5	-0.044368584
41	0x3cceb18f	0.02523115
42	0xbc7550b4	-0.014972854
43	0xbcc6fd1b	-0.024290612
44	0x3d252338	0.04031679
45	0x3d189f37	0.037261214
46	0x3d079617	0.03310212
47	0x3d1ba7f8	0.038001984
48	0x3c0a2565	0.008431767
49	0xbc388d88	-0.011264212
50	0xbd347137	-0.044053283
51	0x3cbd3297	0.023095412
52	0xbb19daa8	-0.0023476277
53	0xbcba1190	-0.022713453
54	0x3d1847e0	0.03717792
55	0xbd377864	-0.044792548
56	0xbd678de4	-0.0565318
57	0xbb9be344	-0.004757317
58	0xbd022482	-0.031773098
59	0x3cfd2188	0.030899778
60	0xbce5c765	-0.02804918
61	0x3cd915d2	0.026499663
62	0xbb9320dc	-0.004490001
63	0xbcdf9cbc	-0.027296416
64	0x3cbb70ae	0.022880878
65	0xbd5f9e3b	-0.05459426
66	0xbcb8406c	-0.022491656
67	0xbc6f39e5	-0.0146012055
68	0xbd0c8ae9	-0.034312163
69	0xbd7e57a3	-0.062095296
70	0xbd3a7a33	-0.045526695
71	0xbca37e00	-0.019957542
72	0xbc58e280	-0.013237596
73	0xbcdd3db7	-0.027006967
74	0x3bee145c	0.0072656106
75	0xbb2dc418	-0.0026514586
76	0x3d9620b2	0.07330455
77	0xbcdc59d7	-0.026898308
78	0x3cacae8e	0.021079328
79	0xbd6bc29a	-0.057558633
80	0xbd3d7871	-0.04625744
81	0xbc53e45f	-0.012932866
82	0x3d040b87	0.032237556
83	0x3c8b19fd	0.016980166
84	0x3cefac2f	0.029256908
85	0x3d068453	0.032841038
86	0x3a0d3f02	0.0005388112
87	0xbd0ded2a	-0.034650005
88	0x3cad5f3b	0.021163573
89	0xbb93286d	-0.004490903
90	0x3d18f501	0.03734303
91	0x3d8ff9da	0.07030077
92	0x3a9a13e4	0.0011755195
93	0xbd828a42	-0.06374027
94	0x3c8fbd81	0.017546417
95	0xbccb9ad4	-0.024854101
96	0xbca00673	-0.019534325
97	0xbcec5401	-0.02884865
98	0x3cd17b6a	0.025571544
99	0xbd62e66a	-0.05539552
100	0xbd79922d	-0.06093042
101	0x3da37bd2	0.07982601
102	0x3cbbd39b	0.02292805
103	0x3cb07386	0.02153946
104	0xbd3f2732	-0.04666824
105	0x3d836b64	0.064169675
106	0xbd05bdbe	-0.032651655
107	0xbb93e38c	-0.0045132097
108	0xbb3bf40f	-0.0028679406
109	0xbc0994fa	-0.008397335
110	0x3d3a5da9	0.045499478
111	0x3c0ac2f8	0.008469336
112	0x3b9dfda0	0.004821494
113	0xbd4070a9	-0.04698244
114	0x3bf3512f	0.0074254493
115	0xbd22d448	-0.03975323
116	0xbd18767a	-0.037222363
117	0xbcbe1976	-0.0232055
118	0x3bb42b6f	0.0054983418
119	0xbb9fda3e	-0.0048783114

linear.weight f4 [84, 120]
0	0x3c88c4f2	0.016695473
1	0xbd4a181e	-0.049339406
2	0xbd5687db	-0.052375656
3	0xbc653c21	-0.013991387
4	0xbdf316e8	-0.118696034
5	0x3da0c9f0	0.078510165
6	0x3d87dd63	0.06634023
7	0xbd4ddc55	-0.050258953
8	0x3e02753b	0.12740032
9	0xbe31b0b7	-0.17352568
10	0x3d90ad8b	0.07064351
11	0x3d89e545	0.06733183
12	0x3d6c1f54	0.057647064
13	0xbb6f2875	-0.003649262
14	0xbdcee41e	-0.10102104
15	0xbd6706de	-0.056403033
16	0xbc7d57d1	-0.015462832
17	0xbbce70c1	-0.0063000624
18	0x3df6b09a	0.12045403
19	0x3dba0b6a	0.09084208
20	0x3dc81b55	0.09770838
21	0xbe0ee221	-0.13953449
22	0xbaf59549	-0.0018736507
23	0xbd2117a2	-0.03932918
24	0xbda5d2a9	-0.08096821
25	0x3c2d9bae	0.010596199
26	0xbdcb8aed	-0.09938607
27	0xbde3c219	-0.111210056
28	0x3c727eed	0.014800769
29	0xbd6791b1	-0.056535427
30	0xbe1d6bb7	-0.15373121
31	0x3c6086b2	0.013703989
32	0x3d6bbfd0	0.057555974
33	0x3bb36b94	0.005475471
34	0x3d020494	0.031742647
35	0x3d658b64	0.056041136
36	0xbd5c8631	-0.053838912
37	0x3de301de	0.110843405
38	0xbd0c57e8	-0.03426352
39	0x3d20859e	0.039189927
40	0x3c539214	0.012913246
41	0xbe130713	-0.14358167
42	0x3dcb0e98	0.09914893
43	0x3dc70e45	0.097195186
44	0xbdc47da8	-0.095942795
45	0x3c1fe3db	0.009758915
46	0x3dab5e76	0.08367626
47	0xbc981d20	-0.018568575
48	0x3d0d1d41	0.034451727
49	0x3d3cdf10	0.046111166
50	0xbc773fe6	-0.015090918
51	0x3d8d6499	0.06903953
52	0xbcfc951e	-0.030832823
53	0x3bd904bf	0.00662288
54	0xbdfc9911	-0.123338826
55	0x3d418906	0.047249816
56	0x3dc3f96e	0.09569059
57	0x3d4e4153	0.050355267
58	0xbd32c5fe	-0.04364585
59	0xbc417f73	-0.011810171
60	0x3d344683	0.044012558
61	0xbd868a1e	-0.065693125
62	0x3d956fea	0.072967365
63	0xbd47e74e	-0.048804574
64	0x3d68354c	0.056691453
65	0xbb04efdd	-0.0020284571
66	0x3dcee6d1	0.101026185
67	0xbda31000	-0.07962036
68	0x3d6e431d	0.058169473
69	0x3dea4542	0.11438991
70	0xbd789861	-0.060692195
71	0xbdce3f8a	-0.10070713
72	0xbdf8cdcd	-0.121486284
73	0xbd9579c8	-0.072986186
74	0x3cc36a14	0.023854293
75	0x3d85317d	0.0650358
76	0xbc372854	-0.011179049
77	0xbd127515	-0.03575619
78	0xbcc03358	-0.023461983
79	0xbdb054a4	-0.08609894
80	0xbce8bde4	-0.02841086
81	0x3d4397a4	0.047752038
82	0xbd9b302f	-0.0757755
83	0xbcfb77fd	-0.030696863
84	0xbde2f141	-0.11081172
85	0xbd53d493	-0.0517164
86	0x3dad9782	0.084761634
87	0xbd97d5da	-0.07413836
88	0x3a78b5bc	0.000948753
89	0xbd046a40	-0.03232789
90	0xba6b9452	-0.000898664
91	0xbd276d8f	-0.040875968
92	0xbcdb8115	-0.02679495
93	0xbda65645	-0.08121923
94	0xbd25c3a6	-0.040469788
95	0xbbeb0d85	-0.0071732425
96	0x3d88cb2c	0.06679377
97	0xbd408347	-0.047000196
98	0x3d7619f4	0.060083345
99	0xbd563863	-0.05229987
100	0x3c5a5e69	0.013328173
101	0xbc835dd2	-0.016035948
102	0x3d51f7d7	0.05126175
103	0xbd810738	-0.06300205
104	0xbdea8f11	-0.11453069
105	0x3d9290fb	0.07156559
106	0x3dc116d8	0.09428185
107	0xbd5f5bc0	-0.05453086
108	0xbd8a2951	-0.06746162
109	0xbc5576b8	-0.013028793
110	0xbd8412ed	-0.06448922
111	0x3da09efb	0.07842823
112	0x3e04c354	0.12965137
113	0xbcdcbc24	-0.026945181
114	0x3d31d74a	0.043418206
115	0x3d3b0235	0.0456564
116	0x3b5d89eb	0.003380413
117	0x3dc3f65c	0.09568474
118	0xbd437442	-0.047718294
119	0xbbf36af8	-0.007428523
120	0xbc8a36de	-0.016871866
121	0xbc63aa74	-0.01389562
122	0xbd43a874	-0.04776807
123	0xbdaf4e54	-0.08559862
124	0xbcc2ccaa	-0.023779232
125	0x3c10ccab	0.008837859
126	0xbcce074b	-0.025149962
127	0x3a7a1a4c	0.00095406617
128	0xbdc29c55	-0.09502474
129	0xbdd74e5e	-0.10512994
130	0x3db2326c	0.087010235
131	0xbe0e0de4	-0.13872486
132	0xbacc7668	-0.0015599253
133	0x3c3b6938	0.01143866
134	0x3d46e9d3	0.048562836
135	0xbb3f3926	-0.002917835
136	0x3d1a40e4	0.03765954
137	0x3c44f61e	0.01202157
138	0x3d59fbef	0.05321878
139	0x3d06f480	0.032948017
140	0xbc02a8ed	-0.007974845
141	0x3e28d5c7	0.164878
142	0x3ba78605	0.005112412
143	0xbb3e1908	-0.002900662
144	0x3db76ed7	0.08956688
145	0x3d09de89	0.03365949
146	0x3b1b6519	0.0023711382
147	0xbd4f1ab3	-0.05056257
148	0x3c1ad728	0.009450711
149	0x3dbc2f7e	0.09188746
150	0x3d24e438	0.04025671
151	0xbca32b53	-0.01991812
152	0x3d32e71e	0.04367744
153	0x3da1a65a	0.07893057
154	0xbc9e436f	-0.019319264
155	0x3dda47bf	0.10658216
156	0x3db26803	0.08711245
157	0xbd48955c	-0.048970565
158	0xbdef3eb9	-0.11681885
159	0x3bc4f168	0.006010223
160	0xbd54806b	-0.05188028
161	0x3df89ec3	0.121396564
162	0xbe1fee9f	-0.1561837
163	0xbe17f272	-0.1483858
164	0xbdc552d0	-0.09634936
165	0xbdd3ddc1	-0.103450306
166	0xbddb6bf4	-0.1071395
167	0xbd3689f6	-0.044565164
168	0x3d6870ef	0.056748327
169	0x3caab6a5	0.020839045
170	0xbd38f569	-0.045155916
171	0x3d4888be	0.048958533
172	0x3c82eba2	0.0159815
173	0x3d913be5	0.07091502
174	0xbd867fd1	-0.06567348
175	0x3dc59425	0.09647397
176	0x3e0f3019	0.13983192
177	0x3d12747f	0.03575563
178	0xbd3c3f63	-0.045958888
179	0xbe347e4b	-0.17626302
180	0xbd0cfc18	-0.034420103
181	0x3e1b0140	0.15137196
182	0xbd847c04	-0.064689666
183	0x3dc1431d	0.09436629
184	0x3dceee1c	0.101040095
185	0xbc8f3e9a	-0.017485905
186	0x3dda0508	0.10645491
187	0xbdcb3d5e	-0.09923814
188	0xbd1cf767	-0.03832188
189	0x3dc3fb55	0.09569422
190	0x3d8cc11a	0.06872769
191	0xbdc0ace7	-0.094079785
192	0xbd26bf03	-0.040709507
193	0x3d860958	0.06544751
194	0x3de9fcfc	0.11425206
195	0x3d27f1b3	0.041001987
196	0xbb905326	-0.0044044433
197	0xbbbfdf54	-0.00585548
198	0x3c98a4b4	0.018633224
199	0x3e333514	0.17500716
200	0xbdb14409	-0.08655555
201	0x3dac9da5	0.08428506
202	0xbd54ad20	-0.051922917
203	0x3d311bb4	0.04323931
204	0x3e1c6f4a	0.15276828
205	0xbdc4b891	-0.09605516
206	0xbd1e9f71	-0.038726274
207	0x3db6fdc2	0.08935119
208	0xbe2fd5d3	-0.17171411
209	0x3d5616e3	0.05226792
210	0xbd506eab	-0.05088679
211	0x3c9131cf	0.017723946
212	0xbcb0ddc5	-0.021590123
213	0x3c9b4b70	0.01895687
214	0x3d56107e	0.052261822
215	0xbd9e6610	-0.077343106
216	0x3d7a190c	0.061059043
217	0x3e150f78	0.14556682
218	0xbe082880	-0.132967
219	0x3dc2ac7d	0.09505556
220	0x3dbd44e7	0.09241658
221	0xbe16dc0a	-0.14732376
222	0x3d2900c0	0.04126048
223	0xbdc2458a	-0.0948592
224	0xbd3e1be2	-0.04641331
225	0xbd0843d2	-0.033267803
226	0xbdc12654	-0.09431139
227	0x3d13251b	0.03592406
228	0x3e16b1ff	0.14716338
229	0xbd93e2bc	-0.072209805
230	0x3e0f897e	0.14017293
231	0xbcb0d8df	-0.021587787
232	0x3cb69201	0.022286417
233	0xbd6b9901	-0.057518963
234	0x3d247525	0.04015078
235	0xbc6a9b35	-0.014319231
236	0xbcf8bdfe	-0.030364033
237	0xbde8e469	-0.11371691
238	0x3c7a6d9a	0.01528492
239	0x3c6ea685	0.014566069
240	0xbba95732	-0.005167865
241	0x3dc17cda	0.09447642
242	0x3db4fb93	0.088370465
243	0xbd897b0c	-0.067129225
244	0x3d26ed07	0.04075339
245	0x3d0e8475	0.03479429
246	0xbd5135a5	-0.05107655
247	0x3dacf25a	0.084446624
248	0x3c92c4d8	0.017916128
249	0xbcb0a155	-0.021561304
250	0xbdb6f527	-0.08933478
251	0x3dff1a80	0.12456226
252	0x3cd623a2	0.026140038
253	0x3d4c1548	0.049824983
254	0xbdeacc3e	-0.11464737
255	0x3dae56e3	0.08512666

linear.bias f4 [84]
0	0x3d84ec07	0.06490331
1	0xbd893f4c	-0.06701526
2	0xbccb8f9e	-0.024848755
3	0x3d4a5146	0.049393915
4	0xbb51fed7	-0.0032042766
5	0xbd8bbdc3	-0.068233036
6	0x3d85c746	0.06532149
7	0xbd8fd727	-0.07023459
8	0xbd7a0846	-0.061043046
9	0xbd267483	-0.040638458
10	0x3dc11cea	0.09429343
11	0x3d16719c	0.03672944
12	0xbcbb9669	-0.02289887
13	0xbdb9a320	-0.09064317
14	0x3ddfa100	0.1091938
15	0xbd3fa502	-0.046788223
16	0x3dd89967	0.10576134
17	0x3c34f66d	0.011045081
18	0x3d0962a5	0.03354134
19	0x3d4eede0	0.050519824
20	0xbd88624a	-0.06659372
21	0x3d9a065f	0.075207464
22	0xbd4104a6	-0.047123574
23	0xbddb4254	-0.107060105
24	0x3d2605a3	0.04053272
25	0x3ce15bd8	0.027509615
26	0x3d65f54d	0.05614214
27	0xbe03b9a1	-0.1286378
28	0x3ce27ef2	0.027648423
29	0xbc8d71ee	-0.01726624
30	0xbd5da95a	-0.054116584
31	0x3b8e114c	0.004335558
32	0x3db19626	0.08671217
33	0xbda11f1b	-0.07867261
34	0x3cd0f803	0.025508886
35	0x3b3d0e4b	0.002884763
36	0x3dc3312d	0.09530864
37	0xbd87b3f9	-0.06626124
38	0xbd9bab85	-0.07601074
39	0x3d7c9678	0.061666936
40	0x3d99e061	0.075135
41	0xbd93b4dc	-0.072122306
42	0xbd8788b5	-0.06617872
43	0xbd0c87ce	-0.0343092
44	0x3c8f5f0f	0.017501382
45	0x3ddcfc78	0.10790342
46	0x3c05b9a8	0.00816194
47	0xbc8c59d2	-0.017132673
48	0x3d2cf71a	0.042227842
49	0x3d2a257d	0.041539658
50	0xbd802e71	-0.06258858
51	0xbcdd066b	-0.0269806
52	0x3dc1a4e8	0.094552815
53	0x3df6dec5	0.12054209
54	0xbd87305f	-0.06601023
55	0xbd576e56	-0.05259546
56	0x3d03a0ae	0.032135658
57	0x3da6c825	0.08143643
58	0xbc864a66	-0.016392898
59	0xbdc7dedd	-0.09759305
60	0x3d7a41ff	0.061098095
61	0x3d295a96	0.041346155
62	0xbc7fe522	-0.015618594
63	0x3d9a9dfd	0.07549665
64	0x3d2b4ca4	0.041821137
65	0x3dd667ba	0.10469003
66	0xbdbe3431	-0.092872985
67	0xbca2b8aa	-0.019863445
68	0x39e5d53e	0.00043837162
69	0xbd3af282	-0.04564143
70	0xbc97316a	-0.01845618
71	0xbd5a2ec2	-0.053267248
72	0x3d9567d9	0.07295198
73	0x3da90698	0.08253211
74	0x3d737b47	0.05944374
75	0xbd971627	-0.07377272
76	0xbca53f36	-0.020171743
77	0xbd96a6f9	-0.07356066
78	0x3d8b3807	0.06797796
79	0xbb36f2ea	-0.0027915784
80	0x3d18e31d	0.037325967
81	0x3d62fe5f	0.05541837
82	0xbd3bec19	-0.045879457
83	0xbd4c9385	-0.049945373

output.weight f4 [43, 84]
0	0x3d372c7b	0.044720154
1	0xbd3d9411	-0.046283785
2	0x3dcd25f2	0.10017003
3	0xbd996fb4	-0.07492009
4	0xbd9c71b8	-0.07638878
5	0x3e0cbfd6	0.13745055
6	0x3d34414a	0.044007577
7	0xbd09c21e	-0.03363239
8	0x3cd6ee64	0.02623672
9	0x3d56cf7b	0.052443963
10	0xbdda78d0	-0.106675744
11	0x3db3eeac	0.087857574
12	0x3ca44059	0.020050215
13	0x3ddb6b3f	0.10713815
14	0x3cd5db0d	0.026105428
15	0x3dfc7113	0.12326255
16	0x3d395d73	0.045255136
17	0x3d90d5c7	0.07072025
18	0xbd625487	-0.055256393
19	0x3d46f4fb	0.048573475
20	0x3d4948e3	0.049141776
21	0x3c96cb46	0.018407475
22	0x3d343ffb	0.04400633
23	0x3d2665a6	0.040624283
24	0xbddab5a3	-0.10679176
25	0xbd816ba6	-0.063193604
26	0xbdcbcc97	-0.09951132
27	0xbc7b5354	-0.015339691
28	0xbd5a590a	-0.05330757
29	0x3d451fb7	0.04812595
30	0x3d8ea78d	0.069655515
31	0x3dfcacac	0.12337622
32	0xbd13f7da	-0.03612504
33	0x3c18fd2c	0.009337705
34	0xbdeea9af	-0.11653458
35	0xbd82e30f	-0.06390964
36	0xbd2debe5	-0.042461295
37	0xbd81d968	-0.06340295
38	0xbd2efb35	-0.04272004
39	0xbdafb558	-0.085795105
40	0xbdac5fe2	-0.08416726
41	0x3dc44e75	0.09585277
42	0xbd9935ca	-0.074809626
43	0xbc8e65ca	-0.017382521
44	0xbc2913f8	-0.010319702
45	0xbcb9802e	-0.022644129
46	0x3cf4297e	0.029804941
47	0xbdc1dc39	-0.09465832
48	0x3d048935	0.032357413
49	0xbe028969	-0.1274773
50	0xbd81ced4	-0.063382775
51	0x3bd4c892	0.0064936364
52	0xbe1a83da	-0.1508936
53	0xbbbd099e	-0.0057689687
54	0xbdea5846	-0.11442618
55	0xbd0578c3	-0.03258587
56	0xbdba60bc	-0.09100482
57	0xbdec487f	-0.11537265
58	0x3db478c4	0.08812097
59	0xbd316118	-0.043305486
60	0xbd401561	-0.04689539
61	0xbd945324	-0.0724242
62	0x3d4df1fa	0.050279595
63	0x3dc3bb2e	0.09557186
64	0x3d7bc756	0.0614694
65	0x3ae02a66	0.001710248
66	0xbcb57bdb	-0.022153785
67	0xbdf7ebf9	-0.12105555
68	0xbd1cb558	-0.03825888
69	0x3d73256f	0.05936187
70	0x3c3ee6f0	0.0116517395
71	0x3cd2c3b0	0.025728077
72	0x3ddfd12d	0.10928569
73	0xbcb483a1	-0.022035422
74	0xbdd3396d	-0.103136875
75	0x3d658f10	0.05604464
76	0xbcdb349a	-0.02675848
77	0x3d2900b8	0.04126045
78	0x3ce5da5f	0.028058229
79	0x3dd7458a	0.105113104
80	0x3dc47ad7	0.09593742
81	0x3db15ce6	0.08660297
82	0xbc3fe329	-0.011711874
83	0x3dc351b5	0.09537069
84	0xbde98db9	-0.114039846
85	0xbdb5fda4	-0.08886269
86	0xb9f9b4b4	-0.00047627615
87	0x3de31265	0.11087493
88	0xbd4d8100	-0.050171852
89	0x3cfdd609	0.030985849
90	0xbdd27dc8	-0.10277897
91	0x3d99bbf7	0.075065546
92	0xbdcd0038	-0.10009807
93	0x3dcbafde	0.099456534
94	0xbdd7b3a3	-0.1053231
95	0x3da1dce3	0.07903459
96	0xbd491a58	-0.04909739
97	0x3d2b4e52	0.04182274
98	0xbd4cd65d	-0.05000912
99	0x3da72a47	0.08162361
100	0xbe11c673	-0.14235859
101	0x3dc9181e	0.09819053
102	0xbd1714c4	-0.036885038
103	0xbd6fc5c9	-0.058538232
104	0x3df23fb7	0.11828559
105	0xbd83b258	-0.06430501
106	0xbdb0aac4	-0.08626321
107	0xbe073a22	-0.1320577
108	0xbdd01112	-0.10159506
109	0x3ce93a93	0.028470313
110	0x3d482310	0.048861563
111	0xbd880ee4	-0.06643465
112	0xbda00c85	-0.07814888
113	0x3e01b66d	0.12667246
114	0xbc623f6d	-0.013809067
115	0x3dd8fc66	0.10595016
116	0x3d637296	0.0555292
117	0x3d96c4f8	0.073617876
118	0xbdc1bca1	-0.09459806
119	0x3e07025f	0.13184498
120	0xbde83519	-0.113382526
121	0xbde76ac6	-0.11299662
122	0x3d86c4a0	0.06580472
123	0x3e1ee729	0.15517868
124	0xbdefc870	-0.11708152
125	0xbe03a23a	-0.12854853
126	0xbd9b3f31	-0.07580412
127	0xb986f64c	-0.00025741977
128	0xbdb5d445	-0.08878378
129	0xbe04cfb6	-0.1296986
130	0xbcaabe84	-0.020842798
131	0x3d97aac1	0.074056156
132	0xbd7edc80	-0.062222004
133	0x3c0d9c05	0.008643155
134	0x3c073678	0.008252732
135	0x3c5e45bc	0.013566431
136	0xbe12eeaa	-0.14348856
137	0xbcf0a1af	-0.029373972
138	0xbd6a22c5	-0.057162065
139	0xbd27780e	-0.040885977
140	0x3be2e121	0.00692381
141	0xbc610f94	-0.013736624
142	0x3d903a37	0.070423536
143	0xbdbb1d9f	-0.09136509
144	0xbe09bbbd	-0.13450523
145	0x3dd08665	0.10181884
146	0x3db28276	0.0871629
147	0x3bf75025	0.007547396
148	0x3d587c45	0.052852888
149	0xbde4aa2e	-0.11165272
150	0x3d7acafd	0.06122874
151	0xbbbc6cdc	-0.0057502817
152	0x3da59eec	0.080869526
153	0xba3cfe6c	-0.00072095427
154	0xbda7183a	-0.08158918
155	0x3c9a1ace	0.01881161
156	0x3e0aeeaa	0.13567606
157	0x3dbcea74	0.09224406
158	0xbdfe065e	-0.12403558
159	0x3d031e4b	0.03201131
160	0xbdb070c8	-0.08615261
161	0x3d10e887	0.035378005
162	0x3c0a654a	0.008447001
163	0x3db753d2	0.08951534
164	0xbcfe01aa	-0.031006653
165	0x3be8cdee	0.007104627
166	0xbd26ba71	-0.040705148
167	0x3d877d0d	0.066156484
168	0xbd1fb426	-0.038990162
169	0x3dade998	0.0849182
170	0xbdd48fad	-0.103789665
171	0xbc8b4ae3	-0.017003482
172	0xbdb32c7f	-0.08748721
173	0x3dcd24bf	0.100167744
174	0x3da2571b	0.0792677
175	0xbd839d70	-0.06426513
176	0xbd64b107	-0.05583289
177	0x3ce025e7	0.027361823
178	0x3ae6202b	0.0017557194
179	0xbc2c84ed	-0.010529739
180	0xbdfd8b9a	-0.123801425
181	0xbd74cd87	-0.05976632
182	0xbc9f542e	-0.01944932
183	0xbdf233d3	-0.11826291
184	0xbde3c28d	-0.11121092
185	0xbdcfe3ba	-0.10150857
186	0xbd4108d4	-0.04712756
187	0xbdc173f8	-0.094459474
188	0x3df43b9a	0.119254306
189	0x3d131dd1	0.035917107
190	0x3c25d76b	0.01012216
191	0x3dea3dcf	0.1143757
192	0x3d22899c	0.039682016
193	0x3dbe9bab	0.09307035
194	0xbda062f0	-0.07831371
195	0xbdd4d372	-0.103918925
196	0x3d1e600d	0.03866582
197	0x3d9f16c2	0.077680126
198	0xbde72c0f	-0.112877004
199	0x3dbc860c	0.09205255
200	0xbdd66d9f	-0.10470127
201	0xbda94da8	-0.08266765
202	0xbd55322c	-0.0520498
203	0xbc1396cb	-0.00900812
204	0xbca53c67	-0.020170404
205	0xbdd60df4	-0.1045188
206	0xbdd0386e	-0.10167013
207	0x3dcdf7db	0.1005704
208	0xbdcbde98	-0.09954566
209	0xbd5b2b06	-0.053507827
210	0xbbb9bbf6	-0.0056681586
211	0x3d2ce93d	0.04221462
212	0xbd864732	-0.06556548
213	0xbccd3b6d	-0.02505275
214	0x3d0ca873	0.034340333
215	0xbe0f740d	-0.14009114
216	0x3cda22ef	0.026627986
217	0x3dddeaae	0.10835777
218	0xbdb10d43	-0.086451076
219	0x3c64ca4c	0.013964247
220	0xbdea8749	-0.11451585
221	0x3d42a4d5	0.047520477
222	0xbdb22e4e	-0.08700238
223	0x3d2e2882	0.0425191
224	0xbda3ab61	-0.07991672
225	0xbd832b44	-0.06404737
226	0x3dc13c9b	0.09435388
227	0x3d6d9e15	0.058012087
228	0xbda4e04a	-0.08050592
229	0xbd4c218e	-0.049836688
230	0x3d7deafe	0.061991684
231	0x3e03be8b	0.12865655
232	0x3c57da42	0.013174595
233	0x3dc84ac6	0.09779887
234	0x3bb1f13a	0.005430368
235	0xbdf19a3f	-0.11796998
236	0x3db24f16	0.08706491
237	0xbd9def5a	-0.07711668
238	0xbdf44ec1	-0.119290836
239	0x3de4a53b	0.11164328
240	0x3d950788	0.07276827
241	0xbd3e0b8a	-0.046397723
242	0x3e144a23	0.14481406
243	0xbcad4501	-0.021151068
244	0xbd807e07	-0.06274038
245	0x3d8c3fe6	0.06848125
246	0xbc355775	-0.011068215
247	0x3d662ef2	0.056197114
248	0x3c9e4e1e	0.019324359
249	0x3db351e3	0.08755853
250	0xbe13719b	-0.14398806
251	0xbd47efcb	-0.04881267
252	0x3cba442a	0.022737581
253	0xbdf8e322	-0.12152697
254	0x3e056cc3	0.1302977
255	0x3dfffdf3	0.12499609

output.bias f4 [43]
0	0xbdec3b4b	-0.11534747
1	0xbd905e29	-0.070492096
2	0x3da3bf10	0.07995427
3	0xbcc0b0bb	-0.023521772
4	0x3dcf161d	0.1011164
5	0x3c567263	0.013088795
6	0x3dbd0427	0.092293076
7	0xb9b2538b	-0.0003401305
8	0xbcb34638	-0.021884069
9	0xbcc3eb01	-0.02391577
10	0x3ca0375d	0.01955765
11	0xbdbdfb79	-0.0927648
12	0x3d89d05b	0.06729194
13	0x3d67a6ef	0.056555685
14	0x3cccdc66	0.025007438
15	0x3cacc743	0.02109111
16	0x3d82c820	0.06385827
17	0xbc68a39c	-0.014199164
18	0x3d2f6ef6	0.04283043
19	0xbd5d9965	-0.054101367
20	0xbca00891	-0.019535335
21	0x3d38b7a7	0.04509702
22	0xbd439ca0	-0.04775679
23	0x3d674106	0.056458496
24	0xbdbb0285	-0.0913134
25	0x3bf5c4f3	0.007500285
26	0xbb42fefa	-0.0029754029
27	0xbd667d8e	-0.056272082
28	0xbd34cc24	-0.044139996
29	0xbdfd83e8	-0.12378675
30	0xbda8216b	-0.08209499
31	0xbc1a341c	-0.009411838
32	0x3d3826c8	0.04495886
33	0xbc307a6b	-0.010771374
34	0x3d85f6e5	0.06541232
35	0x3d837565	0.064188756
36	0x3d9ac27f	0.075566284
37	0x3d32e738	0.04367754
38	0xbc1ae224	-0.00945333
39	0x3d73c3de	0.059512965
40	0xbd2a8be1	-0.041637305
41	0xbd1f28ec	-0.038857386
42	0x3d9ed8f2	0.07756223

exp_avg f4 [6, 1, 5, 5]
0	0xbcf6e86e	-0.030140128
1	0xbcfcb001	-0.030845644
2	0xbcf6b8a8	-0.030117348
3	0xbce8c934	-0.028416254
4	0xbce03b3d	-0.027371997
5	0xbcdcff8f	-0.026977329
6	0xbccfc68c	-0.02536323
7	0xbcbd36d3	-0.023097431
8	0xbcb48e1c	-0.02204042
9	0xbcbc572f	-0.022990791
10	0xbcb619cb	-0.022229096
11	0xbc911b7f	-0.017713306
12	0xbc63e9b9	-0.013910704
13	0xbc601324	-0.0136764385
14	0xbc8b9506	-0.017038833
15	0xbc8a77ea	-0.016902883
16	0xbc221b1b	-0.009894158
17	0xbbaa30f4	-0.005193824
18	0xbba9aeea	-0.005178322
19	0xbc206617	-0.009789965
20	0xbc4ba69a	-0.012429858
21	0xbb9e94b4	-0.004839504
22	0xb89c2b35	-7.4467076e-05
23	0x3a2316e2	0.00062213663
24	0xbb81db5e	-0.003962918
25	0xbb984176	-0.0046464754
26	0xbadf80bd	-0.0017051917
27	0xba9f8ab9	-0.001217208
28	0xba836932	-0.0010025857
29	0xbae507c7	-0.0017473631
30	0x38bb723c	8.938133e-05
31	0x3b987de5	0.0046536797
32	0x3bb05ad6	0.0053819222
33	0x3b8b614b	0.0042535416
34	0x3a935b1b	0.0011242362
35	0x3b7e0c97	0.0038764828
36	0x3c19253b	0.009347255
37	0x3c27b253	0.010235387
38	0x3c066fa8	0.008205332
39	0x3b5440a1	0.0032387155
40	0x3baa4dcf	0.005197264
41	0x3c2748d5	0.010210236
42	0x3c31ac80	0.01084435
43	0x3c0faa30	0.008768603
44	0x3b68262d	0.0035423145
45	0x3b35ec4c	0.0027759252
46	0x3bd186cb	0.0063942424
47	0x3bdb0ac3	0.0066846325
48	0x3bac7564	0.0052630175
49	0x3a9e84af	0.0012093986
50	0x3ba28af2	0.004960411
51	0xbb18df06	-0.0023326292
52	0xbbb86d5e	-0.005628272
53	0xbbc75a95	-0.0060837963
54	0xbb8e257b	-0.004337964
55	0x3b82176b	0.003970077
56	0xbbb4657e	-0.005505263
57	0xbc2e5749	-0.010640928
58	0xbc447b94	-0.011992354
59	0xbc199389	-0.009373554
60	0x3b89cc51	0.0042052646
61	0xbbc0fbf0	-0.0058894083
62	0xbc46da3c	-0.012136992
63	0xbc6e0c67	-0.014529324
64	0xbc4766d5	-0.012170513
65	0x3baafcdf	0.005218133
66	0xbb82e42f	-0.0039944868
67	0xbc2a771a	-0.010404373
68	0xbc5fdf62	-0.013664098
69	0xbc4a43e4	-0.012345288
70	0x3bcc4dd9	0.006234866
71	0xbaaf97a5	-0.0013396634
72	0xbbe329f4	-0.0069324914
73	0xbc25001d	-0.010070828
74	0xbc1c4992	-0.009539025
75	0xbcf53136	-0.029930692
76	0xbd00a419	-0.031406496
77	0xbce9bd6a	-0.028532702
78	0xbcb8fc9c	-0.022581391
79	0xbc7da6e1	-0.015481682
80	0xbcfbb3ad	-0.030725325
81	0xbce62b02	-0.02809668
82	0xbcb93d81	-0.022612335
83	0xbc813324	-0.015771456
84	0xbc221546	-0.009892767
85	0xbce77322	-0.028253142
86	0xbcb22d6f	-0.02175018
87	0xbc66a5aa	-0.014077583
88	0xbbe70be9	-0.0070509803
89	0xbb6abc10	-0.003581766
90	0xbcb5a7fe	-0.022174831
91	0xbc4afbbb	-0.012389119
92	0xbb6d56a9	-0.0036214984
93	0x3b136129	0.0022488332
94	0x3b32dd0f	0.0027292406
95	0xbc5ee2da	-0.01360389
96	0xbaf52a2f	-0.0018704588
97	0x3bd136f3	0.0063847243
98	0x3c27036b	0.010193686
99	0x3c010f9e	0.007877259
100	0xbc843e3f	-0.016142963
101	0xbc62cc53	-0.01384266
102	0xbc434f51	-0.011920766
103	0xbc24a940	-0.010050118
104	0xbc00a090	-0.007850781
105	0xbc54f08a	-0.012996802
106	0xbc00577d	-0.007833359
107	0xbb8e8cca	-0.0043502795
108	0xbb3d219c	-0.0028859144
109	0xbb3d885b	-0.0028920386
110	0xbc150a0f	-0.009096636
111	0xbae5a5be	-0.0017520708
112	0x3b2ab19f	0.0026045812
113	0x3b65e115	0.0035076786
114	0x3abc16ee	0.0014350095
115	0xbbb63819	-0.0055608866
116	0x3b3efac7	0.0029141174
117	0x3bf1a812	0.007374772
118	0x3bfb82de	0.0076755127
119	0x3b8c5123	0.004282133
120	0xbb628a0a	-0.003456714
121	0x3b9cd775	0.0047864267
122	0x3c0c88c6	0.008577531
123	0x3c07f0f7	0.008297197
124	0x3b8c89b4	0.0042888764
125	0x3cc06517	0.023485703
126	0x3cd72f5b	0.026267698
127	0x3cd46b18	0.025929973
128	0x3cc4c75d	0.024020845
129	0x3cb8edaf	0.022574274
130	0x3ca62d54	0.020285286
131	0x3ca8e33a	0.020616163
132	0x3c9decbc	0.019277923
133	0x3c931f97	0.0179594
134	0x3c961fd3	0.018325722
135	0x3c77cef5	0.015125026
136	0x3c568677	0.013093582
137	0x3c388548	0.0112622455
138	0x3c33e7e0	0.010980576
139	0x3c5726fa	0.013131851
140	0x3c119aa6	0.008886969
141	0x3ba9430a	0.0051654624
142	0x3b4d94ec	0.0031369282
143	0x3b5c10e6	0.0033579408
144	0x3bd77fd7	0.006576519
145	0x3b66532d	0.0035144791
146	0xba8d3e0c	-0.0010775938
147	0xbb547c05	-0.0032422554
148	0xbb4656df	-0.0030264182
149	0x3a323bfa	0.00067990983

exp_avg_sq f4 [6, 1, 5, 5]
0	0x394c9cc8	0.00019513362
1	0x394889b2	0.00019124782
2	0x39409a15	0.00018367947
3	0x3939f071	0.00017732546
4	0x39410f76	0.00018411674
5	0x390c4028	0.0001337534
6	0x39044753	0.00012615071
7	0x38f97e9f	0.0001189683
8	0x38eced7a	0.000112975904
9	0x39034383	0.00012518284
10	0x38b9c732	8.8585904e-05
11	0x38a506df	7.869093e-05
12	0x389e6bfb	7.55414e-05
13	0x3891f2ab	6.959339e-05
14	0x38a6eef8	7.960008e-05
15	0x38961a24	7.1574264e-05
16	0x386188ab	5.3771462e-05
17	0x385955cc	5.1816736e-05
18	0x38496ca4	4.8023314e-05
19	0x3866dd96	5.504264e-05
20	0x38afba2a	8.379326e-05
21	0x3852dc18	5.027288e-05
22	0x38344328	4.297789e-05
23	0x3835ee2b	4.3375574e-05
24	0x386698fd	5.4978755e-05
25	0x3819267a	3.6513877e-05
26	0x37edeab9	2.8361903e-05
27	0x3803630f	3.132509e-05
28	0x383f417b	4.5598932e-05
29	0x389d9dde	7.5157484e-05
30	0x38006521	3.061176e-05
31	0x37c270aa	2.3179065e-05
32	0x37b8d157	2.203199e-05
33	0x37eb0e4a	2.8020837e-05
34	0x38486116	4.7774134e-05
35	0x38289d8b	4.0201045e-05
36	0x3808a3b0	3.2577373e-05
37	0x37ebc370	2.810519e-05
38	0x37eee320	2.8477574e-05
39	0x382bed35	4.0990493e-05
40	0x3886c4ac	6.426251e-05
41	0x3858d36c	5.1695315e-05
42	0x383228e5	4.2476593e-05
43	0x3828a646	4.0209175e-05
44	0x38568f9d	5.1155326e-05
45	0x38ec2b83	0.000112614616
46	0x38bd82b8	9.0365706e-05
47	0x3898d383	7.287322e-05
48	0x38875d53	6.4546846e-05
49	0x3895de00	7.1462244e-05
50	0x38cf12dc	9.874042e-05
51	0x3889110e	6.535846e-05
52	0x384853ff	4.7761943e-05
53	0x383e1463	4.5318517e-05
54	0x38873ea6	6.448971e-05
55	0x38b2a379	8.5181506e-05
56	0x386b9358	5.616559e-05
57	0x383b3e88	4.464251e-05
58	0x38281887	4.0077164e-05
59	0x38485b54	4.776877e-05
60	0x38c602cf	9.441899e-05
61	0x3886def9	6.43115e-05
62	0x38635641	5.4201348e-05
63	0x38566fd4	5.1125724e-05
64	0x386719ca	5.509871e-05
65	0x39022bd7	0.00012414098
66	0x38c061a0	9.1734575e-05
67	0x38a69632	7.943473e-05
68	0x38a2d5e0	7.764599e-05
69	0x38ac1157	8.204829e-05
70	0x3935a344	0.00017322326
71	0x391965ec	0.00014629186
72	0x390ab024	0.00013226323
73	0x3905cb13	0.0001275952
74	0x39077ee4	0.00012921874
75	0x395d299d	0.00021091705
76	0x394727e6	0.00018992982
77	0x3928eb5e	0.0001610941
78	0x390d5405	0.00013478108
79	0x38f6ab0e	0.000117620555
80	0x3934d301	0.00017244743
81	0x3915800b	0.00014257447
82	0x38f93bb2	0.00011884364
83	0x38d67c81	0.00010227506
84	0x38bb29c8	8.924637e-05
85	0x3908342e	0.00012989409
86	0x38e55e12	0.00010937093
87	0x38d792b9	0.00010279328
88	0x38c9566c	9.600524e-05
89	0x38a4e543	7.862833e-05
90	0x38db7514	0.00010464541
91	0x38d1b687	9.999895e-05
92	0x38e2c5a6	0.00010813335
93	0x38dbade6	0.00010475125
94	0x38aa42f9	8.118706e-05
95	0x38bd46f9	9.025442e-05
96	0x38cae3d5	9.6745476e-05
97	0x38ead4c1	0.00011197618
98	0x38e7d4ef	0.000110546
99	0x38bb834d	8.9413115e-05
100	0x38c23f4f	9.262433e-05
101	0x3899c025	7.331398e-05
102	0x388252fa	6.214339e-05
103	0x3864ff58	5.4597243e-05
104	0x387207a9	5.770443e-05
105	0x38826a88	6.218726e-05
106	0x38472425	4.747896e-05
107	0x3837dbba	4.3835236e-05
108	0x3821164b	3.8406153e-05
109	0x381f73a5	3.8016256e-05
110	0x3843ead0	4.671031e-05
111	0x3824da14	3.9303748e-05
112	0x38357eb8	4.327178e-05
113	0x3828940f	4.019221e-05
114	0x3818c65b	3.6424357e-05
115	0x3833a7fb	4.283337e-05
116	0x3820a7cf	3.8303257e-05
117	0x383fe717	4.5753168e-05
118	0x38438073	4.661125e-05
119	0x38415fa3	4.6103854e-05
120	0x386884f0	5.5436918e-05
121	0x3845fa8e	4.7201807e-05
122	0x3858fb78	5.173261e-05
123	0x38688942	5.544094e-05
124	0x3885220f	6.348278e-05
125	0x39320bbb	0.00016979773
126	0x39420fcb	0.00018507165
127	0x39466533	0.00018920451
128	0x3946a2a9	0.00018943347
129	0x394a9310	0.00019319006
130	0x38f906f5	0.00011874541
131	0x390318e9	0.00012502413
132	0x3904523d	0.00012619137
133	0x3907de85	0.00012957498
134	0x39144a23	0.00014141998
135	0x38b85a5f	8.790637e-05
136	0x38bbd38e	8.95626e-05
137	0x38b90929	8.823194e-05
138	0x38b95c98	8.838734e-05
139	0x38ce3151	9.832031e-05
140	0x3897afa6	7.232958e-05
141	0x38935f17	7.027218e-05
142	0x388d2ade	6.7313886e-05
143	0x3885a95b	6.373479e-05
144	0x389248a7	6.975355e-05
145	0x389a1e38	7.348921e-05
146	0x38868200	6.413832e-05
147	0x387a5a81	5.9688933e-05
148	0x386c5846	5.6348996e-05
149	0x3882e283	6.241074e-05

exp_avg f4 [6]
0	0x3bab982a	0.005236645
1	0xbc1b15e7	-0.009465671
2	0x3be22ec9	0.00690255
3	0x3c609521	0.01370743
4	0xbb2f86dd	-0.0026783266
5	0xb9a485cd	-0.00031380207

exp_avg_sq f4 [6]
0	0x38b7a513	8.7568675e-05
1	0x380ca2c1	3.3530177e-05
2	0x38701e0f	5.7248453e-05
3	0x38f90503	0.00011874179
4	0x384783a5	4.75679e-05
5	0x3896b830	7.186865e-05
