weights/weight_after_step20_9.pth (torch, 783165 bytes, 30 tensors)

conv1.weight f4 [6, 1, 5, 5]
0	0x3e7ebd2c	0.24876851
1	0x3d045dfa	0.032316186
2	0x3a413c80	0.0007371381
3	0x3e4848b3	0.19558983
4	0x3e4a02e2	0.19727662
5	0x3e4d41c9	0.20044626
6	0x3d704a0f	0.058664378
7	0xbe02af39	-0.12762155
8	0xbd3c9775	-0.04604288
9	0x3e68440c	0.22682208
10	0xbc36bb59	-0.011153066
11	0xbd17d1ad	-0.037065197
12	0xbe73011f	-0.23730896
13	0x3d6690ac	0.056290314
14	0xbe15d27e	-0.14631078
15	0x3d9d960b	0.07694634
16	0xbe222d7f	-0.15837668
17	0xbe5bdccd	-0.21470948
18	0xbe0de468	-0.13856661
19	0xbc43564d	-0.011922431
20	0xbe258190	-0.16162705
21	0xbe53474e	-0.2063267
22	0xbe292301	-0.16517259
23	0xbcf2174a	-0.02955212
24	0x3bb7ca5e	0.005608841
25	0xbc755e61	-0.014976115
26	0xbdf4d8af	-0.119553916
27	0xbd8c576f	-0.06852614
28	0xbc00672a	-0.007837096
29	0x3da47c83	0.08031561
30	0xbcdc319b	-0.026879122
31	0xbe7a61d0	-0.24451375
32	0xbe4186e1	-0.18899108
33	0xbe260330	-0.16212153
34	0x3da76ad0	0.0817467
35	0xbe498f62	-0.19683602
36	0xbd14f12e	-0.03636282
37	0x3c3bd49a	0.011464262
38	0x3e23063b	0.15920345
39	0x3e086d77	0.13323008
40	0x3b4bf50e	0.0031121406
41	0xbe2563a5	-0.16151293
42	0xbe5f89a8	-0.21829855
43	0x3d0c5ad1	0.034266297
44	0x3dbc5783	0.09196379
45	0x3e4ccb70	0.1999948
46	0x3e3b2dc0	0.18279171
47	0xbdc8d9d7	-0.09807175
48	0x3dc34308	0.095342696
49	0xbc47fa69	-0.0122056985
50	0x3d0b44cc	0.034001157
51	0x3e3b3bd4	0.18284541
52	0x3e4a0f75	0.19732459
53	0x3e075a18	0.13217962
54	0x3dabc2a2	0.08386733
55	0xbe708b5f	-0.23490666
56	0x3e3bc42e	0.18336555
57	0xbd0ef35e	-0.03490006
58	0x3ddb91f3	0.10721197
59	0x3e27794d	0.16354866
60	0x3d9760ec	0.07391533
61	0xbcdba8ad	-0.02681383
62	0x3d947ceb	0.07250389
63	0x3e5292c4	0.20563799
64	0xbd879d07	-0.066217475
65	0xbd14aed1	-0.03629953
66	0xbe4b718d	-0.19867535
67	0x3e10890b	0.14114778
68	0x3e1c9f83	0.15295224
69	0x3df9b6a8	0.12193042
70	0xbea50a98	-0.32234645
71	0xbdb022a0	-0.08600354
72	0xbb8fd987	-0.004389945
73	0xbd6e107c	-0.05812119
74	0xbe1203ee	-0.14259312
75	0x3de40c9d	0.11135218
76	0x3e660011	0.22460963
77	0xbbec38cf	-0.0072089205
78	0x3e7c2d5e	0.24626681
79	0x3d4c6a9c	0.049906358
80	0x3e9cc076	0.30615586
81	0x3e0c84fc	0.13722605
82	0x3e12a1f2	0.1431959
83	0xbe0f07f2	-0.13967875
84	0xbe1f2598	-0.15541685
85	0x3d828107	0.06372266
86	0xbcfe5d33	-0.0310503
87	0xbe5b9991	-0.214453
88	0x3da9381c	0.08262655
89	0xbdba76f0	-0.09104717
90	0x3e512606	0.20424661
91	0xbe3e4b0e	-0.18583319
92	0xbe8c0545	-0.2734777
93	0x3d2b7ccf	0.041867074
94	0xbe8c49be	-0.2740001
95	0xbe253cc9	-0.16136469
96	0xbcc0ab29	-0.023519116
97	0xbe135028	-0.14386046
98	0xbd70e835	-0.0588152
99	0xbd6b3e6a	-0.05743257
100	0x3d790733	0.06079788
101	0x3df83978	0.12120336
102	0xbdbe2b32	-0.092855826
103	0x3e3a04dd	0.18165918
104	0xbd9db795	-0.07701031
105	0x3bf8c9d8	0.007592421
106	0xbe681951	-0.22665907
107	0xbe8699a6	-0.262891
108	0xbd3641ff	-0.044496533
109	0x3d7a4d85	0.061109085
110	0xbe210bb0	-0.15727115
111	0x3deae650	0.1146971
112	0xbe02f47a	-0.12788573
113	0x3cb81782	0.022472147
114	0xbe19bb9d	-0.15012975
115	0x3e405053	0.18780641
116	0x3de58b5a	0.1120822
117	0x3c0afb88	0.008482821
118	0xbde0c145	-0.10974363
119	0xbe32f51f	-0.17476319
120	0xbdf3e5f4	-0.119090945
121	0xbdc61fdd	-0.09674046
122	0xbe6b6b36	-0.22990116
123	0xbcd3fb67	-0.025876714
124	0x3e294179	0.16528882
125	0xbe81dea2	-0.25365168
126	0xbe71c239	-0.23609246
127	0xbd59681f	-0.053077813
128	0xbe067585	-0.13130768
129	0xbe907832	-0.28216702
130	0x3e328f57	0.17437492
131	0x3dc11826	0.09428434
132	0xbd30fedb	-0.0432118
133	0xbd80594c	-0.06267032
134	0x3d98d583	0.07462599
135	0x3d116e67	0.03550568
136	0x3dcee540	0.1010232
137	0xbceee00a	-0.029159565
138	0x3d1416ce	0.03615456
139	0x3dd80002	0.105468765
140	0x3dbb6e8a	0.09151943
141	0x3d8d1104	0.06888011
142	0x3e28b3e8	0.16474879
143	0x3e74dc69	0.23912205
144	0x3d1fb1df	0.03898799
145	0x3e34d6c4	0.17660052
146	0x3e040ebe	0.12896249
147	0xbcfa530d	-0.03055718
148	0xbd4cc46e	-0.049992017
149	0xbd22b8e6	-0.039727114

conv1.bias f4 [6]
0	0x3d03edb6	0.03220912
1	0x3e4a52d1	0.19758154
2	0xbd6cd7bd	-0.05782293
3	0x3ce119c8	0.027478114
4	0xbd2e3bad	-0.04253738
5	0xbe584036	-0.21118245

conv2.weight f4 [16, 6, 5, 5]
0	0x3cd28811	0.025699647
1	0x3dc309af	0.095233314
2	0xbcad2604	-0.021136291
3	0xbc51b0d1	-0.012798504
4	0xbd76d578	-0.060262173
5	0x3e184349	0.14869417
6	0x3daeb787	0.08531099
7	0xbd25a10f	-0.0404368
8	0xbd2d809f	-0.04235899
9	0xbcd31f52	-0.02577177
10	0x3d9658c1	0.07341147
11	0xbbfcc286	-0.0077136187
12	0xbbb73bda	-0.0055918517
13	0xbd082496	-0.033238016
14	0xbd1ae45e	-0.037815444
15	0xbc02e2c2	-0.007988634
16	0x3e0d65fc	0.13808435
17	0x3c0eba0b	0.008711348
18	0xbb5dc6a5	-0.0033840325
19	0xbdbfcb80	-0.093649864
20	0xbc999f13	-0.01875261
21	0x3dbed251	0.093174584
22	0x3d3c2213	0.045930933
23	0x3d462675	0.04837652
24	0xbd3fbb74	-0.04680963
25	0x3d266acd	0.040629197
26	0x3dfaab7e	0.12239741
27	0x3e03c784	0.12869078
28	0x3da4d768	0.08048898
29	0x3d3141ab	0.043275516
30	0x3b698652	0.003563304
31	0x3d7cecb4	0.061749175
32	0xbc6fa4ac	-0.014626663
33	0x3ca7730b	0.020440599
34	0xbdb0c928	-0.086321175
35	0x3da45b3c	0.08025214
36	0x3d795c29	0.060878906
37	0x3d646499	0.05576
38	0xbd41c350	-0.047305405
39	0xbdc8905f	-0.097931616
40	0x3dcfcb53	0.10146203
41	0x3dcad5ac	0.09904036
42	0x3c7d06c8	0.015443511
43	0xbe19f3eb	-0.15034454
44	0xbe14813d	-0.14502425
45	0x3e0b016f	0.13574766
46	0x3df8d2ce	0.12149583
47	0x3d0cf7db	0.03441606
48	0xbe0d0ea2	-0.13775113
49	0xbd9878c5	-0.0744491
50	0xbd42f93b	-0.047600966
51	0x3b919e0e	0.0044438904
52	0xbddf09dd	-0.10890553
53	0x3c8452db	0.01615279
54	0xbd7fe1a1	-0.062471036
55	0xbd36a635	-0.0445921
56	0xbd21a829	-0.03946701
57	0xbdb455d9	-0.08805437
58	0x3d84b634	0.06480065
59	0xbd567571	-0.052358095
60	0xbde2ea54	-0.11079851
61	0xbdafbcf0	-0.08580959
62	0x3bc813d9	0.0061058817
63	0x3e005311	0.12531687
64	0xbd6c4f2b	-0.057692688
65	0xbd46e89b	-0.048561674
66	0x3d2aa87e	0.041664593
67	0x3dda2d15	0.1065313
68	0x3e1dd2d2	0.15412453
69	0x3db059bc	0.086108655
70	0xbe1d6b3e	-0.15372941
71	0xbdbb3a33	-0.0914196
72	0x3e193bf1	0.14964272
73	0x3e096dbe	0.1342077
74	0xbd62a280	-0.055330753
75	0x3d85538c	0.06510076
76	0x3d836e3e	0.064175114
77	0xbd4b2bcd	-0.04960232
78	0xbd97e779	-0.07417197
79	0xbd1be8b9	-0.03806374
80	0x3d8b68a3	0.06807067
81	0xbdba7daf	-0.091060035
82	0xbe3ee604	-0.18642431
83	0xbdb72bb7	-0.08943885
84	0xbdb3b3a9	-0.08774502
85	0x3d2be32c	0.041964695
86	0xbd7cc518	-0.0617114
87	0xbe069bbd	-0.13145347
88	0xbe129a10	-0.14316583
89	0xbd88ce37	-0.06679957
90	0x3dadc0b1	0.084840186
91	0xbdcc9f11	-0.09991277
92	0xbd850e0d	-0.064968206
93	0xbdee7973	-0.11644258
94	0x3df94806	0.121719405
95	0x3d44cc41	0.048046354
96	0xbd96885d	-0.07350228
97	0xbd8c757c	-0.06858346
98	0x3d8148c7	0.06312709
99	0x3b539cb2	0.0032289443
100	0x3c2f7380	0.01070869
101	0x3d51655f	0.051122066
102	0x3d33f5cc	0.043935582
103	0xbd9edb22	-0.0775664
104	0xbd675e0a	-0.056486167
105	0x3d9fb281	0.07797719
106	0x3db4373a	0.08799596
107	0xbd08d2ed	-0.03340428
108	0xbdd88e37	-0.10574
109	0xbda7d359	-0.08194608
110	0x3de9458e	0.1139022
111	0xbd113d2b	-0.035458725
112	0xbdb93d2a	-0.09044869
113	0xbd6aa066	-0.057281874
114	0xbd9b2ac8	-0.07576519
115	0x3d42de9d	0.04757558
116	0x3d950da5	0.07277993
117	0xbdbe5db3	-0.092952155
118	0xbdb4df45	-0.08831648
119	0x3d117491	0.035511557
120	0xbc0222ee	-0.007942898
121	0x3a70f785	0.0009192157
122	0xbddd0349	-0.10791642
123	0xbdf7b004	-0.12094119
124	0x3cc1b1eb	0.023644408
125	0xbd872aa9	-0.06599934
126	0xbe01c7c3	-0.1267386
127	0xbd8cb94a	-0.068712786
128	0xbd7c3370	-0.061572492
129	0xbd385bd1	-0.045009438
130	0xbe0d8593	-0.13820486
131	0xbdcfbd6e	-0.10143553
132	0x3cac879c	0.021060757
133	0x3cf4b5a3	0.029871767
134	0x3e08c324	0.1335569
135	0xbc343813	-0.010999697
136	0x3c392220	0.01129964
137	0x3d28537a	0.041095234
138	0x3cbacccf	0.022802738
139	0x3d0190ea	0.03163234
140	0xbc5c2ade	-0.013437955
141	0xbd0716fc	-0.032980904
142	0x3c5affbe	0.013366638
143	0x3c260b6b	0.010134558
144	0x3cd90461	0.026491346
145	0x3c2e1c17	0.010626814
146	0xbd950ba5	-0.07277612
147	0xbd570736	-0.05249711
148	0xbdabdeaf	-0.08392083
149	0xbc9a4523	-0.018831795
150	0x3ddf5c1e	0.10906242
151	0x3d175980	0.03695059
152	0x3dd88536	0.10572283
153	0x3dedad2a	0.11605294
154	0x3dfc83e8	0.123298466
155	0xbe144230	-0.14478374
156	0xbd472783	-0.048621666
157	0xbd91c566	-0.07117729
158	0x3d876840	0.06611681
159	0x3dd553ca	0.10416372
160	0xbe166a1f	-0.1468892
161	0xbd9cb40a	-0.07651527
162	0xbe22529b	-0.15851824
163	0xbda2dfd7	-0.0795285
164	0xbba906e6	-0.005158293
165	0xbd3b38ed	-0.045708586
166	0x3d72dd73	0.05929322
167	0xbcf673bd	-0.030084485
168	0xbd8a3765	-0.06748847
169	0xbdd610aa	-0.10452397
170	0x3c3eb510	0.011639848
171	0x3df05df9	0.11736674
172	0x3d546539	0.051854346
173	0xbd897a46	-0.06712775
174	0xbde6e816	-0.11274736
175	0x3c891120	0.016731799
176	0x3dd5a555	0.10431925
177	0x3bb33dd1	0.0054700156
178	0xbc3162c3	-0.010826769
179	0x3d53293e	0.051553003
180	0x3ca8608a	0.020553846
181	0x3db8d0ee	0.09024225
182	0x3dac5423	0.08414485
183	0x3e041421	0.12898304
184	0x3d1aae06	0.037763618
185	0xbde403b2	-0.11133517
186	0xbb9a51b0	-0.004709445
187	0xbb9e08f1	-0.0048228432
188	0x3c9d4bae	0.019201126
189	0x3d891088	0.06692606
190	0xbcc9c2c0	-0.024628997
191	0xbe2f9a07	-0.171486
192	0xbd8ea382	-0.069647804
193	0xbdc8e7d9	-0.098098464
194	0xbda9a6a0	-0.08283734
195	0xbd14eeb2	-0.03636045
196	0xbd4fe03c	-0.050750956
197	0xbd277cae	-0.04089039
198	0x3c2e8115	0.010650893
199	0xbd8daf3c	-0.06918189
200	0xbe0d937f	-0.13825797
201	0xbc99e21e	-0.018784579
202	0xbde5def3	-0.11224165
203	0x3c9c6e56	0.019095581
204	0xbda5b084	-0.08090308
205	0xbdd20bd0	-0.10256159
206	0xbdf36274	-0.11884013
207	0xbcf7b4ff	-0.030237673
208	0xbd9d3abe	-0.0767722
209	0xbe1a6a40	-0.15079594
210	0x3d75998f	0.059960898
211	0x3c1a17dc	0.009405103
212	0xbdc6f856	-0.09715335
213	0xbe2af129	-0.16693558
214	0xbe1a6cc3	-0.15080552
215	0x3e052d5e	0.13005587
216	0x3d81f37a	0.063452676
217	0xbd1846ae	-0.03717678
218	0xbd6b1834	-0.05739613
219	0xbc388857	-0.011262975
220	0x3db136d0	0.08653033
221	0xbc508d46	-0.012728995
222	0x3e03835f	0.12843083
223	0x3d007784	0.03136398
224	0xbc8fd98f	-0.017559795
225	0x3c24bcb7	0.010054759
226	0x3d62437a	0.055240132
227	0x3e2fa763	0.17153697
228	0x3e3ecdd7	0.18633209
229	0x3e00bc6d	0.12571879
230	0xbdd0a43f	-0.101875775
231	0xbd823cdb	-0.063592635
232	0x3d5d21c9	0.0539873
233	0x3dc7535e	0.09732698
234	0x3d587f07	0.052855518
235	0xbe210aec	-0.15726823
236	0xbe2c5be6	-0.16831931
237	0xbe0424bc	-0.12904638
238	0xbdcbe19c	-0.09955141
239	0xbd322876	-0.043495618
240	0x3d613942	0.054986246
241	0x3de998e6	0.11406116
242	0x3dd28ffd	0.1028137
243	0xbdeb3d22	-0.114862695
244	0xbd1f967d	-0.038961876
245	0x3e16259a	0.14662781
246	0x3dfc55ee	0.12321077
247	0x3d03ad05	0.032147426
248	0x3d3ce20d	0.046114016
249	0x3d8c3487	0.06845956
250	0x3ddd3de5	0.10802821
251	0x3e053cc7	0.13011466
252	0x3ddb498c	0.10707387
253	0x3daabd8c	0.083369344
254	0x3e221b7a	0.15830794
255	0xbc83a0c7	-0.016067876

conv2.bias f4 [16]
0	0x3ddbab1d	0.10725997
1	0xbd729f18	-0.059233755
2	0xbcf85f8b	-0.030318996
3	0x3e37531e	0.179028
4	0xbde1189a	-0.109910205
5	0x3dbb3cde	0.09142469
6	0x3d3bec48	0.045879632
7	0x3e0008fd	0.12503429
8	0x3dbde993	0.09273066
9	0x3d1df70a	0.038565673
10	0xbd33067c	-0.043707356
11	0x3ddbd28f	0.1073352
12	0x3de5cb0f	0.11220371
13	0x3b9baf1c	0.0047510993
14	0x3d9bdc06	0.076103255
15	0xbdef29e2	-0.116779104

conv3.weight f4 [120, 16, 5, 5]
0	0xbbc461df	-0.0059931125
1	0x3cd585ad	0.026064718
2	0x3c89a4e0	0.016802251
3	0xbd31e359	-0.043429706
4	0xbce79221	-0.028267922
5	0x3cd32b35	0.025777439
6	0xba18ac1b	-0.00058239856
7	0xbd20e03e	-0.039276354
8	0xbc97559d	-0.01847344
9	0xbd45358f	-0.04814678
10	0x3d96f45f	0.07370829
11	0xbd704a57	-0.058664646
12	0xbdb977dc	-0.090560645
13	0x3e178e8a	0.14800468
14	0x3b2a7f39	0.0026015772
15	0x3cc232fd	0.023705954
16	0xbda9a7ec	-0.08283982
17	0xbdb21f4e	-0.08697377
18	0xbb131b4e	-0.0022446695
19	0x3c35b984	0.011091594
20	0x3d208e75	0.039198358
21	0x3b78ed13	0.0037983104
22	0x3d9fd88a	0.078049734
23	0xbca449be	-0.020054694
24	0x3d023a28	0.031793743
25	0xbd411ec0	-0.047148466
26	0xbcd5200d	-0.02601626
27	0xbce1b5d8	-0.02755253
28	0xbcab15f1	-0.020884486
29	0xbc92ac23	-0.017904347
30	0xbc4b9a75	-0.012426962
31	0xbc8eb7a8	-0.017421558
32	0xbd512056	-0.05105623
33	0xbd6ce0bd	-0.057831515
34	0xbd1e0253	-0.038576435
35	0x3d8a06c1	0.067395695
36	0x3df0c248	0.11755806
37	0x3a80505a	0.0009789572
38	0xbd3193d5	-0.043353874
39	0x3dc59920	0.09648347
40	0xbda81577	-0.08207219
41	0x3d192d78	0.037396878
42	0x3caa7ea4	0.02081234
43	0xbd839afa	-0.06426044
44	0xbd98637d	-0.07440851
45	0xbc8f6280	-0.017503023
46	0xbc24f71d	-0.010068682
47	0x3df663e5	0.12030772
48	0x3e064f59	0.13116206
49	0x3cbe3078	0.023216471
50	0x3d88b5a0	0.06675267
51	0xbb3dd791	-0.00289676
52	0x3d096997	0.033547964
53	0x3d87b64a	0.06626566
54	0x3d87fdbb	0.06640192
55	0x3d08c79d	0.03339349
56	0xbdd32a72	-0.1031083
57	0xbb8be3a1	-0.004269079
58	0x3d335079	0.043777917
59	0xbdc4c5bb	-0.096080266
60	0x3ce4a5ba	0.027911056
61	0x3da59aee	0.08086191
62	0x3c038b34	0.008028794
63	0xbc703324	-0.01466063
64	0x3d9521c1	0.07281829
65	0x3cbd03e3	0.023073142
66	0x3ca2ff6a	0.019897182
67	0xbcb9b912	-0.022671256
68	0xbceba47d	-0.028764958
69	0x3d461c4c	0.04836683
70	0xbc9b4e96	-0.018958371
71	0xb97b4afd	-0.0002396516
72	0x3d05bc6c	0.032650396
73	0xbda84811	-0.082168706
74	0x3ca7c133	0.020477867
75	0x3cfb3ed6	0.030669611
76	0x3d5ac6f0	0.053412378
77	0xbd1e3c4e	-0.03863173
78	0xbb495b23	-0.0030724488
79	0x3c1e2be2	0.009654017
80	0xbd2d496d	-0.042306352
81	0x3da551bb	0.080722295
82	0xbcb74071	-0.022369595
83	0xbd042e72	-0.032270856
84	0x3d4d25e5	0.050084967
85	0xbd14c32e	-0.03631895
86	0xbccfba56	-0.025357407
87	0x3d6a7b09	0.05724624
88	0x3d169ff9	0.036773656
89	0x3d0e4652	0.03473503
90	0xbd6b4701	-0.05744076
91	0xbdb83607	-0.0899468
92	0x3d4055ee	0.04695695
93	0x3da92a03	0.08259966
94	0x3c0c3e73	0.008559811
95	0x3beeb6d2	0.0072849775
96	0xbd6b4d53	-0.05744679
97	0x3c690d18	0.014224313
98	0x3df0d595	0.117594875
99	0x3c3d335c	0.01154789
100	0xbd0abf14	-0.033873633
101	0xbb2e81c9	-0.002662765
102	0xbcfe649e	-0.031053837
103	0xbd1767b4	-0.036964133
104	0xbd87c1cd	-0.066287614
105	0xbd0d97ef	-0.034568723
106	0xbc82b774	-0.015956618
107	0xbdf03951	-0.11729682
108	0x3c9f56a5	0.019450495
109	0xbbd3b0a7	-0.0064602676
110	0x3d23de28	0.040006787
111	0xbd90667f	-0.070507996
112	0xbda13222	-0.0787089
113	0x3daeca74	0.085347086
114	0x3c45deda	0.012077058
115	0xbccaf131	-0.024773212
116	0xbd0a15bd	-0.033712137
117	0x3d262a73	0.040567826
118	0x3d2ed978	0.042687863
119	0xbd081f9c	-0.03323327
120	0x3bf86ddd	0.007581456
121	0x3cdebf45	0.027190814
122	0x3c659732	0.014013099
123	0xbb5de02a	-0.0033855536
124	0x3d320e2d	0.04347055
125	0x3c4577ad	0.012052459
126	0x3d1ec546	0.038762353
127	0x3d726a52	0.059183426
128	0x3cf2e5b3	0.029650545
129	0xbd04d42f	-0.032428917
130	0x3c0f5ed0	0.008750632
131	0x3d493e7a	0.049131848
132	0xbd9a1eb4	-0.075253874
133	0xbdcc7970	-0.099841
134	0xbdaecc21	-0.08535028
135	0x3d6aef37	0.05735704
136	0xbc2e2e98	-0.010631226
137	0xbd7f5e76	-0.062345944
138	0xbc443c32	-0.011977242
139	0x3d063ad4	0.032770947
140	0x3c96e34f	0.018418936
141	0xbdb45284	-0.08804801
142	0xbd41209d	-0.047150243
143	0x3d66ae95	0.05631884
144	0xbd97af64	-0.074065
145	0x3ca7c7f0	0.02048108
146	0xbc7adc6e	-0.015311344
147	0x3c9d63ee	0.01921269
148	0x3d88d0b6	0.066804335
149	0x3d120638	0.035650462
150	0xbc3912d2	-0.011295991
151	0xbd0deb4d	-0.03464823
152	0x3d2bcedf	0.041945335
153	0x3c7d42e9	0.015457847
154	0x3cd1d672	0.02561495
155	0xbd2eef6e	-0.042708807
156	0x3dad6be9	0.08467848
157	0xbd783657	-0.060598698
158	0xbd69e65f	-0.057104465
159	0x3cb1c36a	0.021699626
160	0x3ca5cdb2	0.020239685
161	0x3dbeee6e	0.093228206
162	0xbcf9c367	-0.030488683
163	0xbd5ffb5f	-0.054683086
164	0x3d953b8d	0.07286749
165	0xbc73bcdc	-0.014876571
166	0x3c0a2184	0.008430842
167	0xbc290273	-0.010315525
168	0xbda8e7ab	-0.08247312
169	0xbc9e02df	-0.019288478
170	0xbd24e24b	-0.040254872
171	0xb9ad4c1e	-0.00033053843
172	0x3c427b11	0.011870162
173	0x3d3f9712	0.04677493
174	0x3c8b2aeb	0.016988238
175	0x3bbc85e4	0.0057532657
176	0xbc8baad3	-0.017049229
177	0xbcab0ecf	-0.020881085
178	0xbcf948f5	-0.030430296
179	0xbdd19d8b	-0.10235127
180	0x3cdd09b7	0.026982171
181	0xbcb740ff	-0.02236986
182	0xbdb3b55d	-0.08774827
183	0x3c910f03	0.017707353
184	0x3da1a0e4	0.078920156
185	0xbb9fefd7	-0.004880886
186	0xbd0edba8	-0.03487745
187	0x3c3f3c35	0.011672069
188	0x3d99aedf	0.07504057
189	0x3d9cf13d	0.076632
190	0x3d3b569c	0.045736894
191	0x3d618042	0.055053957
192	0x3dc0613c	0.09393546
193	0x3da32744	0.07966474
194	0xbd0b632b	-0.03403012
195	0x3a840f76	0.0010075408
196	0xba47d69d	-0.00076232274
197	0x3dbd639e	0.09247516
198	0x3cb29162	0.02179784
199	0x3b2424ed	0.0025046424
200	0x3b2d8dad	0.002648215
201	0xbd985581	-0.074381836
202	0x3cb33aaf	0.021878568
203	0xba4053f4	-0.0007336729
204	0xbc89a02f	-0.016800014
205	0x3d2a78d8	0.04161915
206	0xbdca3dd2	-0.098750725
207	0xbd9866ca	-0.074414805
208	0xbd14b6de	-0.03630721
209	0xbd2d7678	-0.04234931
210	0x3d85aa9f	0.06526684
211	0x3ce5382a	0.027980883
212	0x3cec9594	0.028879918
213	0x3d1c9bbf	0.03823447
214	0x3d94eee6	0.07272129
215	0xbdb2d81e	-0.08732627
216	0x3d992ac6	0.074788615
217	0xbcc4eecc	-0.024039648
218	0xbddac096	-0.10681264
219	0x3d0eca1a	0.034860708
220	0xbcdab893	-0.02669934
221	0x3d5a627b	0.053316575
222	0x3d934719	0.07191295
223	0x3cfe7f90	0.031066686
224	0x3d0a991a	0.033837415
225	0x3d3ef712	0.046622343
226	0x3cb4be7b	0.022063484
227	0x3d23f851	0.040031735
228	0x3d66def6	0.056364976
229	0x3d1764c1	0.03696132
230	0xbc37c483	-0.011216286
231	0xbd37a13f	-0.04483151
232	0x3a7cb884	0.0009640532
233	0xbd9146d3	-0.07093587
234	0xbd1e776a	-0.0386881
235	0x3d9ee5f1	0.077587016
236	0x3d5aced3	0.0534199
237	0xbd6ddf1e	-0.05807411
238	0xbceeeb7a	-0.029165018
239	0xbca3e72d	-0.020007694
240	0x3cc08659	0.023501562
241	0x3cec3072	0.028831694
242	0xbc30a66a	-0.010781864
243	0xbc9f38ae	-0.019436207
244	0xbce51cf0	-0.0279679
245	0xbced08ca	-0.028934855
246	0xbc993367	-0.018701268
247	0xbcbda28a	-0.023148794
248	0x3d1e0ba9	0.03858534
249	0xbb8b51aa	-0.0042516785
250	0xbc6ca7ae	-0.014444275
251	0x3c170d80	0.009219527
252	0xbb0c6098	-0.002141988
253	0xbd751c14	-0.05984123
254	0xbce800f1	-0.028320761
255	0x3cc59672	0.02411959

conv3.bias f4 [120]
0	0x3c56b466	0.013104534
1	0x3d80bc0d	0.06285868
2	0x3c83abf7	0.01607321
3	0xbd240c99	-0.040051077
4	0x3cb3627f	0.021897553
5	0x3cbd572b	0.023112854
6	0xbc2fc828	-0.010728873
7	0xbd422687	-0.047400024
8	0x3da8ef7d	0.08248804
9	0xbcf98ba4	-0.030462094
10	0x3c9e76a5	0.019343683
11	0x3ca9947b	0.020700684
12	0xbca5366d	-0.020167554
13	0x3d4bdc3a	0.04977057
14	0xbde13723	-0.109968446
15	0x3d0b9aaf	0.034083065
16	0x3d105db5	0.035245616
17	0xbc757a12	-0.014982717
18	0x3c143bf4	0.009047497
19	0xbd0a04c4	-0.03369595
20	0xbd500337	-0.050784316
21	0x3bffec3d	0.007810144
22	0xbd2fdf89	-0.04293779
23	0x3a25006e	0.00062943145
24	0x3c8430fd	0.01613664
25	0xbdbcd157	-0.09219616
26	0x3d6a4eda	0.057204105
27	0xbd1c1ab4	-0.038111404
28	0x3d93f80e	0.07225047
29	0x3c8a1930	0.016857713
30	0x3d08092c	0.033211872
31	0xbdcc8d5d	-0.099879004
32	0xbdb7090c	-0.089372724
33	0xbd350de1	-0.04420269
34	0xbbd9977b	-0.0066403723
35	0xbcf6871d	-0.030093724
36	0x3db32106	0.08746533
37	0xbd553856	-0.05205568
38	0x3d7163f9	0.058933232
39	0x3ceced58	0.028921768
40	0xbd9add2b	-0.07561716
41	0x3d65cdd3	0.056104492
42	0xbd3e331a	-0.046435453
43	0xbd2a2b13	-0.041544985
44	0x3d03f130	0.032212436
45	0x3d33c403	0.043888103
46	0x3b086b0d	0.002081576
47	0x3d324dff	0.043531414
48	0x3c49df97	0.012321374
49	0xbd042c33	-0.032268714
50	0xbd6dd902	-0.058068283
51	0x3c3a8967	0.011385298
52	0xbd133085	-0.035934944
53	0xbc45fa4e	-0.012083603
54	0x3d55a8f2	0.052163072
55	0xbd780104	-0.060547844
56	0xbd814128	-0.06311256
57	0x3c99f107	0.018791689
58	0xbd1d4abe	-0.038401358
59	0x3cd96bb4	0.026540615
60	0xbd4b7963	-0.04967631
61	0x3d00a523	0.031407487
62	0xbc0add08	-0.0084755495
63	0xbc721a96	-0.014776846
64	0x3d0c92d9	0.034319732
65	0xbdb44601	-0.08802415
66	0xbc235cba	-0.009970838
67	0xbd0c446d	-0.034244943
68	0xbd50fc3a	-0.051021792
69	0xbd8f4d51	-0.06997169
70	0xbd190402	-0.037357338
71	0xbd070626	-0.032964848
72	0xbca4db34	-0.020124055
73	0xbd295c9d	-0.04134809
74	0x3cb848fb	0.022495737
75	0xbc5c95a8	-0.013463415
76	0x3d925d1a	0.07146664
77	0xbd197fdd	-0.037475456
78	0x3c1d737f	0.009610056
79	0xbd8836c3	-0.0665107
80	0xbd5de90d	-0.054177333
81	0xbc77e6d1	-0.0151307145
82	0x3d605ded	0.054777075
83	0x3c08b42c	0.008343738
84	0x3cfd0815	0.030887643
85	0x3d14a2a8	0.036287934
86	0x3c4f0c90	0.0126372725
87	0xbca668b4	-0.020313598
88	0x3cedce8c	0.029029153
89	0xbb5234d3	-0.0032074943
90	0x3d7a8d34	0.061169818
91	0x3dca66fe	0.098829255
92	0x3bde58a0	0.0067854673
93	0xbd9c31f9	-0.07626719
94	0x3cbe2c46	0.02321447
95	0xbcd699ee	-0.026196446
96	0xbcb17b63	-0.02166528
97	0xbc880904	-0.016605861
98	0x3cdcfaa8	0.026974991
99	0xbd76c315	-0.06024464
100	0xbdb3a1fe	-0.08771132
101	0x3db79372	0.0896367
102	0x3c28534c	0.010273766
103	0x3d1243db	0.035709243
104	0xbd9a1757	-0.07523983
105	0x3d7e68be	0.06211161
106	0xbca42392	-0.020036492
107	0x3c9085bc	0.017641895
108	0x3bd52ffa	0.0065059634
109	0xbcb9a10a	-0.022659797
110	0x3d9a7809	0.07542426
111	0x3be0cb7c	0.0068601947
112	0x3c10d7ce	0.008840514
113	0xbd3548f0	-0.04425901
114	0x3c7a7018	0.015285514
115	0xbd2ea14b	-0.04263429
116	0xbd88452a	-0.06653817
117	0xbc4f1705	-0.012639766
118	0x3d1764da	0.036961414
119	0xbc9d02a9	-0.019166308

linear.weight f4 [84, 120]
0	0x3c1a2720	0.009408742
1	0xbd60a953	-0.05484898
2	0xbd85ba5b	-0.06529685
3	0xbc18a9e2	-0.009317847
4	0xbe148b4a	-0.1450626
5	0x3d8e8550	0.06959021
6	0x3d9c1130	0.07620466
7	0xbd82e535	-0.06391374
8	0x3e116522	0.14198735
9	0xbe5e4924	-0.21707588
10	0x3dce09f1	0.1006049
11	0x3dbb4251	0.09143508
12	0x3d8586f8	0.06519884
13	0xbc67f611	-0.014157788
14	0xbe02b08a	-0.12762657
15	0xbd9ee6cd	-0.077588655
16	0xbd46f82a	-0.04857651
17	0xbc75004d	-0.014953685
18	0x3e04c73a	0.12966624
19	0x3dcf351f	0.10117554
20	0x3df01208	0.11722189
21	0xbe2c48be	-0.16824624
22	0x3c29c9bf	0.010363041
23	0xbce96e7c	-0.028495066
24	0xbd9471ab	-0.07248243
25	0x3d010c1f	0.0315057
26	0xbdeac3cd	-0.11463127
27	0xbe00bd6e	-0.12572262
28	0x3cb5d9e6	0.022198629
29	0xbd7dd70b	-0.06197266
30	0xbe359d69	-0.17735828
31	0x3d182873	0.03714795
32	0x3d9fbf0b	0.078001104
33	0xbc1105cf	-0.0088514825
34	0x3d3b34b4	0.04570456
35	0x3da52425	0.08063535
36	0xbda37b24	-0.079824716
37	0x3e0cdee7	0.13756905
38	0xbd46233a	-0.04837344
39	0x3d796a6b	0.060892504
40	0x3ce96135	0.028488735
41	0xbe386bec	-0.18009919
42	0x3e0321c2	0.12805846
43	0x3dc57d5d	0.09643052
44	0xbdd06893	-0.10176196
45	0x3c232c1b	0.009959246
46	0x3dd59ca7	0.1043027
47	0xbcc2c130	-0.02377376
48	0x3c9e6f3e	0.019340154
49	0x3d66ccad	0.056347538
50	0xbcc7a064	-0.024368472
51	0x3d7d932c	0.061907932
52	0xbc7c4fe8	-0.0153999105
53	0x3b44c1f7	0.0030022839
54	0xbe16caed	-0.14725848
55	0x3d36ebae	0.044658355
56	0x3e03a746	0.12856779
57	0x3d8948c9	0.06703336
58	0xbd5233b6	-0.051318847
59	0xbcf31dd2	-0.029677305
60	0x3d06227f	0.03274774
61	0xbd9b800d	-0.07592783
62	0x3d90f5c0	0.07078123
63	0xbd111f25	-0.035430092
64	0x3d809cb0	0.06279886
65	0x3c29fe7f	0.010375618
66	0x3df5ace4	0.11995867
67	0xbd9b6eb1	-0.07589472
68	0x3d47c3e0	0.048770785
69	0x3e02582f	0.12728952
70	0xbd9e1893	-0.07719531
71	0xbddde071	-0.108338244
72	0xbe195a84	-0.14975935
73	0xbda510ff	-0.080598824
74	0x3d5cceb9	0.053908084
75	0x3db7fb69	0.089834996
76	0xbc809f15	-0.015700856
77	0xbcc55dec	-0.024092637
78	0xbc962c75	-0.018331746
79	0xbdd3c665	-0.10340575
80	0xbc97aecc	-0.018515967
81	0x3d62f740	0.055411577
82	0xbdb87df0	-0.09008396
83	0xbd19e8e9	-0.037575636
84	0xbe15cf48	-0.14629853
85	0xbd6d2c44	-0.057903543
86	0x3de220d1	0.110414155
87	0xbd969bfa	-0.07353969
88	0x3b602b2c	0.003420542
89	0xbbd4dbe6	-0.0064959405
90	0xbca90315	-0.020631352
91	0xbd51b3a2	-0.0511967
92	0xbd08f996	-0.03344115
93	0xbdb4f9cd	-0.08836708
94	0xbd8a06b7	-0.06739562
95	0xbcfdc3ea	-0.030977208
96	0x3d7f2627	0.062292244
97	0xbd7ed2c7	-0.06221273
98	0x3d8ba289	0.068181105
99	0xbd814de0	-0.063136816
100	0x3d0d030c	0.034426734
101	0xbc3c6df7	-0.011500827
102	0x3d97500a	0.07388313
103	0xbd86fbef	-0.06591021
104	0xbe075c72	-0.13218859
105	0x3dab595e	0.08366655
106	0x3e07d418	0.13264501
107	0xbd510092	-0.051025935
108	0xbdbcdce4	-0.09221819
109	0xbcab9e18	-0.020949408
110	0xbd85fbb5	-0.0654215
111	0x3db7f080	0.089814186
112	0x3e143d54	0.1447652
113	0xbd19bdc7	-0.0375345
114	0x3d23285a	0.039833404
115	0x3d7a8731	0.061164085
116	0x3c79403a	0.015213067
117	0x3dd31a00	0.103076935
118	0xbd4c5345	-0.0498841
119	0xb8872ac0	-6.4452644e-05
120	0xbc1144b3	-0.008866477
121	0xbd2978b8	-0.041374892
122	0xbd833ce2	-0.06408097
123	0xbdc1e6c5	-0.09467844
124	0xbd3d0f00	-0.046156883
125	0x3c60e522	0.0137265045
126	0xbce3c99f	-0.027806101
127	0x3badc62f	0.0053031663
128	0xbe10e57e	-0.14150044
129	0xbde67be9	-0.11254103
130	0x3dbd2f81	0.09237576
131	0xbe28287b	-0.16421692
132	0xbc4bb252	-0.012432652
133	0x3ced8c3f	0.028997539
134	0x3da25255	0.0792586
135	0xbc88e9fd	-0.016713137
136	0x3ce87f61	0.028381051
137	0x3c83fe63	0.016112512
138	0x3d5568a8	0.05210176
139	0x3d06d288	0.032915622
140	0xbb9cda73	-0.0047867834
141	0x3e4d2127	0.20032178
142	0x3ca0a48c	0.019609712
143	0x3c477045	0.012172763
144	0x3ddfbaa1	0.109242685
145	0x3d310a5c	0.04322277
146	0x3bc95dd0	0.0061452165
147	0xbd7f25b9	-0.062291835
148	0xbbe4d370	-0.006983213
149	0x3decc9c0	0.11561918
150	0x3d169679	0.036764596
151	0xbbf93553	-0.0076052337
152	0x3d416351	0.047213856
153	0x3dc538d5	0.096299805
154	0xbc1787ba	-0.009248668
155	0x3ddbb2d6	0.107274696
156	0x3de36759	0.111036964
157	0xbd2fbaa0	-0.04290259
158	0xbe141be2	-0.14463761
159	0xbc363f3b	-0.011123474
160	0xbd7fb22b	-0.062425774
161	0x3e14fc89	0.1454946
162	0xbe2bbd58	-0.16771448
163	0xbe301dc5	-0.17198856
164	0xbdd952f4	-0.10611525
165	0xbdf88c9e	-0.121361956
166	0xbde94939	-0.11390919
167	0xbd7d96c2	-0.061911352
168	0x3d49a1f1	0.049226705
169	0x3b61dbe9	0.0034463352
170	0xbd3aee30	-0.04563731
171	0x3d9466d4	0.072461754
172	0x3cca7dd6	0.024718206
173	0x3da047d0	0.07826197
174	0xbd7f60ce	-0.06234818
175	0x3dd4dc68	0.10393602
176	0x3e198af8	0.14994419
177	0x3d644016	0.05572518
178	0xbd1b4ee1	-0.03791702
179	0xbe604322	-0.21900609
180	0xbd09aad2	-0.033610173
181	0x3e2402b3	0.16016655
182	0xbdc9794a	-0.09837587
183	0x3ddada35	0.10686151
184	0x3db755cb	0.089519106
185	0xbcf3950d	-0.029734159
186	0x3e070f1d	0.13189359
187	0xbdc1a086	-0.094544455
188	0xbcff49fe	-0.031163212
189	0x3ddbae06	0.10726552
190	0x3dd59109	0.10428054
191	0xbe0156a5	-0.12630709
192	0xbd1d88f9	-0.038460705
193	0x3dc2e5db	0.09516498
194	0x3e1c9d11	0.15294291
195	0x3cdbaea7	0.02681668
196	0x3c1d5fe1	0.009605379
197	0xbb8c89a0	-0.004288867
198	0x3c6eb11c	0.014568593
199	0x3e437265	0.19086607
200	0xbdbd1f67	-0.09234505
201	0x3df724f5	0.12067596
202	0xbd90790f	-0.0705434
203	0x3d587f4b	0.05285577
204	0x3e54ea10	0.20792413
205	0xbde0b3d5	-0.109718
206	0xbd84483c	-0.0645909
207	0x3de70b8b	0.112814985
208	0xbe5d7431	-0.21626355
209	0x3d87efc1	0.06637526
210	0xbd60e142	-0.054902323
211	0x3caf4e56	0.021399658
212	0xbafae204	-0.0019140844
213	0x3cfb2f1e	0.030662116
214	0x3d8585a6	0.06519632
215	0xbdf1ba2f	-0.1180309
216	0x3dbf1355	0.09329859
217	0x3e2be186	0.16785249
218	0xbe1c1a7e	-0.15244481
219	0x3dcb0d79	0.09914679
220	0x3dfa8881	0.12233067
221	0xbe3fbc4a	-0.1872417
222	0x3d028762	0.031867392
223	0xbda88ef6	-0.08230393
224	0xbd15ca62	-0.03656996
225	0xbc81af9b	-0.015830806
226	0xbdfc8b0f	-0.12331211
227	0x3d3e15a5	0.04640736
228	0x3e34af25	0.17644937
229	0xbd69118d	-0.056901503
230	0x3e1f9da3	0.15587477
231	0xbcbc1cbf	-0.022962926
232	0x3cb80b8b	0.022466442
233	0xbd8812dd	-0.06644223
234	0x3d258c75	0.040417153
235	0x3c3c5027	0.011493719
236	0xbcf64ca2	-0.030065838
237	0xbde64b2e	-0.11244808
238	0xb9c10de9	-0.00036822192
239	0xbafd5961	-0.0019329005
240	0xbbc4d0a5	-0.0060063177
241	0x3dca505e	0.0987861
242	0x3dfd8c37	0.123802595
243	0xbd94e4ce	-0.072702035
244	0x3d303be8	0.04302588
245	0x3d50d0ef	0.050980505
246	0xbd5c01d5	-0.053712685
247	0x3dc579af	0.0964235
248	0x3c89424c	0.016755246
249	0xbc3b792c	-0.011442464
250	0xbdabf9ab	-0.0839723
251	0x3e1643b7	0.14674269
252	0x3d21def2	0.039519258
253	0x3d77ae4c	0.060468957
254	0xbe0595c4	-0.13045412
255	0x3dc395d0	0.09550059

linear.bias f4 [84]
0	0x3d86ad9f	0.06576084
1	0xbd7950e1	-0.060868148
2	0xbb9bee39	-0.004758623
3	0x3cfa8027	0.030578686
4	0x3a558758	0.0008145473
5	0xbda07530	-0.07834852
6	0x3d4b883c	0.04969047
7	0xbd9ac001	-0.07556153
8	0xbd4aa8b6	-0.0494773
9	0xbcde2dad	-0.02712139
10	0x3daa133b	0.08304449
11	0x3d54eb37	0.05198213
12	0xbcc952a5	-0.02457554
13	0xbdc51f91	-0.096251614
14	0x3df99006	0.121856734
15	0xbd54bfe9	-0.051940832
16	0x3dfe29f0	0.12410343
17	0x3c337f67	0.010955668
18	0x3c48dfd2	0.012260394
19	0x3d267595	0.04063948
20	0xbd892b2b	-0.06697687
21	0x3dacf38a	0.08444889
22	0xbd364480	-0.04449892
23	0xbddd0269	-0.10791475
24	0x3d3e6580	0.046483517
25	0x3c8f01d6	0.01745693
26	0x3d915bcf	0.07097589
27	0xbe1235e6	-0.14278373
28	0x3c9866cd	0.018603707
29	0xbcd3bb71	-0.025846215
30	0xbd71bdf1	-0.059019033
31	0xbbc9e8b7	-0.006161775
32	0x3db6d9a3	0.0892823
33	0xbda1bc1f	-0.078972094
34	0x3d031483	0.032001983
35	0xbc4e5c29	-0.012595215
36	0x3dc37bb7	0.09545081
37	0xbd7072f0	-0.058703363
38	0xbd981b23	-0.07427051
39	0x3d85ba0f	0.065296285
40	0x3d8a8c79	0.06765074
41	0xbd8953df	-0.0670545
42	0xbd9352e8	-0.071935475
43	0xbd7d7931	-0.061883155
44	0x3cb8ad7b	0.02254366
45	0x3df702ed	0.12061105
46	0x3cfd8d6e	0.030951228
47	0xbc061400	-0.008183479
48	0x3d6032e9	0.05473605
49	0x3d18d2b1	0.037310306
50	0xbd49006c	-0.049072668
51	0xbce32739	-0.027728664
52	0x3db2c0cb	0.087281786
53	0x3df9d605	0.12199024
54	0xbd7c6112	-0.06161601
55	0xbd68df4f	-0.05685359
56	0x3d286d26	0.041119717
57	0x3dadd465	0.08487777
58	0xbccf1258	-0.025277302
59	0xbde9a905	-0.11409191
60	0x3d9a21c9	0.07525975
61	0x3d207e42	0.03918291
62	0xbca9b886	-0.02071787
63	0x3d9dcd45	0.07705168
64	0x3cc088e7	0.02350278
65	0x3dd78e5d	0.105252005
66	0xbdb63876	-0.08897488
67	0xbce1db32	-0.02757034
68	0xbcb463cf	-0.022020249
69	0xbd01fe03	-0.031736385
70	0xbd1de105	-0.038544673
71	0xbd7afdce	-0.061277203
72	0x3d9c6fa6	0.07638483
73	0x3db0fb13	0.086416386
74	0x3d721bf4	0.05910869
75	0xbd8ea232	-0.0696453
76	0xbcedbe5e	-0.029021438
77	0xbd74a284	-0.0597253
78	0x3d80fde3	0.06298425
79	0xbab6b7a6	-0.001394023
80	0x3cf06fbb	0.029350152
81	0x3d0c22b4	0.034212783
82	0xbd09b41a	-0.033619024
83	0xbd4f8399	-0.05066261

output.weight f4 [43, 84]
0	0x3dad6ad4	0.084676415
1	0xbda67b18	-0.08128947
2	0x3e08baf0	0.13352561
3	0xbd6f8ca1	-0.058483724
4	0xbdde7236	-0.10861628
5	0x3e16bba6	0.1472002
6	0x3d6cf225	0.057848115
7	0xbd2abfc6	-0.041686796
8	0x3d868495	0.06568257
9	0x3d832f55	0.06405512
10	0xbe0d8d1c	-0.1382336
11	0x3d5e15d6	0.054220043
12	0x3bdef6c2	0.006804318
13	0x3e1ebe21	0.15502216
14	0x3d88f08f	0.06686508
15	0x3e3cc487	0.18434344
16	0x3d5b5f35	0.053557593
17	0x3dd34bdf	0.10317206
18	0xbd8513aa	-0.06497891
19	0x3dc52804	0.09626773
20	0x3d8a4014	0.06750503
21	0xbc8909c8	-0.016728297
22	0x3d2c84bf	0.042118784
23	0x3c650cc7	0.013980097
24	0xbe0439e4	-0.12912709
25	0xbd80aca0	-0.062829256
26	0xbddd66e9	-0.10810644
27	0xbd157623	-0.036489617
28	0xbd9dc75d	-0.07704041
29	0x3d413379	0.04716823
30	0x3da86600	0.0822258
31	0x3e0b57f6	0.13607773
32	0xbd905a45	-0.070484675
33	0x3d406a29	0.046976242
34	0xbe10778e	-0.14108106
35	0xbd366d26	-0.044537686
36	0xbbdead41	-0.006795556
37	0xbd97e43f	-0.07416581
38	0xbd14b09b	-0.036301237
39	0xbdb05a52	-0.08610977
40	0xbda53d18	-0.08068293
41	0x3dd75c2b	0.105156265
42	0xbdc3b03e	-0.095551
43	0xbd4b8a86	-0.049692653
44	0xbd180890	-0.03711754
45	0xbcb56e16	-0.02214722
46	0xbc81fd36	-0.01586781
47	0xbd59c756	-0.053168617
48	0x3d2bde0f	0.04195982
49	0xbe14e973	-0.14542179
50	0x3ba2c346	0.004967126
51	0xbc8f41d0	-0.017487437
52	0xbe23b334	-0.1598633
53	0xbd4ddb98	-0.05025825
54	0xbe04eea9	-0.12981667
55	0xbd65ccd3	-0.05610354
56	0xbe15d265	-0.1463104
57	0xbe20775f	-0.15670536
58	0x3d954565	0.072886266
59	0xbd1f3d36	-0.038876735
60	0xbd7efb6d	-0.062251497
61	0xbd60ef93	-0.054915976
62	0x3af05363	0.0018335398
63	0x3d8034e9	0.06260092
64	0x3d9fcf5f	0.07803225
65	0xbd2fd993	-0.042932104
66	0xbd30cf33	-0.04316635
67	0xbded2aa0	-0.11580396
68	0xbcc562d2	-0.024094973
69	0x3d404c39	0.04694769
70	0x3c6dc523	0.014512333
71	0x3ce4c144	0.027924187
72	0x3e05c9bc	0.13065237
73	0xbba24ee5	-0.0049532526
74	0xbe03c663	-0.12868647
75	0x3d952470	0.072823405
76	0xbcb51b73	-0.022107815
77	0x3d4e1359	0.05031142
78	0x3ca83e17	0.02053742
79	0x3df985e4	0.12183741
80	0x3dc32ca8	0.09530002
81	0x3dd398e9	0.103319
82	0xbc7d87ae	-0.015474243
83	0x3e11a8cd	0.14224549
84	0xbe097569	-0.13423695
85	0xbdbb0dbf	-0.09133481
86	0x3bbb2aed	0.0057119043
87	0x3de9f8cb	0.114244066
88	0xbd5991a4	-0.05311741
89	0x3d448a9e	0.04798376
90	0xbddf36f7	-0.108991556
91	0x3da44c7a	0.08022399
92	0xbdeefe96	-0.11669652
93	0x3dcb4b20	0.09926438
94	0xbe0fbe86	-0.14037523
95	0x3de09ea2	0.10967757
96	0xbd6744ad	-0.05646198
97	0x3d496486	0.049168132
98	0xbd8cf4bd	-0.068826176
99	0x3db193a8	0.08670741
100	0xbe44dc22	-0.19224599
101	0x3deb9d24	0.115045816
102	0xbd203338	-0.039111346
103	0xbd8c1841	-0.068405636
104	0x3e052e80	0.1300602
105	0xbd6b9c9e	-0.05752241
106	0xbdd16cd4	-0.102258354
107	0xbe13efa3	-0.14446883
108	0xbdd61fa4	-0.10455254
109	0x3d1b4b7e	0.03791379
110	0x3d490338	0.049075335
111	0xbd8a2f99	-0.0674736
112	0xbdad406f	-0.08459555
113	0x3e0c4bc3	0.13700776
114	0xbc5ba354	-0.01340564
115	0x3e153bcc	0.14573592
116	0x3d57226d	0.052523065
117	0x3dcffc60	0.101555586
118	0xbdd13e28	-0.102169335
119	0x3e0f6305	0.14002617
120	0xbdf8df78	-0.12151998
121	0xbdf9f095	-0.122040905
122	0x3d9c8808	0.076431334
123	0x3e30554a	0.17220035
124	0xbe04c5d4	-0.1296609
125	0xbe0a7fc9	-0.13525309
126	0xbda8cee7	-0.082425885
127	0x3b79a7c7	0.0038094388
128	0xbdbd16fd	-0.092329
129	0xbe097e5b	-0.13427107
130	0xbc47cb10	-0.01219441
131	0x3d9aaf77	0.075529985
132	0xbd80ac9f	-0.06282925
133	0x3b0e0ff0	0.002167698
134	0x3b0a8b4b	0.0021140154
135	0x3c462cf5	0.0120956795
136	0xbe1f7810	-0.15573144
137	0xbd484f84	-0.048903957
138	0xbd7a7974	-0.061150983
139	0xbd2d82aa	-0.04236094
140	0xbbd6e846	-0.006558451
141	0xbd0cf06e	-0.03440898
142	0x3da596bc	0.08085391
143	0xbdd61dac	-0.10454878
144	0xbe13c0ee	-0.14429066
145	0x3df23aad	0.11827598
146	0x3dda958f	0.10673057
147	0x3bf5146e	0.007479242
148	0x3d733784	0.059379116
149	0xbe09b971	-0.13449647
150	0x3dbb5199	0.09146423
151	0xbc1da99b	-0.009622957
152	0x3dad760e	0.08469783
153	0x3ad053b7	0.001589409
154	0xbdbfd65c	-0.09367058
155	0x3cb98c14	0.022649802
156	0x3e1457c2	0.14486602
157	0x3dc89525	0.09794072
158	0xbe163696	-0.1466926
159	0x3ca1770e	0.01971009
160	0xbdc1d0f8	-0.09463686
161	0x3d106821	0.035255555
162	0x3c2fa52c	0.010720532
163	0x3db91d35	0.09038774
164	0xbd0660c5	-0.03280713
165	0x3bc934c8	0.006140325
166	0xbd6f1175	-0.058366258
167	0x3d9dda9f	0.07707714
168	0xbd1ee683	-0.03879405
169	0x3daf2565	0.08552054
170	0xbdf23c3c	-0.11827895
171	0xbcaa2d73	-0.020773625
172	0xbdc988fd	-0.098405816
173	0x3dee73df	0.116431944
174	0x3dba3127	0.09091406
175	0xbd93f1df	-0.072238676
176	0xbd83bf6e	-0.06432997
177	0x3cbc6bec	0.02300068
178	0x3c868361	0.016420068
179	0xbcb989f9	-0.022648798
180	0xbe0cda25	-0.1375509
181	0xbd86735e	-0.06564973
182	0xbc5dbcf8	-0.013533823
183	0xbe03d8ca	-0.12875667
184	0xbe0d3c2a	-0.13792482
185	0xbdfef80f	-0.12449657
186	0xbd524485	-0.051334877
187	0xbdce0736	-0.10059969
188	0x3e089acd	0.13340302
189	0x3d3f77b0	0.046745002
190	0x3ce667b0	0.028125614
191	0x3e02bdca	0.12767711
192	0x3d33ba24	0.04387869
193	0x3dd1bb99	0.102408595
194	0xbda6e3d5	-0.08148924
195	0xbddc6db7	-0.10763114
196	0x3d2b648b	0.041843932
197	0x3dab0050	0.08349669
198	0xbe0106d7	-0.12600265
199	0x3dc2968c	0.09501371
200	0xbe003ee0	-0.12523985
201	0xbdb56493	-0.08857074
202	0xbd60301e	-0.054733388
203	0xbc39a96f	-0.0113319
204	0xbca4e696	-0.020129483
205	0xbde30058	-0.1108405
206	0xbddc04ee	-0.10743128
207	0x3ddc6b67	0.10762673
208	0xbdede9b6	-0.116168424
209	0xbd85f3ee	-0.065406665
210	0x3b13da9b	0.002256072
211	0x3d5c83a7	0.05383649
212	0xbdb0685e	-0.086136565
213	0xbd0107a5	-0.03150143
214	0x3d4fdd37	0.050748076
215	0xbe28c2a1	-0.16480495
216	0x3cea2c29	0.02858551
217	0x3df66c23	0.12032344
218	0xbdc6fd5e	-0.09716295
219	0x3d017c86	0.031612895
220	0xbe00a332	-0.12562254
221	0x3d5db9d0	0.054132283
222	0xbdbc0e8d	-0.09182463
223	0x3d41ee72	0.04734654
224	0xbdb926ab	-0.090405785
225	0xbd94d490	-0.072671056
226	0x3dd17ba4	0.10228661
227	0x3d816541	0.06318141
228	0xbdb2b532	-0.087259665
229	0xbd55bbd9	-0.0521811
230	0x3d9b34b7	0.07578414
231	0x3e0a4f01	0.135067
232	0x3c40ae89	0.011760362
233	0x3de138ec	0.10997185
234	0x3b63c379	0.0034753962
235	0xbe00ea9e	-0.125895
236	0x3db89087	0.090119414
237	0xbdc35722	-0.09538104
238	0xbe19df21	-0.15026523
239	0x3df2990d	0.11845598
240	0x3d9b6024	0.07586697
241	0xbd49bb38	-0.04925081
242	0x3e4468a1	0.19180538
243	0xbcd5c7d5	-0.026096264
244	0xbd8980b9	-0.06714005
245	0x3d91015a	0.07080336
246	0xbc694d3f	-0.014239608
247	0x3d7df403	0.062000286
248	0x3ce805ca	0.028323073
249	0x3db0a7ac	0.08625731
250	0xbe2560b6	-0.16150174
251	0xbd84110c	-0.06448564
252	0x3c45a6c5	0.012063687
253	0xbde7ea97	-0.11324041
254	0x3e1cb271	0.15302445
255	0x3e03acf3	0.12858944

output.bias f4 [43]
0	0xbde706f9	-0.11280627
1	0xbd94c2bf	-0.07263707
2	0x3d996be4	0.07491282
3	0xbce7d990	-0.028301984
4	0x3db3a8dd	0.087724425
5	0x3c4931a9	0.012279906
6	0x3db65ea9	0.08904774
7	0xbb6e3e2f	-0.0036352982
8	0xbca4c48c	-0.020113252
9	0xbd1c11ca	-0.038102902
10	0x3c2c1849	0.010503837
11	0xbddcab0d	-0.10774813
12	0x3db3dd35	0.08782426
13	0x3d7e2ea2	0.06205619
14	0x3cd83533	0.026392555
15	0x3cef9592	0.029246125
16	0x3d769598	0.060201257
17	0xbc98b1a5	-0.018639395
18	0x3d26f5b3	0.04076166
19	0xbd3a0e91	-0.045424048
20	0xbae0171b	-0.001709673
21	0x3d7acf58	0.061232895
22	0xbd4678c2	-0.048455007
23	0x3d7b10f9	0.061295483
24	0xbdb9b808	-0.09068304
25	0x3bc2491d	0.005929126
26	0xbbda4d57	-0.0066620517
27	0xbd439a10	-0.047754347
28	0xbd1d81c8	-0.038453847
29	0xbe00f539	-0.12593545
30	0xbdbedff0	-0.093200564
31	0x3997e2ee	0.0002897004
32	0x3d4298ce	0.047509007
33	0xbc61d361	-0.013783307
34	0x3d809e85	0.06280235
35	0x3d6f5dce	0.05843907
36	0x3d96e691	0.07368196
37	0x3d5c2868	0.053749472
38	0xbc502628	-0.01270441
39	0x3d6655a2	0.05623401
40	0xbd01ff98	-0.031737894
41	0xbd17ad2d	-0.037030388
42	0x3d941182	0.07229902

exp_avg f4 [6, 1, 5, 5]
0	0xb99fc43a	-0.00030473043
1	0x3ac56355	0.001505951
2	0x3a4438cb	0.00074852695
3	0xbb423f90	-0.0029639937
4	0xbc042b37	-0.008066944
5	0xbaaf22c7	-0.0013361805
6	0x3b54e034	0.0032482268
7	0x3b8bfe6c	0.004272273
8	0xb9056af0	-0.00012723706
9	0xbbe72d06	-0.0070549278
10	0xbb4fb42a	-0.003169308
11	0x3b841989	0.0040313643
12	0x3bdfe33c	0.0068325084
13	0x3b21feb4	0.0024718465
14	0xbbacdda6	-0.005275446
15	0xbbde614b	-0.0067865006
16	0x3aed328c	0.0018096729
17	0x3bbdb6c9	0.005789612
18	0x3b2a7a9d	0.0026013025
19	0xbb93358c	-0.0044924673
20	0xbc4a8a9b	-0.012362148
21	0xbb6a5b6d	-0.003576006
22	0x3ab127d6	0.00135159
23	0x3a282131	0.00064136373
24	0xbb931c4c	-0.0044894572
25	0xbaeffbf2	-0.0018309338
26	0xbae8e04e	-0.0017767043
27	0xbb70b922	-0.0036731442
28	0xbbf4a434	-0.0074658636
29	0xbc563376	-0.013073793
30	0xbb8dd0b5	-0.0043278583
31	0xbb327f77	-0.002723662
32	0xbb1044ec	-0.0022013737
33	0xbb8bf86d	-0.004271558
34	0xbc1d18e3	-0.009588453
35	0xbc0aead5	-0.00847884
36	0xbbc0e334	-0.0058864597
37	0xbb7e9f75	-0.0038852368
38	0xbb87bf95	-0.0041427114
39	0xbc00565b	-0.007833089
40	0xbc5f6406	-0.013634687
41	0xbc33def6	-0.010978451
42	0xbc104aab	-0.008806865
43	0xbbf36fd3	-0.007429102
44	0xbc09d72a	-0.0084131155
45	0xbca8b1b7	-0.020592554
46	0xbc99f49e	-0.0187934
47	0xbc881982	-0.016613726
48	0xbc5a4cbf	-0.013323962
49	0xbc30e1a7	-0.010795987
50	0x39af3239	0.0003341602
51	0xbb9cc732	-0.004784488
52	0xbc00f735	-0.007871439
53	0xbc0cf72e	-0.008603854
54	0xbbb03ccc	-0.0053783413
55	0x3b133de2	0.0022467305
56	0xbb711b73	-0.0036790043
57	0xbbf1029c	-0.0073550474
58	0xbc1e1921	-0.009649546
59	0xbc0dfcd7	-0.008666239
60	0x3b8ca792	0.004292437
61	0xba502529	-0.00079401076
62	0xbb75d5ce	-0.003751147
63	0xbbd0e7b0	-0.0063752756
64	0xbbf0c7d2	-0.007348039
65	0x3bb6817a	0.005569634
66	0x3b3baf1c	0.002863831
67	0x3aa83e59	0.0012835964
68	0xba87ad7f	-0.0010351388
69	0xbb487b86	-0.0030591204
70	0x3bbc7c6e	0.005752138
71	0x3bc88003	0.006118776
72	0x3bd2ffc7	0.0064391824
73	0x3bb37ae4	0.005477296
74	0x3b589c49	0.0033052138
75	0xb913add0	-0.00014083763
76	0x3b965897	0.0045881975
77	0x3c03f310	0.008053556
78	0x3c1a743a	0.009427125
79	0x3c117d12	0.008879917
80	0xbabf54da	-0.0014597431
81	0x3bb7f85b	0.005614323
82	0x3c2d7022	0.010585817
83	0x3c480402	0.012207987
84	0x3c2c2a53	0.010508138
85	0xbb12aa48	-0.0022379328
86	0x3bd3a73d	0.0064591453
87	0x3c4e602a	0.0125961695
88	0x3c729fe4	0.014808629
89	0x3c434288	0.011917718
90	0xbb44ac28	-0.003000984
91	0x3bc85de2	0.0061147073
92	0x3c4d3418	0.012524627
93	0x3c76731a	0.015042091
94	0x3c3bb290	0.011456147
95	0xbb71232a	-0.003679464
96	0x3ba64b0b	0.005074864
97	0x3c2fc391	0.010727779
98	0x3c4ec4f0	0.012620196
99	0x3c0cd58b	0.0085958345
100	0x3bb5560c	0.005533939
101	0x3c23c1be	0.009994922
102	0x3c2d9952	0.010595636
103	0x3bf8a2df	0.007587775
104	0x3b46aa19	0.0030313788
105	0x3b8fd2de	0.004389151
106	0x3c23bc02	0.009993555
107	0x3c416649	0.011804172
108	0x3c16bf92	0.009200947
109	0x3b94bdbd	0.00453922
110	0x3b2f86a7	0.002678314
111	0x3c10deea	0.008842209
112	0x3c3c888e	0.011507167
113	0x3c218322	0.009857925
114	0x3bb59804	0.0055418033
115	0x397dcea1	0.00024204935
116	0x3bcf2851	0.0063219448
117	0x3c1a0a94	0.009401936
118	0x3c13e428	0.009026565
119	0x3bba1e1c	0.005679859
120	0xbb48f9ad	-0.0030666396
121	0x3ae37497	0.0017353472
122	0x3b98308f	0.0046444605
123	0x3baf0eec	0.005342355
124	0x3b57fa27	0.00329555
125	0x3c0171f1	0.007900701
126	0x3c190ded	0.009341699
127	0x3c45a539	0.012063318
128	0x3c8a6c89	0.016897457
129	0x3cb02916	0.021503966
130	0x3c05434d	0.008133722
131	0x3be209ba	0.006898132
132	0x3c0b67c2	0.0085086245
133	0x3c5f198e	0.013616933
134	0x3ca1f19b	0.019768527
135	0x3c14fd24	0.009093557
136	0x3ba2de51	0.00497035
137	0x3baad3ee	0.0052132523
138	0x3c21aa29	0.0098672295
139	0x3c87bf2c	0.01657065
140	0x3c4075f4	0.011746872
141	0x3bb06122	0.005382673
142	0x3b86f9d6	0.0041191382
143	0x3bff3a3b	0.007788924
144	0x3c6b47e1	0.014360399
145	0x3c8cd134	0.0171896
146	0x3c1a18f7	0.009405366
147	0x3bcdb58b	0.006277745
148	0x3c05bbf3	0.008162486
149	0x3c5fbe57	0.01365622

exp_avg_sq f4 [6, 1, 5, 5]
0	0x3a104e90	0.0005504871
1	0x3a192163	0.0005841462
2	0x3a205fbd	0.0006117782
3	0x3a241092	0.00062585727
4	0x3a26e7d9	0.00063669455
5	0x39f7f54a	0.00047294266
6	0x39fa6bc0	0.00047763996
7	0x39fb39a8	0.00047917408
8	0x39f57d72	0.00046823506
9	0x39f752f8	0.00047173328
10	0x39d484b6	0.00040534668
11	0x39c6a0cd	0.0003788531
12	0x39bf8d1a	0.00036535488
13	0x39b1c39a	0.00033905805
14	0x39afa695	0.00033502714
15	0x39c424ba	0.00037411397
16	0x39a0e948	0.00030691386
17	0x39922842	0.00027877284
18	0x3984f73a	0.000253612
19	0x39862df8	0.0002559272
20	0x39d2b842	0.00040191604
21	0x399522b5	0.00028445353
22	0x3979aee4	0.00023811642
23	0x397089e3	0.0002293955
24	0x3988b397	0.00026073746
25	0x397582ea	0.0002341379
26	0x39473893	0.00018999194
27	0x3956f305	0.00020499162
28	0x398ca613	0.00026826616
29	0x39c6a41c	0.00037887774
30	0x3938df80	0.00017630868
31	0x3905890e	0.00012734925
32	0x390ae8bc	0.00013247406
33	0x39381762	0.00017556318
34	0x3988a430	0.0002606227
35	0x39443bf4	0.00018714351
36	0x3912077d	0.00013926435
37	0x390d4438	0.00013472221
38	0x392a7f4e	0.00016259888
39	0x3970d174	0.00022966211
40	0x39857e03	0.00025461623
41	0x39532816	0.00020137461
42	0x3941a588	0.0001846758
43	0x395443d6	0.00020243166
44	0x3989558d	0.00026194417
45	0x39c582ce	0.00037672225
46	0x39a21f53	0.00030922386
47	0x3990c012	0.00027608924
48	0x3991f371	0.00027837933
49	0x39a94463	0.00032285144
50	0x39f1278f	0.00045996575
51	0x39b5e010	0.0003468995
52	0x399281c5	0.00027943976
53	0x39947df7	0.0002832261
54	0x39c1a738	0.00036936416
55	0x39d83281	0.0004123636
56	0x39a1e16c	0.00030876265
57	0x39864997	0.000256133
58	0x398545dd	0.0002541979
59	0x39a3b18c	0.00031222065
60	0x39da6215	0.00041653277
61	0x39ab5f94	0.00032686873
62	0x39979d94	0.0002891837
63	0x3998e8a1	0.0002916502
64	0x39b11d7c	0.00033782038
65	0x39f52881	0.0004676022
66	0x39cc5806	0.00038975495
67	0x39bba0eb	0.00035787313
68	0x39bf70be	0.00036514358
69	0x39d66336	0.0004089118
70	0x3a0f4022	0.00054645736
71	0x39fe9efb	0.00048565105
72	0x39eeea19	0.00045569314
73	0x39f3da30	0.00046511134
74	0x3a061c83	0.0005115943
75	0x3a073dd4	0.00051590544
76	0x3a05d0a5	0.0005104638
77	0x3a04b028	0.000506165
78	0x3a02ae15	0.00049850467
79	0x3a031fda	0.00050019997
80	0x39fc91b1	0.00048173734
81	0x39ed24f7	0.00045231704
82	0x39e18bcf	0.0004301951
83	0x39d5d266	0.00040783285
84	0x39cd3a61	0.00039144143
85	0x39e91df7	0.0004446355
86	0x39d29d41	0.00040171485
87	0x39c64c05	0.00037822142
88	0x39b8319a	0.0003513217
89	0x39a6f2f4	0.00031843001
90	0x39dbd048	0.00041926117
91	0x39c40ce9	0.00037393652
92	0x39ba94f8	0.00035587675
93	0x39ae218c	0.0003321286
94	0x399ac456	0.0002951945
95	0x39d254bc	0.00040117453
96	0x39be77fe	0.00036329025
97	0x39bc7a40	0.00035949238
98	0x39b81553	0.00035111103
99	0x39b142bb	0.0003380979
100	0x3964880a	0.00021794453
101	0x39396694	0.00017681188
102	0x392558f3	0.00015768762
103	0x39236679	0.00015583065
104	0x393edcf4	0.00018202123
105	0x392f37cc	0.00016710086
106	0x38eeca9e	0.00011386465
107	0x38be2886	9.067454e-05
108	0x38acad17	8.2338396e-05
109	0x38cdb33f	9.808549e-05
110	0x390db276	0.0001351329
111	0x38ad6554	8.268157e-05
112	0x388db276	6.756645e-05
113	0x388272f7	6.220297e-05
114	0x389611fd	7.155908e-05
115	0x3900de0d	0.00012289752
116	0x38a0953e	7.657193e-05
117	0x38954cd9	7.119188e-05
118	0x389bf5e0	7.436774e-05
119	0x38b76bb1	8.746179e-05
120	0x3912233f	0.00013936775
121	0x38ca9a0b	9.660803e-05
122	0x38c0de97	9.196734e-05
123	0x38d3d7f2	0.00010101487
124	0x3905fb63	0.00012777517
125	0x3a6ec451	0.0009108233
126	0x3a7fe1fa	0.0009761151
127	0x3a84c398	0.0010129092
128	0x3a868e72	0.0010265841
129	0x3a85aa6c	0.0010197884
130	0x3a528456	0.0008030584
131	0x3a565a08	0.0008176868
132	0x3a572072	0.0008206434
133	0x3a584171	0.00082494976
134	0x3a5ba2bb	0.0008378436
135	0x3a389fa3	0.00070428307
136	0x3a326ab0	0.0006806059
137	0x3a2d373b	0.0006607656
138	0x3a2bf069	0.0006558956
139	0x3a31d434	0.0006783635
140	0x3a24d05e	0.00062871526
141	0x3a1606e4	0.00057230727
142	0x3a0ea6e4	0.0005441739
143	0x3a0da40f	0.000540317
144	0x3a160418	0.0005722656
145	0x3a22683e	0.0006195343
146	0x3a0aad19	0.0005290076
147	0x3a02d1c1	0.0004990362
148	0x3a04d41d	0.0005067008
149	0x3a10973b	0.0005515699

exp_avg f4 [6]
0	0x3c025f44	0.007957283
1	0x3acb1a17	0.0015495446
2	0x3bf43842	0.0074529955
3	0x3bb8afb7	0.005636181
4	0xbb4b6f31	-0.0031041617
5	0xbc7d7fba	-0.015472347

exp_avg_sq f4 [6]
0	0x399697ee	0.00028723426
1	0x3901602d	0.00012338227
2	0x399dfa3b	0.0003013181
3	0x39a29625	0.00031010914
4	0x3907b76c	0.00012942933
5	0x39f583ab	0.00046828142
