weights/weight_after_step20_8.pth (torch, 783165 bytes, 30 tensors)

conv1.weight f4 [6, 1, 5, 5]
0	0x3e7e675d	0.24844117
1	0x3d010b25	0.03150477
2	0xba2beda5	-0.0006558544
3	0x3e45eac7	0.19327842
4	0x3e46919b	0.19391482
5	0x3e4d510a	0.20050445
6	0x3d71ad80	0.059003353
7	0xbe02820e	-0.12744924
8	0xbd42aeed	-0.047530103
9	0x3e647a3c	0.22312254
10	0xbc27815d	-0.010223714
11	0xbd0d1c0f	-0.034450587
12	0xbe6fd7f6	-0.23422226
13	0x3d6a18a8	0.05715242
14	0xbe18444a	-0.148698
15	0x3da04bc4	0.07826951
16	0xbe1d89cb	-0.15384595
17	0xbe560879	-0.2090167
18	0xbe0a08fe	-0.13479993
19	0xbc3e809a	-0.011627341
20	0xbe250be0	-0.16117811
21	0xbe4f4aaf	-0.20243333
22	0xbe234e08	-0.15947735
23	0xbcc79759	-0.02436416
24	0x3c099beb	0.00839899
25	0xbc629c26	-0.013831174
26	0xbdf3b4f9	-0.11899752
27	0xbd8e29fa	-0.069416
28	0xbc2860d3	-0.010276991
29	0x3d9c387a	0.076279595
30	0xbcce3d5f	-0.025175748
31	0xbe777040	-0.24163914
32	0xbe3f1aa1	-0.18662502
33	0xbe25d358	-0.16193902
34	0x3da17886	0.07884316
35	0xbe48614c	-0.19568366
36	0xbd0737cb	-0.033012193
37	0x3c7dc875	0.015489687
38	0x3e257916	0.16159472
39	0x3e0727f8	0.1319884
40	0x3b343895	0.0027499546
41	0xbe23c690	-0.15993714
42	0xbe5cfb29	-0.21580185
43	0x3d1499bd	0.03627943
44	0x3dbb9d52	0.09160866
45	0x3e49e372	0.1971567
46	0x3e3956bb	0.18099491
47	0xbdcab96e	-0.09898649
48	0x3dc2d41c	0.09513113
49	0xbc536409	-0.012902268
50	0x3d0e2deb	0.03471176
51	0x3e3ac52d	0.18239279
52	0x3e4a6d9f	0.1976838
53	0x3e090420	0.1338048
54	0x3db1ccd9	0.0868165
55	0xbe6e8c2d	-0.2329566
56	0x3e3bf27b	0.18354218
57	0xbd0fd1b1	-0.035112087
58	0x3ddb118e	0.10696708
59	0x3e282594	0.16420585
60	0x3d9fdb45	0.07805494
61	0xbcc87cee	-0.024473634
62	0x3d966fea	0.07345565
63	0x3e524a8a	0.20536247
64	0xbd887c59	-0.066643424
65	0xbcf75b47	-0.030194892
66	0xbe46ac4a	-0.1940166
67	0x3e135929	0.1438948
68	0x3e1d5bee	0.153671
69	0x3df8ed25	0.12154607
70	0xbea134a9	-0.3148549
71	0xbda2fb07	-0.07958036
72	0x3948a8e2	0.000191364
73	0xbd6452d9	-0.055743072
74	0xbe11708a	-0.14203086
75	0x3dda0281	0.10645009
76	0x3e602ea6	0.21892795
77	0xbc4b9be0	-0.0124273
78	0x3e78dc43	0.24302773
79	0x3d476367	0.04867878
80	0x3e9a541e	0.301423
81	0x3e07bdac	0.13255948
82	0x3e0f031b	0.13966028
83	0xbe10be08	-0.14134991
84	0xbe1fc5bb	-0.15602772
85	0x3d7642cc	0.060122296
86	0xbd08575e	-0.033286445
87	0xbe5bfed8	-0.21483934
88	0x3dabdd61	0.08391834
89	0xbdb8479b	-0.08998033
90	0x3e4ed424	0.20198113
91	0xbe3df580	-0.18550682
92	0xbe8ab5f3	-0.2709194
93	0x3d3ad182	0.04560996
94	0xbe8aedb1	-0.2713447
95	0xbe26a202	-0.16272739
96	0xbcb23a05	-0.021756181
97	0xbe0faed0	-0.1403153
98	0xbd60755f	-0.054799434
99	0xbd60739f	-0.054797765
100	0x3d7547ef	0.059883054
101	0x3df7c67a	0.12098403
102	0xbdc0591a	-0.09391995
103	0x3e369062	0.17828515
104	0xbda8af70	-0.08236587
105	0x3bd963f9	0.006634232
106	0xbe6746b5	-0.22585566
107	0xbe8624b5	-0.2619988
108	0xbd3e5193	-0.046464514
109	0x3d643f41	0.055724386
110	0xbe225477	-0.15852533
111	0x3dee4ef3	0.11636152
112	0xbdffd2aa	-0.12491353
113	0x3cbdd264	0.023171611
114	0xbe1d6006	-0.15368661
115	0x3e3db391	0.1852553
116	0x3de7df7c	0.11321923
117	0x3c40c391	0.011765377
118	0xbddc451b	-0.10755368
119	0xbe3413c7	-0.1758567
120	0xbdfe53ce	-0.12418328
121	0xbdc9cc27	-0.09853392
122	0xbe6a925e	-0.22907397
123	0xbcca5759	-0.024699854
124	0x3e28a47e	0.16468999
125	0xbe821105	-0.2540361
126	0xbe70db91	-0.23521258
127	0xbd516dc3	-0.051130068
128	0xbe039d11	-0.12852885
129	0xbe8edb1e	-0.27901548
130	0x3e318f97	0.17339931
131	0x3dc0f7c5	0.09422258
132	0xbd2cb948	-0.042168885
133	0xbd77a33e	-0.060458414
134	0x3d9f2d2b	0.07772287
135	0x3d0a8ab5	0.033823688
136	0x3dcb938d	0.099402525
137	0xbcf57fa4	-0.02996809
138	0x3d167313	0.036730837
139	0x3ddbf96d	0.107409336
140	0x3db7b5f1	0.089702494
141	0x3d875eb9	0.06609864
142	0x3e260236	0.16211781
143	0x3e73698e	0.23770735
144	0x3d20a491	0.039219443
145	0x3e34152c	0.17586201
146	0x3e01a247	0.1265956
147	0xbd09a06a	-0.03360025
148	0xbd572a62	-0.052530654
149	0xbd2777d5	-0.040885765

conv1.bias f4 [6]
0	0x3d16fef2	0.03686423
1	0x3e47c4df	0.19508694
2	0xbd73be41	-0.059507612
3	0x3d03bc2c	0.032161877
4	0xbd1cc281	-0.03827143
5	0xbe5950c3	-0.21222214

conv2.weight f4 [16, 6, 5, 5]
0	0x3cd4a8d6	0.025959413
1	0x3dc7064e	0.097179994
2	0xbc9e9c31	-0.019361587
3	0xbc2efb6c	-0.010680061
4	0xbd6b32d8	-0.057421535
5	0x3e199034	0.14996415
6	0x3db2f597	0.08738249
7	0xbd2054d2	-0.03914339
8	0xbd2596bd	-0.04042696
9	0xbccd152c	-0.02503451
10	0x3d989221	0.07449747
11	0xbbcb7986	-0.006209555
12	0xbb2714fb	-0.0025494683
13	0xbcee9812	-0.029125247
14	0xbd0f0e82	-0.034925945
15	0xbbfcaabd	-0.0077107833
16	0x3e0af1f2	0.13568857
17	0x3c20d58c	0.009816539
18	0x3a1552b0	0.00056962203
19	0xbdb5a802	-0.088699356
20	0xbc94a29a	-0.01814394
21	0x3dbb1478	0.091347635
22	0x3d3e5c1b	0.046474557
23	0x3d4ccd90	0.050000727
24	0xbd34fc64	-0.04418601
25	0x3d1ea0b4	0.038727477
26	0x3df7729e	0.12082408
27	0x3e00863c	0.12551206
28	0x3da01aea	0.078176335
29	0x3d2ea4d4	0.04263766
30	0x395265c3	0.0002006507
31	0x3d794794	0.060859278
32	0xbc8f16a5	-0.017466852
33	0x3c935a8c	0.017987512
34	0xbdaee473	-0.08539667
35	0x3d9cb351	0.076513894
36	0x3d72e1e8	0.059297472
37	0x3d5db5cd	0.054128457
38	0xbd483a87	-0.04888394
39	0xbdc780e0	-0.09741378
40	0x3dcb5cb2	0.099297896
41	0x3dc4bb3e	0.09606026
42	0x3c7f2e57	0.015575013
43	0xbe18d51d	-0.14925046
44	0xbe13b145	-0.14423092
45	0x3e0be4c9	0.13661493
46	0x3df26c4e	0.11837064
47	0x3d08423b	0.033266287
48	0xbe0b4602	-0.13600925
49	0xbd957bbb	-0.0729899
50	0xbd46bdfc	-0.048521027
51	0x3bbda15c	0.005787058
52	0xbddc4d13	-0.10756888
53	0x3c81e62f	0.01585683
54	0xbd7d3333	-0.061816406
55	0xbd395512	-0.045247145
56	0xbd1f7694	-0.038931444
57	0xbdb193e9	-0.0867079
58	0x3d83091e	0.06398223
59	0xbd54924d	-0.051897336
60	0xbde1a723	-0.11018207
61	0xbdb160cf	-0.08661043
62	0x3bc841c4	0.0061113555
63	0x3e007064	0.12542874
64	0xbd62fe51	-0.055418316
65	0xbd3fdc5d	-0.046841014
66	0x3d21652f	0.039403137
67	0x3dd15535	0.1022133
68	0x3e1c4f89	0.15264715
69	0x3db45407	0.088050894
70	0xbe1b1c8e	-0.15147611
71	0xbdbc9b0a	-0.09209259
72	0x3e13a26a	0.14417425
73	0x3e053e9c	0.13012165
74	0xbd6acfe3	-0.057327162
75	0x3d87c011	0.06628431
76	0x3d8bc5f8	0.06824869
77	0xbd3b81ad	-0.045777965
78	0xbd8d8235	-0.06909601
79	0xbd11abf7	-0.03556439
80	0x3d9511f4	0.07278815
81	0xbdb27850	-0.08714354
82	0xbe3c124b	-0.18366353
83	0xbdaf0245	-0.08545355
84	0xbdb7d9aa	-0.08977063
85	0x3d3c9f26	0.046050213
86	0xbd6c911a	-0.057755567
87	0xbe00d3ab	-0.12580745
88	0xbe0c6663	-0.13710932
89	0xbd896987	-0.06709581
90	0x3daf4645	0.08558325
91	0xbdca9515	-0.098917164
92	0xbd791381	-0.060809616
93	0xbde529ec	-0.111896366
94	0x3dfe7a1c	0.12425634
95	0x3d4010fa	0.04689119
96	0xbd935b43	-0.07195141
97	0xbd84b3e8	-0.06479627
98	0x3d8508ce	0.0649582
99	0x3bad88a0	0.005295828
100	0x3c2cf97a	0.010557527
101	0x3d511c18	0.051052183
102	0x3d321d56	0.04348501
103	0xbd9cc5be	-0.07654904
104	0xbd60f2f6	-0.054919206
105	0x3d9f6005	0.07781986
106	0x3db461aa	0.088076904
107	0xbd072c06	-0.03300097
108	0xbdd5006f	-0.10400473
109	0xbda5c0db	-0.08093425
110	0x3dea57ac	0.11442503
111	0xbd0af9f9	-0.0339298
112	0xbdb4d777	-0.08830159
113	0xbd620b1d	-0.05518638
114	0xbd9983df	-0.074958555
115	0x3d4388b8	0.047737807
116	0x3d9724b5	0.07380048
117	0xbdb7afa5	-0.089690484
118	0xbdae184e	-0.085007295
119	0x3d1b70fe	0.037949555
120	0xbbebf012	-0.0072002495
121	0x3a9aa1e0	0.001179751
122	0xbdd7f722	-0.10545184
123	0xbdeffb5a	-0.117178634
124	0x3ce2b0d3	0.027672207
125	0xbd842122	-0.06451632
126	0xbe03057f	-0.12795065
127	0xbd8f2e88	-0.06991297
128	0xbd7ef17a	-0.06224201
129	0xbd3e89c4	-0.046518102
130	0xbe0bd57a	-0.13655654
131	0xbdcd44cb	-0.10022887
132	0x3cafda13	0.02146629
133	0x3cfa4b55	0.0305535
134	0x3e09763e	0.13424012
135	0xbc3ac024	-0.011398349
136	0x3c427ed0	0.011871055
137	0x3d24abc0	0.040202856
138	0x3cacc1bb	0.021088472
139	0x3cfc9ad4	0.030835547
140	0xbc67ca9e	-0.014147429
141	0xbcf91ebe	-0.030410167
142	0x3c7312b4	0.014836002
143	0x3bf537ed	0.0074834735
144	0x3cba8c0c	0.022771858
145	0x3c1d41f9	0.009598249
146	0xbd91cb82	-0.07118894
147	0xbd4b39f4	-0.049615815
148	0xbdaa44ed	-0.08313928
149	0xbca9e804	-0.020740516
150	0x3ddfdfed	0.10931382
151	0x3d14eb93	0.036357474
152	0x3dd81a7e	0.10551928
153	0x3deb8804	0.11500552
154	0x3df66c6c	0.120323986
155	0xbe10e8fa	-0.14151374
156	0xbd3ada23	-0.045618188
157	0xbd901c67	-0.07036667
158	0x3d84d962	0.06486775
159	0x3dce6053	0.10076966
160	0xbe12c71d	-0.14333768
161	0xbd96506c	-0.07339558
162	0xbe200cc4	-0.1562987
163	0xbd9e27e6	-0.07722454
164	0xbba5bdab	-0.0050580106
165	0xbd3e89f2	-0.046518274
166	0x3d7098e7	0.05873957
167	0xbcecdeb9	-0.028914796
168	0xbd7e9da8	-0.06216207
169	0xbdc907e6	-0.0981596
170	0x3c1f5aeb	0.009726266
171	0x3deb61df	0.11493277
172	0x3d4ea846	0.050453447
173	0xbd846d42	-0.06466152
174	0xbddc569b	-0.10758706
175	0x3ca978c6	0.020687472
176	0x3dd8299a	0.1055481
177	0x3bdcec21	0.006742016
178	0xbc1850de	-0.009296624
179	0x3d51820f	0.051149424
180	0x3cc25e90	0.023726732
181	0x3db73e6f	0.08947455
182	0x3dacf94d	0.08445988
183	0x3e0668fb	0.13125984
184	0x3d14b272	0.03630299
185	0xbddd5ad8	-0.10808343
186	0xbad9a296	-0.001660424
187	0xbb46cf52	-0.0030335975
188	0x3ca5fddf	0.020262657
189	0x3d847b98	0.06468886
190	0xbcac89c6	-0.02106179
191	0xbe2ab34f	-0.16669963
192	0xbd89b048	-0.06723076
193	0xbdc66b14	-0.09688392
194	0xbda97656	-0.08274524
195	0xbd0ee014	-0.034881666
196	0xbd4bfb46	-0.04980018
197	0xbd224d31	-0.039624397
198	0x3c5d61d2	0.013512092
199	0xbd84b15e	-0.064791426
200	0xbe0d79a0	-0.13815928
201	0xbc9e9fe6	-0.019363355
202	0xbde748d0	-0.11293185
203	0x3ca2bc5c	0.019865207
204	0xbda6af43	-0.08138897
205	0xbdcfc205	-0.10144428
206	0xbdefb596	-0.11704557
207	0xbcf04eb9	-0.029334413
208	0xbd985ddf	-0.074397795
209	0xbe18b9e0	-0.14914656
210	0x3d68e24d	0.056856442
211	0x3c200ea3	0.009769115
212	0xbdc3209d	-0.09527705
213	0xbe26e1c0	-0.16297054
214	0xbe141086	-0.14459428
215	0x3dfce8e7	0.1234911
216	0x3d72320d	0.059129763
217	0xbd1d7722	-0.038443692
218	0xbd6663c7	-0.0562475
219	0xbbd49144	-0.0064870436
220	0x3da7193f	0.08159112
221	0xbc95a128	-0.018265322
222	0x3dfcf3fc	0.12351224
223	0x3cdf9a1b	0.027295163
224	0xbc8c0b68	-0.017095283
225	0x3c04417c	0.008072253
226	0x3d5ae400	0.053440094
227	0x3e2cfa30	0.16892314
228	0x3e3b57f0	0.18295264
229	0x3dfbbf8f	0.12292396
230	0xbdcf61e1	-0.10126091
231	0xbd7de9fe	-0.06199073
232	0x3d595f56	0.053069435
233	0x3dc0e03c	0.09417769
234	0x3d466485	0.048435707
235	0xbe1f007a	-0.15527526
236	0xbe2a7a39	-0.16648187
237	0xbe037df7	-0.1284102
238	0xbdcbdeee	-0.0995463
239	0xbd3a0c50	-0.0454219
240	0x3d59eeb0	0.053206146
241	0x3de560f9	0.11200137
242	0x3dd2c546	0.10291533
243	0xbde4522e	-0.11148487
244	0xbd17a422	-0.037021764
245	0x3e13507c	0.14386171
246	0x3df60bcc	0.12013969
247	0x3d015a1c	0.031580076
248	0x3d42027b	0.047365647
249	0x3d8a839a	0.06763382
250	0x3de0a311	0.109686024
251	0x3e06a0b1	0.13147236
252	0x3dde8b21	0.108663805
253	0x3daa43d8	0.083137214
254	0x3e2067ba	0.15664569
255	0xbc4d560c	-0.012532722

conv2.bias f4 [16]
0	0x3dd4832c	0.103765815
1	0xbd767cf3	-0.060177755
2	0xbcfb2661	-0.030657949
3	0x3e328365	0.17432936
4	0xbdd87dbc	-0.10570857
5	0x3db0bbcd	0.0862957
6	0x3d34dece	0.044157796
7	0x3df9a4c7	0.12189632
8	0x3db63680	0.08897114
9	0x3d158488	0.036503345
10	0xbd31a8c7	-0.04337385
11	0x3dd6e763	0.10493352
12	0x3ddfb657	0.109234504
13	0x3b804dc4	0.0039155204
14	0x3d99519f	0.07486271
15	0xbddfad9d	-0.10921786

conv3.weight f4 [120, 16, 5, 5]
0	0xbc1ba92e	-0.009500785
1	0x3ce49cf1	0.027906867
2	0x3c6ff278	0.014645211
3	0xbd2d3de7	-0.042295363
4	0xbcd60ad7	-0.026128216
5	0x3cd036f8	0.025416836
6	0xba5b73d5	-0.00083714473
7	0xbd2357ef	-0.039878782
8	0xbc87e0a1	-0.016586604
9	0xbd3d0181	-0.046144012
10	0x3d97ad0b	0.07406052
11	0xbd7897d9	-0.06069169
12	0xbdb377e9	-0.087631054
13	0x3e1297a6	0.14315662
14	0x3b2e3006	0.0026578917
15	0x3cc736df	0.024318157
16	0xbdac2feb	-0.08407577
17	0xbda944c9	-0.08265073
18	0xbb732718	-0.003710216
19	0x3c5cae4f	0.013469293
20	0x3cfa1954	0.030529656
21	0x39f46898	0.00046617235
22	0x3da24101	0.07922555
23	0xbcbb3203	-0.022850996
24	0x3d00c45d	0.031437267
25	0xbd4ff7c6	-0.050773405
26	0xbcfe8e40	-0.03107369
27	0xbcf002b3	-0.029298162
28	0xbcac210e	-0.021011855
29	0xbc975d31	-0.018477054
30	0xbc285668	-0.010274507
31	0xbc71990c	-0.014745962
32	0xbd5a859e	-0.053350084
33	0xbd7c158b	-0.061543982
34	0xbd2955ae	-0.041341476
35	0x3d838b34	0.06423035
36	0x3df1340a	0.11777504
37	0x3aea682d	0.001788383
38	0xbd35e7e0	-0.044410586
39	0x3dc32bc1	0.0952983
40	0xbda55b2e	-0.08074032
41	0x3d1305b2	0.035894103
42	0x3c95342d	0.018213356
43	0xbd7a5bc6	-0.06112268
44	0xbd97cf74	-0.074126154
45	0xbc388a88	-0.011263497
46	0xbc269892	-0.010168212
47	0x3df2cdbe	0.118556485
48	0x3e03185a	0.12802258
49	0x3cb3f107	0.021965517
50	0x3d83dd6f	0.064387195
51	0xbaf9d286	-0.0019059933
52	0x3d197640	0.037466288
53	0x3d930e6f	0.07180487
54	0x3d8da3b0	0.069159865
55	0x3d0300de	0.03198325
56	0xbdcdd1f4	-0.10049811
57	0xbbe5dce2	-0.0070148567
58	0x3d330249	0.04370335
59	0xbdbe8020	-0.09301782
60	0x3cea8b84	0.02863098
61	0x3da4d3ab	0.08048185
62	0x3c331c23	0.010932001
63	0xbc934dbe	-0.017981406
64	0x3d9627f8	0.07331842
65	0x3c881542	0.016611699
66	0x3c9c4e96	0.019080441
67	0xbca23dc9	-0.019804852
68	0xbce0b636	-0.027430635
69	0x3d458836	0.048225604
70	0xbce5546f	-0.027994363
71	0xbba8854c	-0.0051428434
72	0x3cffa838	0.031208143
73	0xbda6f11e	-0.08151458
74	0x3c8d4e32	0.0172492
75	0x3cf066a8	0.029345825
76	0x3d58b6b3	0.05290861
77	0xbd2794d4	-0.040913418
78	0xbc01beeb	-0.007919054
79	0x3bd52574	0.006504709
80	0xbd2d3692	-0.04228837
81	0x3da34d6b	0.07973751
82	0xbcb10030	-0.021606535
83	0xbd04d49e	-0.03242933
84	0x3d3e8874	0.04651685
85	0xbd1751d0	-0.036943257
86	0xbcc8e980	-0.024525404
87	0x3d644009	0.05572513
88	0x3d1b7a28	0.037958294
89	0x3cfca9e4	0.030842729
90	0xbd53af32	-0.05168075
91	0xbdba62c5	-0.0910087
92	0x3d264ad0	0.04059869
93	0x3da0f0d0	0.07858431
94	0x3bfb79c8	0.0076744296
95	0x3c48b9ef	0.012251361
96	0xbd5cf142	-0.05394102
97	0x3c70daf7	0.014700643
98	0x3dea91dc	0.11453602
99	0x3c55b718	0.013044141
100	0xbd13ea92	-0.036112376
101	0xb9bf8642	-0.0003653039
102	0xbd01882f	-0.031624015
103	0xbcffe28d	-0.031235958
104	0xbd825373	-0.06363573
105	0xbd0a2753	-0.03372891
106	0xbc83f6e3	-0.016108936
107	0xbded9165	-0.115999974
108	0x3cbf3c95	0.023344317
109	0xbb3d59c3	-0.0028892613
110	0x3d321c12	0.0434838
111	0xbd8e9fba	-0.06964059
112	0xbd94d4fd	-0.07267187
113	0x3da86a24	0.0822337
114	0x3c7e7261	0.0155302
115	0xbca6cd88	-0.020361677
116	0xbd0a61a9	-0.033784542
117	0x3d41dd20	0.04733002
118	0x3d212908	0.03934577
119	0xbd077659	-0.03307185
120	0x3ad46375	0.0016203957
121	0x3ce511d6	0.027962606
122	0x3c94bfde	0.018157896
123	0xbb800414	-0.003906736
124	0x3d374333	0.04474182
125	0x3c048e07	0.008090503
126	0x3d2a51ea	0.041582026
127	0x3d6def81	0.058089737
128	0x3cf60092	0.030029569
129	0xbce86deb	-0.028372725
130	0x3c263c4b	0.010146211
131	0x3d4ad35f	0.049517985
132	0xbd97b12c	-0.0740684
133	0xbdc74b7f	-0.097311966
134	0xbda639a4	-0.08116463
135	0x3d62ecce	0.055401616
136	0xbc685b63	-0.014181945
137	0xbd8028f6	-0.06257813
138	0xbc4539c7	-0.012037701
139	0x3d0ed222	0.034868367
140	0x3cadf1bf	0.021233438
141	0xbdb6efc3	-0.0893245
142	0xbd3dd598	-0.046346277
143	0x3d5cf36c	0.053943083
144	0xbd9343c4	-0.0719066
145	0x3c8c5e17	0.01713471
146	0xbcaa2c20	-0.020772994
147	0x3c97a8eb	0.018513164
148	0x3d80f910	0.06297505
149	0x3d040f0b	0.03224091
150	0xbc5b2d19	-0.013377451
151	0xbd071708	-0.03298095
152	0x3d2b9091	0.041885916
153	0x3c759f02	0.014991524
154	0x3cb969fc	0.022633545
155	0xbd2c8427	-0.042118218
156	0x3daa8ff0	0.08328235
157	0xbd84a052	-0.06475891
158	0xbd72b4c8	-0.059254438
159	0x3c9ff54f	0.019526152
160	0x3c962155	0.01832644
161	0x3dbc909c	0.092072695
162	0xbcfb6a22	-0.030690257
163	0xbd688e6b	-0.056776445
164	0x3d8f10db	0.06985637
165	0xbc3f1811	-0.011663453
166	0x3c03b8bc	0.00803965
167	0xbc2c869d	-0.010530141
168	0xbda5d7cb	-0.080978
169	0xbcb1d38e	-0.021707322
170	0xbd025dac	-0.031827614
171	0xbb1f53b3	-0.0024311363
172	0x3c0773f1	0.008267389
173	0x3d35fbb4	0.044429496
174	0x3c4c6d95	0.012477298
175	0x3b93bfbb	0.00450894
176	0xbc840356	-0.016114872
177	0xbcb4f4ff	-0.02208948
178	0xbd0dd5f3	-0.034627866
179	0xbdca6429	-0.09882385
180	0x3ceb22e5	0.028703162
181	0xbccdcddf	-0.025122581
182	0xbdaf468b	-0.08558377
183	0x3c3cb480	0.011517644
184	0x3da3444d	0.07972012
185	0xbb467449	-0.0030281714
186	0xbd14ef88	-0.036361247
187	0x3c5bd3c8	0.013417192
188	0x3d95364a	0.072857454
189	0x3d92a313	0.0716001
190	0x3d38a031	0.045074645
191	0x3d52da0e	0.051477484
192	0x3db77ccc	0.0895935
193	0x3d9e1072	0.077179804
194	0xbd145c16	-0.036220632
195	0xbb0ffead	-0.0021971867
196	0xbaf9f702	-0.0019070806
197	0x3db97c52	0.09056915
198	0x3caf25fb	0.021380415
199	0x3b7b9563	0.0038388602
200	0x3ad59b98	0.0016296981
201	0xbd9f121c	-0.07767126
202	0x3cbbd608	0.022929206
203	0x3aba4534	0.0014211298
204	0xbc7a63ce	-0.015282584
205	0x3d1a5c90	0.03768593
206	0xbdc773bf	-0.09738874
207	0xbd9fc35e	-0.07800935
208	0xbd23ed4e	-0.040021233
209	0xbd3099cc	-0.043115422
210	0x3d7116b7	0.058859553
211	0x3ceee54a	0.029162068
212	0x3cca3050	0.02468124
213	0x3d0e18b7	0.03469154
214	0x3d864ad2	0.065572396
215	0xbdbf7053	-0.09347596
216	0x3d9a89a9	0.07545788
217	0xbcc3a62f	-0.023882953
218	0xbdd57538	-0.10422748
219	0x3d0ed0c9	0.03486708
220	0xbce9ed87	-0.028555645
221	0x3d4b7073	0.049667787
222	0x3d8dc48d	0.06922255
223	0x3cebd6f8	0.028789029
224	0x3d052576	0.03250643
225	0x3d395f3c	0.04525684
226	0x3cc82845	0.024433265
227	0x3d307b4c	0.043086335
228	0x3d6cd60d	0.057821322
229	0x3d117fda	0.03552232
230	0xbc2d6aa4	-0.010584507
231	0xbd3a7186	-0.04551842
232	0x3a0038a1	0.0004891251
233	0xbd8ec5a1	-0.069712885
234	0xbd144e4b	-0.03620748
235	0x3d96b0c4	0.07357934
236	0x3d58e22c	0.05295007
237	0xbd75d2bb	-0.06001542
238	0xbcf077ae	-0.029353943
239	0xbca480e8	-0.020080999
240	0x3cc14168	0.023590758
241	0x3cf34823	0.029697483
242	0xbc2b7130	-0.010463998
243	0xbc9bc09a	-0.019012738
244	0xbceaac85	-0.028646717
245	0xbcea2154	-0.028580345
246	0xbcabc99c	-0.020970158
247	0xbcc799dd	-0.02436536
248	0x3d1317bd	0.03591131
249	0xbc25b11c	-0.010113027
250	0xbc7f59db	-0.015585388
251	0x3c1c6950	0.009546593
252	0xba61ea30	-0.00086179655
253	0xbd7b7805	-0.061393756
254	0xbcce1a73	-0.025159096
255	0x3cc2c877	0.02377723

conv3.bias f4 [120]
0	0x3c2859ed	0.010275346
1	0x3d81e893	0.06343188
2	0x3c5547c2	0.013017597
3	0xbd1c246d	-0.038120676
4	0x3cac5378	0.021035895
5	0x3cc03455	0.023462454
6	0xbc2e6bf0	-0.0106458515
7	0xbd3792e3	-0.044817816
8	0x3da02e1a	0.07821293
9	0xbcef0af2	-0.029180024
10	0x3ca036fa	0.019557465
11	0x3cbb1e11	0.022841485
12	0xbc976a7e	-0.018483397
13	0x3d4e53c0	0.05037284
14	0xbddad15c	-0.106844634
15	0x3d0682c7	0.032839563
16	0x3d138a83	0.036020767
17	0xbc5e5435	-0.013569881
18	0x3c13b2be	0.009014783
19	0xbd0ce922	-0.03440202
20	0xbd4f02a5	-0.05053963
21	0x3bcc2b8b	0.0062307767
22	0xbd27f533	-0.041005325
23	0x3a7c8dd0	0.0009634169
24	0x3c850141	0.01623595
25	0xbdba5c7e	-0.09099673
26	0x3d658896	0.05603846
27	0xbd17ce8e	-0.03706222
28	0x3d90fb85	0.070792235
29	0x3c855cc0	0.016279578
30	0x3d0a8bb2	0.03382463
31	0xbdcc4c8e	-0.09975539
32	0xbdad9fcf	-0.08477747
33	0xbd3c59af	-0.045983966
34	0xbc19cff2	-0.009387957
35	0xbcedf8bd	-0.029049272
36	0x3daf265c	0.08552238
37	0xbd4cb5a2	-0.049977906
38	0x3d70a15f	0.058747645
39	0x3cf694f0	0.030100316
40	0xbd971604	-0.07377246
41	0x3d603391	0.054736678
42	0xbd35dbd1	-0.044399086
43	0xbd2bfad4	-0.041987255
44	0x3d07fc2a	0.033199467
45	0x3d397fee	0.04528802
46	0x3b69aaf2	0.003565487
47	0x3d2f2a16	0.042764746
48	0x3c346997	0.011011503
49	0xbced080b	-0.0289345
50	0xbd637851	-0.055534665
51	0x3c523c49	0.012831756
52	0xbd0cc2a2	-0.034365304
53	0xbc338734	-0.010957528
54	0x3d5013c2	0.050800093
55	0xbd69a149	-0.05703858
56	0xbd7c7c40	-0.06164193
57	0x3c6aa7d6	0.014322242
58	0xbd0ea4d4	-0.03482516
59	0x3cea1e27	0.02857883
60	0xbd375e8b	-0.044767898
61	0x3d0499e4	0.032373324
62	0xbb87f136	-0.0041486276
63	0xbc812ee0	-0.015769422
64	0x3d14b77d	0.0363078
65	0xbdaf89f1	-0.08571232
66	0xbc282de1	-0.010264845
67	0xbd04c505	-0.032414455
68	0xbd568112	-0.052369185
69	0xbd9013e2	-0.07035042
70	0xbd1b1773	-0.03786416
71	0xbd05aa95	-0.032633383
72	0xbc983b9d	-0.018583113
73	0xbd2a81e4	-0.04162778
74	0x3c9749a1	0.018467726
75	0xbc44aba5	-0.012003814
76	0x3d922744	0.071363956
77	0xbd117fa7	-0.03552213
78	0x3c571f1f	0.013129978
79	0xbd82a536	-0.06379168
80	0xbd66867f	-0.05628061
81	0xbc85b905	-0.016323576
82	0x3d5c161e	0.05373203
83	0x3bcdde9c	0.0062826406
84	0x3cfedcdf	0.031111179
85	0x3d117639	0.035513137
86	0x3c29ddc2	0.010367813
87	0xbca4c1ed	-0.020112002
88	0x3cea504e	0.028602745
89	0xbb6a751c	-0.003577537
90	0x3d734721	0.059394006
91	0x3dc23525	0.09482793
92	0x3bb338b9	0.0054694084
93	0xbd9bfa32	-0.0761608
94	0x3cb2f796	0.021846574
95	0xbce35cc3	-0.027754193
96	0xbcb29121	-0.021797718
97	0xbc898108	-0.01678516
98	0x3cda0f0c	0.026618503
99	0xbd68b557	-0.056813564
100	0xbdaccb26	-0.08437185
101	0x3db4860a	0.088146284
102	0x3c53b69b	0.0129219545
103	0x3d02593a	0.031823374
104	0xbd94bc4c	-0.07262477
105	0x3d7e87c7	0.062141206
106	0xbca55d26	-0.020186018
107	0x3c73e3ca	0.014885852
108	0x3be9b5ef	0.007132284
109	0xbcafa2e9	-0.021439986
110	0x3d9653d2	0.07340206
111	0x3c07fcc2	0.008300008
112	0x3be35dca	0.0069386708
113	0xbd351e84	-0.044218555
114	0x3c5333bb	0.0128907515
115	0xbd33aded	-0.04386704
116	0xbd85bd03	-0.06530192
117	0xbc6c4617	-0.014421008
118	0x3d1019b7	0.035180774
119	0xbc94e37f	-0.018174885

linear.weight f4 [84, 120]
0	0x3c29f40e	0.010373129
1	0xbd6361ac	-0.05551307
2	0xbd7d9c87	-0.061916854
3	0xbc2167c3	-0.009851399
4	0xbe14548c	-0.14485377
5	0x3d8f157a	0.06986518
6	0x3d947206	0.07248311
7	0xbd7e94ca	-0.062153615
8	0x3e122667	0.14272462
9	0xbe5b1c22	-0.2139745
10	0x3dc9c508	0.09852034
11	0x3db8d303	0.09024622
12	0x3d83abc6	0.064292476
13	0xbc3f3616	-0.01167061
14	0xbdf87540	-0.12131739
15	0xbd9e65b4	-0.07734242
16	0xbd3deb0d	-0.04636674
17	0xbc412f8c	-0.011791121
18	0x3e057413	0.1303256
19	0x3dcf1467	0.10111313
20	0x3debc2b6	0.115117475
21	0xbe26dc7c	-0.16295046
22	0x3c2523dc	0.01007935
23	0xbcf20ec8	-0.029548064
24	0xbd9772ad	-0.073949195
25	0x3cf6e328	0.030137613
26	0xbde96e2a	-0.11397965
27	0xbe007b7f	-0.1254711
28	0x3ca31488	0.019907251
29	0xbd7c42f4	-0.06158729
30	0xbe34e700	-0.17666245
31	0x3d0fdc94	0.03512247
32	0x3d97e559	0.074167915
33	0xbbd7e4d3	-0.0065885573
34	0x3d34980f	0.044090327
35	0x3da0f47c	0.07859132
36	0xbda075df	-0.07834982
37	0x3e087944	0.13327509
38	0xbd421fad	-0.04739349
39	0x3d6598ab	0.0560538
40	0x3ce0b7c9	0.027431386
41	0xbe32a4ba	-0.1744565
42	0x3e00b68e	0.12569639
43	0x3dc197f6	0.094528124
44	0xbdcf4c04	-0.10121921
45	0x3c24613b	0.010032947
46	0x3dd15246	0.102207705
47	0xbcbe6133	-0.023239708
48	0x3ca79a5b	0.020459345
49	0x3d55ddd5	0.05221351
50	0xbcc21549	-0.02369179
51	0x3d7ed0cc	0.062210843
52	0xbc8c29f6	-0.017109852
53	0x3b0140c3	0.001972244
54	0xbe14cb9b	-0.14530794
55	0x3d3a5652	0.045492478
56	0x3e007a21	0.12546588
57	0x3d8ca5fb	0.06867596
58	0xbd526326	-0.051364087
59	0xbcfb2b42	-0.030660275
60	0x3d026e5f	0.03184354
61	0xbd99ad96	-0.07503812
62	0x3d8dbccf	0.06920778
63	0xbd188fe3	-0.037246596
64	0x3d7c4d9f	0.061597463
65	0x3c349b28	0.01102332
66	0x3df5e455	0.120064415
67	0xbd9cd9ca	-0.076587275
68	0x3d58710f	0.052842196
69	0x3e020493	0.12697057
70	0xbd95fa00	-0.07323074
71	0xbde13617	-0.10996645
72	0xbe15b9d4	-0.14621669
73	0xbd9d7d83	-0.07689955
74	0x3d4f6373	0.05063195
75	0x3db6de5f	0.08929133
76	0xbc7cc653	-0.015428144
77	0xbcccd7d9	-0.025005268
78	0xbc8bbdd2	-0.017058287
79	0xbdd12984	-0.102129966
80	0xbca310e0	-0.019905508
81	0x3d663b7c	0.056209072
82	0xbdb8fd38	-0.09032673
83	0xbd0da077	-0.03457686
84	0xbe1213af	-0.14265321
85	0xbd614b30	-0.055003345
86	0x3dd8eb19	0.10591716
87	0xbd982930	-0.07429731
88	0x3b65e289	0.0035077652
89	0xbc3bb84b	-0.011457513
90	0xbc915922	-0.017742697
91	0xbd474e98	-0.048658937
92	0xbd098c3d	-0.033581007
93	0xbdb2b700	-0.08726311
94	0xbd7dae61	-0.06193388
95	0xbcfa24f6	-0.030535202
96	0x3d81d711	0.06339849
97	0xbd82a1a1	-0.063784845
98	0x3d88c4b1	0.06678141
99	0xbd7fcea2	-0.06245292
100	0x3d1252ef	0.035723623
101	0xbc643551	-0.013928727
102	0x3d93402c	0.07189974
103	0xbd845cb1	-0.06462992
104	0xbe064497	-0.13112102
105	0x3daaa997	0.08333128
106	0x3e02aa86	0.12760362
107	0xbd4c6a4a	-0.049906053
108	0xbdb63c61	-0.08898235
109	0xbc9d85be	-0.019228812
110	0xbd839c73	-0.06426325
111	0x3db92cf0	0.09041774
112	0x3e113028	0.14178526
113	0xbd23e16d	-0.040009905
114	0x3d294951	0.041329686
115	0x3d71f26f	0.059069093
116	0x3c6d1aa6	0.0144716855
117	0x3dd01393	0.101599835
118	0xbd4874de	-0.04893958
119	0x3a0d4b44	0.00053899386
120	0xbc40cc44	-0.011767451
121	0xbd148955	-0.036263783
122	0xbd8021dc	-0.06256458
123	0xbdc181dc	-0.09448597
124	0xbd35ba1f	-0.044366952
125	0x3c6b77bd	0.01437181
126	0xbcffcc9b	-0.031225493
127	0x3a58af5d	0.0008265877
128	0xbe07cd86	-0.13261995
129	0xbde6fa17	-0.112781696
130	0x3dc30f16	0.09524362
131	0xbe231d1c	-0.15929073
132	0xbc2606b8	-0.010133438
133	0x3ce1079e	0.027469452
134	0x3d8ff84b	0.0702978
135	0xbc7b702b	-0.015346567
136	0x3cf8489f	0.030308066
137	0x3c35b2fb	0.011090036
138	0x3d5cd52f	0.053914245
139	0x3d088f6a	0.033339895
140	0xbbcb5e8e	-0.00620634
141	0x3e45bb70	0.19309783
142	0x3c61f854	0.013792116
143	0x3bd16d59	0.006391209
144	0x3dd64e40	0.10464144
145	0x3d18d6b0	0.037314117
146	0x3bcb42aa	0.0062030153
147	0xbd7affb9	-0.061279032
148	0xbaec1c1e	-0.0018013751
149	0x3de14337	0.10999148
150	0x3d2953dc	0.04133974
151	0xbc05e43d	-0.008172092
152	0x3d44b9d3	0.04802878
153	0x3dbef0b7	0.093232565
154	0xbc2cb34c	-0.010540795
155	0x3de0347f	0.10947513
156	0x3de385bb	0.111094914
157	0xbd265839	-0.04061148
158	0xbe0f28ac	-0.13980359
159	0xbc0d6be9	-0.008631685
160	0xbd89151b	-0.06693479
161	0x3e128e01	0.14311983
162	0xbe2ee66d	-0.17080088
163	0xbe2c659e	-0.16835639
164	0xbddd4a45	-0.108051814
165	0xbdf6dd9e	-0.12053989
166	0xbdf1343d	-0.11777542
167	0xbd64f9b3	-0.055902194
168	0x3d467b2b	0.048457306
169	0x3ba43ff0	0.0050125048
170	0xbd31ea4c	-0.043436334
171	0x3d8ab8c2	0.06773521
172	0x3c9f85c4	0.019472964
173	0x3d9dbf2f	0.07702481
174	0xbd7cf81f	-0.061760064
175	0x3dd259a5	0.102710046
176	0x3e1894ff	0.14900587
177	0x3d52209f	0.05130064
178	0xbd1a4acb	-0.037668984
179	0xbe594bbd	-0.21220298
180	0xbd07e0ec	-0.033173487
181	0x3e259192	0.16168812
182	0xbdbc341e	-0.09189628
183	0x3dd4e769	0.103957005
184	0x3dc4c021	0.09606958
185	0xbceb3aca	-0.028714556
186	0x3e02d84e	0.12777826
187	0xbdc7b99d	-0.097522
188	0xbd0fe3f2	-0.035129495
189	0x3dd6bb20	0.1048491
190	0x3dceed28	0.10103828
191	0xbdf4fe0d	-0.11962519
192	0xbd1ee433	-0.038791846
193	0x3db380b7	0.08764785
194	0x3e14af97	0.14520107
195	0x3cde8403	0.027162557
196	0x3c3a4874	0.011369813
197	0xbb8f99a6	-0.00438233
198	0x3c27e951	0.010248498
199	0x3e4202b3	0.18946342
200	0xbdc10c3b	-0.09426161
201	0x3de8aa73	0.113606356
202	0xbd861ff8	-0.06549066
203	0x3d5517e2	0.05202473
204	0x3e4bb115	0.1989177
205	0xbdd825db	-0.10554095
206	0xbd6975b2	-0.05699701
207	0x3ddf2962	0.10896565
208	0xbe56c38f	-0.20973037
209	0x3d87ecce	0.06636964
210	0xbd4992a6	-0.04921212
211	0x3cb83ddc	0.022490434
212	0xbbd582b9	-0.0065158275
213	0x3cd28eb1	0.025702806
214	0x3d7d64f4	0.061863855
215	0xbddce2d6	-0.10785453
216	0x3db539ff	0.088489525
217	0x3e2cbf97	0.1686996
218	0xbe19e34b	-0.15028112
219	0x3dc917c8	0.09818989
220	0x3def6ac8	0.11690289
221	0xbe38b292	-0.18036869
222	0x3d0047f7	0.03131863
223	0xbdaef05e	-0.0854194
224	0xbd2976fb	-0.041373234
225	0xbca64841	-0.020298125
226	0xbdead479	-0.11466307
227	0x3d3495d3	0.044088196
228	0x3e31b116	0.17352709
229	0xbd76851c	-0.060185537
230	0x3e20b10a	0.15692535
231	0xbcccb6f1	-0.024989577
232	0x3cc6af6f	0.024253575
233	0xbd82156d	-0.06351743
234	0x3d2c8c4f	0.042125996
235	0x3bd572a8	0.006513912
236	0xbd0340fa	-0.03204439
237	0xbde9bd04	-0.11413005
238	0x3ba54454	0.0050435457
239	0xbb073f9c	-0.002063728
240	0xbb485e4b	-0.003057378
241	0x3dcd463a	0.1002316
242	0x3df209ef	0.11818301
243	0xbd91b8dc	-0.07115337
244	0x3d32863a	0.04358504
245	0x3d4484b6	0.047978126
246	0xbd4ad110	-0.049515784
247	0x3dc7b41a	0.097511485
248	0x3c72c337	0.014817051
249	0xbc382e8f	-0.011241569
250	0xbdb144d0	-0.08655703
251	0x3e10b7ff	0.14132689
252	0x3d12d19c	0.03584443
253	0x3d6ed0e3	0.05830468
254	0xbe025407	-0.12727366
255	0x3dc4c1d0	0.09607279

linear.bias f4 [84]
0	0x3d895035	0.067047514
1	0xbd7bc5ab	-0.061467808
2	0xbbe0560e	-0.006846196
3	0x3d043da5	0.03228535
4	0xbb0e2911	-0.0021691958
5	0xbd9bad91	-0.076014645
6	0x3d56ae79	0.052412484
7	0xbd989792	-0.07450785
8	0xbd55a35c	-0.052157745
9	0xbcd793eb	-0.02631565
10	0x3dabe0aa	0.08392461
11	0x3d4e1007	0.050308254
12	0xbcc66522	-0.024218146
13	0xbdc49114	-0.09597984
14	0x3df64632	0.120251074
15	0xbd503cd1	-0.05083925
16	0x3df92ce2	0.12166764
17	0x3c4be378	0.0124443695
18	0x3c70b9ff	0.014692782
19	0x3d28e73e	0.041236155
20	0xbd8b375c	-0.06797668
21	0x3da978a7	0.08274966
22	0xbd390c10	-0.04517752
23	0xbddd84f3	-0.10816374
24	0x3d3bbded	0.045835424
25	0x3c9bab89	0.019002693
26	0x3d89d40e	0.06729899
27	0xbe0f851b	-0.1401562
28	0x3c930eba	0.017951358
29	0xbcc49846	-0.02399839
30	0xbd672317	-0.05642995
31	0xbb83e957	-0.004025619
32	0x3db3679d	0.08759997
33	0xbda16c51	-0.07881988
34	0x3cfc25c6	0.03077973
35	0xbc397cca	-0.011321256
36	0x3dc2a13e	0.09503411
37	0xbd785154	-0.060624436
38	0xbd95dc79	-0.073174424
39	0x3d84b015	0.064788975
40	0x3d896dac	0.067103714
41	0xbd89fcb7	-0.06737655
42	0xbd8fe688	-0.07026392
43	0xbd6fdce4	-0.058560267
44	0x3cb96f7b	0.022636166
45	0x3df4eee8	0.1195963
46	0x3ceaf1a0	0.028679669
47	0xbc08f05e	-0.008358089
48	0x3d5b40cd	0.053528596
49	0x3d180ecd	0.03712349
50	0xbd501dc2	-0.05080963
51	0xbcdfe4c6	-0.027330767
52	0x3db61b82	0.088919654
53	0x3df87895	0.12132374
54	0xbd83c72a	-0.06434472
55	0xbd6488bc	-0.055794463
56	0x3d25632c	0.04037778
57	0x3daba3ef	0.08380877
58	0xbcc44746	-0.023959767
59	0xbde3f19b	-0.11130067
60	0x3d98a419	0.07453174
61	0x3d2083ab	0.03918807
62	0xbcb4c7a6	-0.022067856
63	0x3d9e2cfc	0.07723424
64	0x3cc7e8f2	0.02440307
65	0x3dd86d99	0.10567779
66	0xbdb8ef9a	-0.09030075
67	0xbcd593cb	-0.02607145
68	0xbc983a8b	-0.018582603
69	0xbd0c960c	-0.034322783
70	0xbd127b2f	-0.03576201
71	0xbd76db00	-0.06026745
72	0x3d9c41d7	0.076297455
73	0x3db24701	0.08704949
74	0x3d758bf5	0.059947927
75	0xbd8c8be7	-0.06862622
76	0xbceb07ba	-0.028690208
77	0xbd73d58e	-0.059529833
78	0x3d87b8b9	0.0662703
79	0xbb0b078e	-0.002121422
80	0x3cf5e7a1	0.030017676
81	0x3d162603	0.036657345
82	0xbd141ae7	-0.03615847
83	0xbd4dca56	-0.05024179

output.weight f4 [43, 84]
0	0x3da4e781	0.08051968
1	0xbda18d8a	-0.078883246
2	0x3e05a5ca	0.13051525
3	0xbd6f5615	-0.058431704
4	0xbdd921e2	-0.10602166
5	0x3e1a4a3e	0.15067384
6	0x3d59777f	0.053092476
7	0xbd3037ea	-0.043022074
8	0x3d7e224a	0.06204442
9	0x3d824966	0.06361656
10	0xbe0c59d5	-0.13706143
11	0x3d89737f	0.06711482
12	0x3ba03f9b	0.004890395
13	0x3e168692	0.14699772
14	0x3d822f0a	0.06356628
15	0x3e353809	0.17697157
16	0x3d2cd5ec	0.0421962
17	0x3dc97017	0.098358326
18	0xbd89950e	-0.06717883
19	0x3db5b3cd	0.08872185
20	0x3d8bd6a6	0.0682805
21	0xbc63616b	-0.013878207
22	0x3d2b936d	0.041888643
23	0x3c783516	0.015149375
24	0xbe02ec76	-0.12785515
25	0xbd6f3872	-0.05840344
26	0xbde0031e	-0.109380946
27	0xbd134378	-0.035953015
28	0xbd9c890b	-0.07643326
29	0x3d5308d6	0.0515221
30	0x3d9b08ae	0.07570015
31	0x3e0e4fd6	0.13897642
32	0xbd896cbb	-0.06710192
33	0x3d3b0edd	0.04566847
34	0xbe0f60d6	-0.14001784
35	0xbd361a04	-0.044458404
36	0xbc2243ad	-0.0099038305
37	0xbd9b9e90	-0.07598603
38	0xbd1c4652	-0.038153
39	0xbda5c7e8	-0.0809477
40	0xbdae2f53	-0.0850512
41	0x3dcbb9a6	0.09947519
42	0xbdc25fef	-0.09490954
43	0xbd1d63f9	-0.03842542
44	0xbd14a047	-0.036285665
45	0xbcd1d26e	-0.025613036
46	0xbc188545	-0.009309118
47	0xbd82a4ef	-0.06379115
48	0x3d1adca8	0.03780809
49	0xbe116b4e	-0.1420109
50	0xbbc392f1	-0.0059684445
51	0xbc84f9dc	-0.016232423
52	0xbe26852d	-0.1626174
53	0xbd3d29e4	-0.04618253
54	0xbe051952	-0.1299794
55	0xbd6c88f4	-0.057747796
56	0xbe1082c2	-0.1411238
57	0xbe1ef395	-0.15522607
58	0x3d975819	0.0738985
59	0xbd35909b	-0.04432736
60	0xbd827cf7	-0.063714914
61	0xbd6dfaa0	-0.058100343
62	0x3c3a5ab0	0.011374161
63	0x3d91fe35	0.07128564
64	0x3da022b2	0.078191176
65	0xbd223a40	-0.039606333
66	0xbd0763aa	-0.03305403
67	0xbdf62ab6	-0.12019865
68	0xbcc6432c	-0.024201952
69	0x3d553194	0.052049235
70	0x3bf45bcf	0.0074572335
71	0x3cfeea25	0.031117508
72	0x3e061b40	0.13096333
73	0xbbadf6a8	-0.0053089447
74	0xbe0362a9	-0.12830605
75	0x3d91364b	0.07090434
76	0xbce321c3	-0.02772606
77	0x3d46c6d0	0.048529446
78	0x3cb8044a	0.022462983
79	0x3df95c3e	0.12175797
80	0x3dc0d782	0.09416105
81	0x3dd1c11b	0.1024191
82	0xbcb37e81	-0.021910908
83	0x3e0c0798	0.13674772
84	0xbe090871	-0.13382126
85	0xbdb52e82	-0.08846761
86	0x3b284e7c	0.0025681546
87	0x3de7a12b	0.11310037
88	0xbd5e761d	-0.05431186
89	0x3d3fa588	0.046788722
90	0xbde01082	-0.109406486
91	0x3da30555	0.079600014
92	0xbdf0c4c7	-0.11756282
93	0x3dcdd893	0.10051074
94	0xbe09c536	-0.13454136
95	0x3dcf8609	0.10132987
96	0xbd6407dd	-0.05567156
97	0x3d451397	0.048114385
98	0xbd923a3b	-0.07140013
99	0x3dadb105	0.084810294
100	0xbe3eb5e0	-0.18624067
101	0x3deb42d2	0.11487354
102	0xbd1f17ec	-0.038841173
103	0xbd897cd4	-0.06713262
104	0x3e034f26	0.12823161
105	0xbd611e1b	-0.05496035
106	0xbdcfeff1	-0.10153187
107	0xbe114419	-0.14186133
108	0xbdd28dee	-0.10280977
109	0x3d193481	0.037403587
110	0x3d47eb00	0.048808098
111	0xbd88e80e	-0.06684886
112	0xbda8e8f5	-0.08247558
113	0x3e0ae881	0.13565256
114	0xbc614b2a	-0.013750831
115	0x3e1212c2	0.14264968
116	0x3d5702b2	0.052492805
117	0x3dc4ddcb	0.09612616
118	0xbdce2a99	-0.100667186
119	0x3e0de1fd	0.13855739
120	0xbdfc0cfd	-0.12307165
121	0xbdf8ada0	-0.12142491
122	0x3d9649d2	0.07338299
123	0x3e2d689a	0.16934434
124	0xbe02f5f1	-0.12789132
125	0xbe08f1bc	-0.13373464
126	0xbda6125f	-0.08108973
127	0x3b8de967	0.0043308022
128	0xbdb906bc	-0.090344876
129	0xbe0a9935	-0.13535006
130	0xbc503eb4	-0.012710262
131	0x3d94723e	0.072483525
132	0xbd84ca4e	-0.06483899
133	0x3ba53e6c	0.0050428417
134	0x39087506	0.00013013565
135	0x3c624d39	0.013812357
136	0xbe1e37e3	-0.15451007
137	0xbd391492	-0.045185633
138	0xbd791c33	-0.06081791
139	0xbd1930a2	-0.037399895
140	0xbbadff75	-0.005309994
141	0xbcefb168	-0.029259399
142	0x3da30746	0.07960372
143	0xbdd143b9	-0.10217995
144	0xbe11d640	-0.14241886
145	0x3defb131	0.117037185
146	0x3dd62247	0.10455757
147	0x3c0bae7d	0.008525488
148	0x3d6dc1c4	0.058046117
149	0xbe055481	-0.13020517
150	0x3da94e61	0.08266903
151	0xbc26557d	-0.010152218
152	0x3dae7eb1	0.08520258
153	0x3ae5bd66	0.0017527759
154	0xbdb6a5bb	-0.08918329
155	0x3cb268b9	0.021778451
156	0x3e1252c0	0.14289379
157	0x3dc6f5dd	0.097148634
158	0xbe109a6b	-0.14121406
159	0x3cb3e49c	0.021959595
160	0xbdbe88aa	-0.0930341
161	0x3d0ebf44	0.034850374
162	0x3c387ca5	0.011260186
163	0x3db98b62	0.09059788
164	0xbd07c007	-0.033142116
165	0x3bb86b31	0.0056280126
166	0xbd6040f0	-0.05474943
167	0x3d95f93a	0.07322927
168	0xbd1d92f4	-0.038470224
169	0x3dab46b0	0.08363092
170	0xbdecdd14	-0.11565605
171	0xbcad2aed	-0.021138633
172	0xbdc401ed	-0.0957068
173	0x3de7a83a	0.113113835
174	0x3db80439	0.089851804
175	0xbd8fdeb5	-0.070249
176	0xbd8017a2	-0.062545076
177	0x3cbfdee0	0.023421705
178	0x3c806c8c	0.01567676
179	0xbcb7ee17	-0.022452397
180	0xbe09d695	-0.13460763
181	0xbd82d717	-0.063886814
182	0xbc5c95c4	-0.013463441
183	0xbe0193f2	-0.12654093
184	0xbe09988e	-0.13437101
185	0xbdf5bf79	-0.11999411
186	0xbd4e5b8a	-0.050380267
187	0xbdc72399	-0.097235866
188	0x3e0618f7	0.13095461
189	0x3d3b172f	0.045676406
190	0x3cd83c9d	0.02639609
191	0x3e00f08c	0.12591761
192	0x3d334fb8	0.043777198
193	0x3dccbb91	0.09996713
194	0xbda4443a	-0.08020826
195	0xbddb3b77	-0.107047014
196	0x3d2d1558	0.042256683
197	0x3da72edf	0.08163237
198	0xbdfccfb3	-0.12344303
199	0x3dbdb81f	0.09263634
200	0xbdf8bc45	-0.121452846
201	0xbdb2f7af	-0.08738648
202	0xbd5f28fe	-0.054482453
203	0xbc432b9b	-0.011912252
204	0xbca35b56	-0.019941013
205	0xbde00fe6	-0.109405324
206	0xbdda137e	-0.10648249
207	0x3dd76c6a	0.10518725
208	0xbde67ef1	-0.11254681
209	0xbd80dba3	-0.062918924
210	0x3abf3820	0.001458887
211	0x3d519325	0.05116572
212	0xbdaa41be	-0.083133206
213	0xbcf9e7ba	-0.030506004
214	0x3d416e0d	0.047224093
215	0xbe24bca8	-0.16087592
216	0x3ce96b38	0.028493509
217	0x3df406c9	0.11915357
218	0xbdc22330	-0.09479368
219	0x3ceda788	0.02901055
220	0xbdfc0047	-0.123047404
221	0x3d5a9ba2	0.05337108
222	0xbdb928b0	-0.09040964
223	0x3d43181d	0.047630418
224	0xbdb6b6c7	-0.08921581
225	0xbd906a54	-0.070515305
226	0x3dcff443	0.10154011
227	0x3d834795	0.064101376
228	0xbdae6be1	-0.0851667
229	0xbd50080c	-0.050788924
230	0x3d97ea23	0.07417705
231	0x3e084dec	0.13310975
232	0x3c398724	0.011323724
233	0x3ddd5e07	0.1080895
234	0x3af71324	0.0018850309
235	0xbdfd3d0a	-0.12365158
236	0x3db721cb	0.08941992
237	0xbdbda036	-0.092590734
238	0xbe13bb4a	-0.14426914
239	0x3dee91ca	0.11648901
240	0x3d97ac45	0.07405905
241	0xbd47c664	-0.048773184
242	0x3e3d54e6	0.18489417
243	0xbcce357d	-0.02517199
244	0xbd85d729	-0.06535179
245	0x3d8f31c7	0.06991916
246	0xbc6ef8ad	-0.014585656
247	0x3d7702a3	0.06030525
248	0x3ce16926	0.027515959
249	0x3db0240a	0.08600624
250	0xbe2108a2	-0.1572595
251	0xbd7f551b	-0.062337022
252	0x3c74d8be	0.0149442535
253	0xbdf0714f	-0.11740362
254	0x3e1a288c	0.1505453
255	0x3e04eb3c	0.1298036

output.bias f4 [43]
0	0xbde36077	-0.111023836
1	0xbd943fa8	-0.07238704
2	0x3d9a5c32	0.07537116
3	0xbce1764d	-0.02752223
4	0x3db8ff36	0.090330526
5	0x3c4ab54f	0.012372329
6	0x3db838d7	0.08995216
7	0xbb94e4ca	-0.0045438753
8	0xbca8f99c	-0.020626836
9	0xbd122cee	-0.03568738
10	0x3c3974d4	0.011319358
11	0xbdd869b9	-0.1056704
12	0x3db075ab	0.086161934
13	0x3d793496	0.060841165
14	0x3cd87a30	0.026425451
15	0x3cd3a3ee	0.025835004
16	0x3d796d83	0.060895454
17	0xbc95a6ee	-0.018268075
18	0x3d1eb6ed	0.03874867
19	0xbd3d7146	-0.046250604
20	0xbb927166	-0.0044690846
21	0x3d6e065d	0.058111537
22	0xbd4a306b	-0.04936258
23	0x3d78cc5d	0.06074177
24	0xbdb71dc4	-0.08941224
25	0x3b9766e7	0.004620421
26	0xbb98a73f	-0.004658609
27	0xbd485c12	-0.04891593
28	0xbd1f725e	-0.03892743
29	0xbdfe7ee1	-0.12426544
30	0xbdb8c3dd	-0.09021733
31	0xbb0b3830	-0.0021243207
32	0x3d3f1185	0.046647567
33	0xbc655a91	-0.0139986435
34	0x3d81c811	0.06336988
35	0x3d72abf3	0.059246015
36	0x3d978d65	0.07400016
37	0x3d539166	0.051652335
38	0xbc38a290	-0.011269227
39	0x3d6d6170	0.05795425
40	0xbd011aa5	-0.03151955
41	0xbd1d6620	-0.038427472
42	0x3d96bcac	0.07360205

exp_avg f4 [6, 1, 5, 5]
0	0xbc287938	-0.010282807
1	0xbc24580c	-0.010030758
2	0xbc068ea2	-0.008212717
3	0xbbd4e2c8	-0.006496761
4	0xbbc37942	-0.005965383
5	0xbc25494b	-0.010088275
6	0xbbf5533d	-0.0074867294
7	0xbb822fb9	-0.003972974
8	0xbb2f831c	-0.0026781028
9	0xbb81bbdd	-0.0039591626
10	0xbc124a43	-0.008928838
11	0xbb805bff	-0.003917217
12	0x3a51a485	0.00079972326
13	0x3ad5b372	0.0016304089
14	0xba8e705c	-0.0010867226
15	0xbc11864a	-0.008882115
16	0xbb0fe0d5	-0.0021954079
17	0x3b42f741	0.0029749426
18	0x3b85eacb	0.0040868274
19	0x3aa60881	0.0012667329
20	0xbc33202e	-0.010932965
21	0xbb920f53	-0.004457393
22	0x3a180bcc	0.0005800098
23	0x3b4c003a	0.0031128065
24	0x3ae1fc97	0.0017241415
25	0xbb999775	-0.0046872445
26	0xba1542b0	-0.0005693836
27	0x3b05726f	0.0020362397
28	0x3b1080f5	0.002204952
29	0x3839b847	4.427906e-05
30	0xbb481129	-0.0030527806
31	0x3b161bb6	0.00229047
32	0x3bb76255	0.005596439
33	0x3bada457	0.005299132
34	0x3b0084a9	0.0019610322
35	0xbb3d6856	-0.00289013
36	0x3b3ccacb	0.0028807397
37	0x3bcde8cb	0.0062838546
38	0x3bc9234c	0.006138241
39	0x3b374fca	0.0027971142
40	0xbb761275	-0.0037547622
41	0x3aaa7671	0.0013005269
42	0x3b804b63	0.003915237
43	0x3b8a3d44	0.004218729
44	0x3b0f38f5	0.0021854017
45	0xbbcb7864	-0.00620942
46	0xbb260446	-0.0025332137
47	0xb9d8c585	-0.00041345894
48	0x3a81cef8	0.00099036
49	0x3a676dc5	0.00088283076
50	0x3bcf9f70	0.006336145
51	0x3acd7948	0.0015676403
52	0xbaf2ec33	-0.0018533528
53	0xbba1557b	-0.00492352
54	0xbbcb9957	-0.006213348
55	0x3bf47606	0.0074603586
56	0x3ac82d36	0.0015272263
57	0xbb4eab24	-0.0031535113
58	0xbbf6c17c	-0.0075303894
59	0xbc1d801f	-0.009613066
60	0x3c1bae9d	0.00950208
61	0x3b7bdf6e	0.0038432735
62	0xbaba37c2	-0.0014207291
63	0xbbd735f9	-0.0065677133
64	0xbc1bcbae	-0.00950901
65	0x3c3a295d	0.011362401
66	0x3be7d02f	0.007074378
67	0x3ae572ad	0.001750549
68	0xbb81b83b	-0.0039587296
69	0xbbfdca29	-0.0077450466
70	0x3c3ec433	0.011643457
71	0x3c137e3a	0.009002263
72	0x3b90d9ee	0.0044205105
73	0xba7c6988	-0.00096287625
74	0xbbacf765	-0.005278515
75	0xbbe026eb	-0.006840577
76	0xbc04051e	-0.008057861
77	0xbb8336c8	-0.004004333
78	0x3b1b648c	0.0023711054
79	0x3c103c2f	0.008803411
80	0xbc103ff9	-0.008804315
81	0xbbcb4042	-0.0062027285
82	0x39761c30	0.00023470889
83	0x3bde6b84	0.006787719
84	0x3c3e1d8e	0.011603726
85	0xbc09f9d3	-0.008421379
86	0xbb177130	-0.0023108236
87	0x3bb4e8d4	0.0055209193
88	0x3c3ce189	0.011528381
89	0x3c677a53	0.014128285
90	0xbbf378d0	-0.0074301735
91	0x3a67ec4f	0.00088471634
92	0x3c0d3cfd	0.008620498
93	0x3c5eabf7	0.013590804
94	0x3c713fa4	0.014724646
95	0xbbf8bf7c	-0.007591186
96	0x3a829843	0.000996359
97	0x3bef2aee	0.007298819
98	0x3c3550cb	0.011066626
99	0x3c4322c0	0.0119101405
100	0xbc47737a	-0.012173528
101	0xbc1118e3	-0.008856031
102	0xbbcf8806	-0.006333354
103	0xbbb62590	-0.005558677
104	0xbb9fa2e9	-0.0048717153
105	0xbc468aab	-0.012118022
106	0xbbe99bf3	-0.0071291863
107	0xbb6746bc	-0.0035289964
108	0xbb3a7dfc	-0.002845644
109	0xbb49e895	-0.0030808796
110	0xbc42e5f3	-0.0118956445
111	0xbbc6ad4a	-0.006063138
112	0xbae0c369	-0.001714808
113	0xb9fc1368	-0.00048079644
114	0xba95e604	-0.0011436348
115	0xbc46a0d0	-0.012123302
116	0xbbc56b15	-0.006024728
117	0xbab7cfe0	-0.0014023744
118	0x3a1c254f	0.0005956487
119	0x39b43680	0.0003437288
120	0xbc5499cc	-0.012976121
121	0xbbf05d6e	-0.0073353564
122	0xbb332554	-0.0027335482
123	0x377b4742	1.4977357e-05
124	0x39fadb17	0.0004784695
125	0x3c202579	0.009774559
126	0x3c3fff97	0.011718652
127	0x3c41b099	0.011821889
128	0x3c429d12	0.011878269
129	0x3c410c8c	0.011782777
130	0x3c09787a	0.00839054
131	0x3c08010f	0.008301034
132	0x3bf83ee7	0.007575858
133	0x3bfedcdc	0.0077777933
134	0x3c0daf2e	0.008647723
135	0x3bebddad	0.0071980567
136	0x3b9c0b7e	0.004762112
137	0x3b5460e7	0.003240639
138	0x3b667607	0.0035165565
139	0x3ba58c2e	0.005052111
140	0x3c0469e5	0.008081888
141	0x3b6c1af5	0.003602681
142	0x3a8a6854	0.0010559657
143	0x3a87682a	0.0010330726
144	0x3b445e53	0.0029963448
145	0x3c3dba14	0.011580009
146	0x3bcbf21c	0.00622393
147	0x3b2320c7	0.0024891363
148	0x3aa42c7f	0.0012525468
149	0x3b35e927	0.0027757378

exp_avg_sq f4 [6, 1, 5, 5]
0	0x3a0048b9	0.0004893649
1	0x3a0926ef	0.0005231937
2	0x3a10f64c	0.0005529865
3	0x3a15a81b	0.00057089486
4	0x3a18edc4	0.00058337697
5	0x39d6b40c	0.00040951406
6	0x39db99d6	0.00041885552
7	0x39df88cf	0.00042635805
8	0x39deb609	0.00042478766
9	0x39e3945c	0.0004340735
10	0x39b16302	0.00033833837
11	0x39aa8494	0.00032523705
12	0x39a89bb0	0.00032159453
13	0x39a0bc0c	0.00030657684
14	0x39a1892b	0.0003081051
15	0x399c17de	0.0002977242
16	0x39855979	0.000254344
17	0x397b74af	0.00023980693
18	0x396b7662	0.00022455447
19	0x39709ee3	0.00022947374
20	0x39a16c0b	0.0003078881
21	0x396c65eb	0.00022544681
22	0x394dbfc7	0.00019621766
23	0x394b9f98	0.00019419042
24	0x396a875f	0.00022366409
25	0x3940a75b	0.00018372892
26	0x39235fd1	0.00015580586
27	0x39319a63	0.00016937549
28	0x3968170d	0.00022133831
29	0x39a41b6d	0.0003130095
30	0x391431b3	0.00014132894
31	0x38e41ae0	0.00010876893
32	0x38efe7ba	0.000114395705
33	0x391eb8ce	0.000151369
34	0x396c0157	0.00022507213
35	0x3920d180	0.00015336834
36	0x38fe43cf	0.00012124294
37	0x38fc4438	0.00012029003
38	0x391934ae	0.00014610842
39	0x39583c77	0.0002062189
40	0x395cac9f	0.00021045141
41	0x3935739b	0.00017304572
42	0x392b8b05	0.0001635962
43	0x394014d4	0.00018318306
44	0x3979730e	0.00023789352
45	0x39a43a77	0.00031324077
46	0x3989480e	0.0002618436
47	0x397a87b0	0.00023892405
48	0x3981c23c	0.00024749513
49	0x39982245	0.00029017232
50	0x39b9be5c	0.00035427778
51	0x398d0fbf	0.00026905347
52	0x396c5373	0.00022537801
53	0x3975b1a1	0.00023431193
54	0x39a02779	0.00030546988
55	0x39a986e1	0.00032334685
56	0x398159c7	0.00024671687
57	0x395f7b6a	0.00021312913
58	0x39630ce2	0.00021653206
59	0x398bfffb	0.00026702866
60	0x39b2377e	0.0003399215
61	0x398e3c23	0.00027129156
62	0x398102fb	0.00024607018
63	0x398483b8	0.0002527514
64	0x399b9bd3	0.00029680002
65	0x39d0d62d	0.00039832425
66	0x39af297f	0.00033409518
67	0x39a18f3a	0.00030815025
68	0x39a61cb4	0.00031683373
69	0x39bcfbbe	0.00036045717
70	0x39fc8d91	0.0004817066
71	0x39dffe43	0.00042723314
72	0x39d07201	0.0003975779
73	0x39d38481	0.0004034378
74	0x39e9aac1	0.00044568445
75	0x39f1a332	0.00046088692
76	0x39edba52	0.00045342982
77	0x39ebaaa5	0.00044949833
78	0x39ec64d0	0.0004508854
79	0x39f1c6a0	0.0004611509
80	0x39e13551	0.00042955068
81	0x39d08f61	0.00039779677
82	0x39c4e7c8	0.00037556724
83	0x39be34b9	0.00036278905
84	0x39bc0f0a	0.0003586936
85	0x39cd7094	0.00039184524
86	0x39b86f9d	0.00035178373
87	0x39ac9641	0.00032918344
88	0x39a2394f	0.00030941746
89	0x399790a2	0.00028908724
90	0x39be598f	0.0003630635
91	0x39aae868	0.00032598083
92	0x39a1dde6	0.0003087364
93	0x39969000	0.00028717518
94	0x3988e1d7	0.00026108205
95	0x39b23ae4	0.00033994683
96	0x39a2f733	0.00031083226
97	0x399ee8dc	0.00030309602
98	0x39993103	0.0002921895
99	0x3997940b	0.00028911265
100	0x393bf091	0.00017923328
101	0x391a8440	0.00014735851
102	0x390cd5fe	0.00013431159
103	0x390e4806	0.00013569006
104	0x3925a104	0.00015795609
105	0x390a6c3b	0.00013201025
106	0x38c64427	9.45407e-05
107	0x38a5a582	7.898641e-05
108	0x389b0e48	7.393636e-05
109	0x38b6d89d	8.718784e-05
110	0x38d6b834	0.00010238626
111	0x389394de	7.037235e-05
112	0x388341a8	6.258796e-05
113	0x3875b080	5.857693e-05
114	0x388b244e	6.634799e-05
115	0x38bf6607	9.126594e-05
116	0x388a8092	6.604301e-05
117	0x388c2395	6.682348e-05
118	0x38929e7f	6.991345e-05
119	0x38ac21ff	8.2079314e-05
120	0x38e4a381	0.00010902342
121	0x38b0f0a0	8.437154e-05
122	0x38b221e4	8.494014e-05
123	0x38c5fff1	9.441365e-05
124	0x38fc82b7	0.00012040644
125	0x3a573b4c	0.0008210435
126	0x3a6681c0	0.0008793138
127	0x3a6f4adb	0.0009128281
128	0x3a723d2f	0.00092406844
129	0x3a6f9675	0.00091395463
130	0x3a3aae0d	0.00071212725
131	0x3a3f25c8	0.00072917016
132	0x3a410d7d	0.00073643756
133	0x3a4309b8	0.0007440108
134	0x3a4613d9	0.0007556058
135	0x3a212ca4	0.00061483146
136	0x3a1e71ca	0.00060441776
137	0x3a1ba7f6	0.0005937809
138	0x3a1c0bea	0.0005952703
139	0x3a21ddae	0.00061746954
140	0x3a0c7d15	0.0005359215
141	0x3a03da83	0.0005029814
142	0x39fe7811	0.00048536112
143	0x39ff7080	0.0004872121
144	0x3a07dc7f	0.0005182698
145	0x3a05ccb9	0.00051040534
146	0x39ee81c5	0.00045491583
147	0x39e515a8	0.0004369442
148	0x39eaa770	0.0004475671
149	0x3a003c37	0.0004891785

exp_avg f4 [6]
0	0xbc43071f	-0.011903553
1	0x3b41c397	0.0029566044
2	0xbce3f4a7	-0.02782662
3	0xbcc5bbbd	-0.024137372
4	0x3c5e2d08	0.013560541
5	0x3cd3ea0d	0.02586844

exp_avg_sq f4 [6]
0	0x3982fa0f	0.0002498184
1	0x38eda519	0.000113317925
2	0x39819f38	0.00024723425
3	0x39912d57	0.00027690336
4	0x39012db7	0.00012319429
5	0x39c69fdb	0.00037884605
